quick-start/notebooks_gpu/logs/log_20240531-14_25/model_epoch_1.bin (torch, 180126 bytes, 16 tensors)

conv1.weight f4 [10, 1, 5, 5]
0	0xbd091d7b	-0.03347538
1	0xbe780cc2	-0.24223617
2	0xbd97dbca	-0.07414968
3	0xbe8be5c8	-0.27323747
4	0xbde95bab	-0.113944374
5	0xbdea0fcd	-0.11428795
6	0xbd81c04c	-0.06335506
7	0xbe4a371e	-0.19747588
8	0xbd798b7e	-0.060924046
9	0xbda49ba9	-0.08037502
10	0x3d29d2b6	0.041460715
11	0xbd1b6003	-0.03793336
12	0xbe361c20	-0.17784166
13	0xbe99bd0c	-0.30027044
14	0xbe27acca	-0.16374508
15	0xbe859903	-0.260933
16	0xbdb5e20e	-0.08881007
17	0x3d31708e	0.04332023
18	0xbe53a8a4	-0.206698
19	0xbd5e1f72	-0.054229207
20	0xbd378582	-0.044805057
21	0xbd374b1c	-0.044749364
22	0xbe45060b	-0.19240586
23	0xbe0c3aeb	-0.1369435
24	0xbd908795	-0.0705711
25	0x3cbcea71	0.02306101
26	0x3dc9de86	0.09856896
27	0xbccaf48e	-0.024774816
28	0xbcd5f302	-0.026116852
29	0x3ea5fcc3	0.32419404
30	0xbde7bd41	-0.11315394
31	0xbd0fe4cf	-0.03513032
32	0x3de75be7	0.11296826
33	0xbda4055a	-0.08008833
34	0x3d6e3cf3	0.058163594
35	0xbd5ed783	-0.054404747
36	0x3d6c0f22	0.05763162
37	0xbd0aeb46	-0.03391578
38	0xbd3ddb0b	-0.046351474
39	0x3d824182	0.06360151
40	0xbe6a6c32	-0.22892836
41	0xbe03bfcb	-0.12866132
42	0xbca87dca	-0.020567793
43	0xbe0473b2	-0.1293476
44	0xbe31fac9	-0.17380823
45	0xbdbb3e16	-0.09142701
46	0xbe28a40e	-0.16468832
47	0xbe3c5a5c	-0.18393844
48	0xbdb20f6b	-0.08694347
49	0x3b915545	0.0044352137
50	0xba94f0ef	-0.0011363308
51	0xbdfa75a1	-0.12229467
52	0xbe089e18	-0.13341558
53	0xbe5c4061	-0.21508934
54	0xbac48759	-0.001499395
55	0xbe80ca08	-0.25154138
56	0x3cb67ec1	0.022277238
57	0xbe289ff4	-0.16467267
58	0x3dc1b36f	0.09458052
59	0xbe07727a	-0.13227263
60	0x3cb5424e	0.022126343
61	0xbdc43430	-0.095802665
62	0xbe1eff55	-0.15527089
63	0xbe703d5c	-0.23460907
64	0xbe0e86c3	-0.13918595
65	0xbe3e4e50	-0.18584561
66	0x3ad26e26	0.0016054555
67	0xbe8aa336	-0.27077645
68	0x3bdfd163	0.0068303808
69	0xbe5edef0	-0.21764731
70	0xbe786af6	-0.24259552
71	0x3cc6e5d5	0.024279514
72	0xbc2aefb0	-0.0104331225
73	0xbe142c44	-0.14470011
74	0xbcaf6097	-0.021408362
75	0xbe31a4fd	-0.17348094
76	0x3d8defba	0.0693049
77	0xbe8f1045	-0.279421
78	0xbe7d2c56	-0.24723944
79	0xbe9b78aa	-0.30365497
80	0xbd068b2e	-0.032847576
81	0xbe732523	-0.23744635
82	0xbc9f4e65	-0.019446561
83	0xbec8c13e	-0.39209932
84	0xbe1c2663	-0.15249018
85	0xbdb14daa	-0.08657391
86	0xbe43b198	-0.19110715
87	0xbdbe76ad	-0.09299979
88	0xbe6b8c73	-0.23002796
89	0xbe4c2622	-0.19936422
90	0xbe826155	-0.25464883
91	0xbdebc96b	-0.11513027
92	0xbe991744	-0.29900563
93	0xbe88e27a	-0.26735288
94	0xbe33694b	-0.17520635
95	0xbe42fd97	-0.1904205
96	0xbe3f7446	-0.18696699
97	0xbe1d4b58	-0.15360773
98	0xbeb61aa4	-0.355672
99	0xbeb16dbb	-0.3465403
100	0xbdc24697	-0.0948612
101	0x3c1b344d	0.009472919
102	0xbde99daa	-0.11407025
103	0x3c44d520	0.012013704
104	0x3d2cf896	0.042229258
105	0xbe58ff5f	-0.21191166
106	0xbc50daf0	-0.012747511
107	0xbe489bae	-0.19590637
108	0xbe2cefd0	-0.16888356
109	0xbd9f1898	-0.07768363
110	0xbc961930	-0.018322557
111	0xbdc771b0	-0.09738481
112	0xbce28fe2	-0.0276565
113	0xbdcc9729	-0.09989769
114	0xbe798a80	-0.2436924
115	0x3c910bd8	0.017705843
116	0xbe4c3f9e	-0.19946143
117	0xbd270550	-0.04077655
118	0xbd2e66b8	-0.04257843
119	0xbe6e1c62	-0.23253015
120	0x3e4dfb16	0.20115313
121	0x3e167a43	0.14695077
122	0xbda02cf8	-0.07821077
123	0x3e1efd4f	0.15526317
124	0xbd253625	-0.04033484
125	0xbd8ff4a0	-0.070290804
126	0xbe4be473	-0.19911365
127	0xbd9a5246	-0.07535224
128	0xbc83c3db	-0.016084602
129	0xbe1b22bc	-0.15149969
130	0xbdf62ac9	-0.12019879
131	0x3e204e55	0.15654881
132	0xbe16258a	-0.14662758
133	0x3d15958c	0.036519572
134	0xbe480341	-0.19532491
135	0xbe44488b	-0.19168298
136	0x3cf5941e	0.029977854
137	0xbe3b0b8c	-0.18266124
138	0x3cf8a1b7	0.03035055
139	0xbe16c6c8	-0.14724267
140	0xbdf3bb65	-0.11900977
141	0xbdf43c37	-0.119255476
142	0xbe395872	-0.18100145
143	0x3da89ae9	0.08232672
144	0xbcdc7860	-0.026912868
145	0xbac6d2cd	-0.0015169025
146	0xbc98b887	-0.018642677
147	0xbca76d22	-0.02043778
148	0xbe7a7d7f	-0.24461935
149	0xbd9e1381	-0.07718564
150	0xbe3db46e	-0.1852586
151	0xbcaa064d	-0.020754958
152	0x3ba21c0b	0.0049471906
153	0xbcb41282	-0.021981481
154	0xbd831d1c	-0.064020365
155	0xbddb7cb6	-0.10717146
156	0x3dbeb15f	0.093111746
157	0xbe56a18b	-0.20960061
158	0xbe4c1b28	-0.19932234
159	0xbd9774f7	-0.07395356
160	0xbc1ab72d	-0.009443087
161	0xbe52dc12	-0.20591763
162	0xbc2aed34	-0.01043253
163	0x3d2177e4	0.039420977
164	0x3dbe8646	0.093029544
165	0xbe4d9c52	-0.20079163
166	0xbe200480	-0.15626717
167	0x3e0d7822	0.13815358
168	0xbe2b6021	-0.16735889
169	0xbe1ef0d3	-0.15521555
170	0xbc0d267d	-0.008615133
171	0xbd5d4c29	-0.05402771
172	0xbe00243a	-0.1251382
173	0xbe0992f9	-0.13434972
174	0xbb701a38	-0.0036636721
175	0xbe571108	-0.2100259
176	0xbe05e2da	-0.13074818
177	0xbe3c5539	-0.18391885
178	0xbd6c74ef	-0.057728704
179	0xbe9bbbe0	-0.30416775
180	0xbda0f03f	-0.07858323
181	0xbe6b75f4	-0.22994214
182	0xbebc0db3	-0.36729202
183	0xbe79039e	-0.24317786
184	0xbe954be8	-0.29159474
185	0xbebc2a30	-0.36750937
186	0xbdda51c7	-0.10660129
187	0xbe044442	-0.12916663
188	0xbe6878ba	-0.22702304
189	0xbe0814ac	-0.13289136
190	0xbd66e2ae	-0.056368522
191	0xbedeb4ed	-0.4349741
192	0xbe39943e	-0.18122956
193	0xbe4f37cb	-0.20236127
194	0xbe18e796	-0.14932093
195	0xbe911c3b	-0.2834185
196	0xbe034938	-0.128209
197	0xbe49d942	-0.19711784
198	0xbe75f2eb	-0.24018447
199	0xbe4bd2ca	-0.19904628
200	0xbe511e48	-0.20421708
201	0xbe0cbe28	-0.13744414
202	0xbe43e00b	-0.19128434
203	0xbed86bef	-0.42269847
204	0xbe8220e3	-0.25415716
205	0xbe1bd416	-0.15217623
206	0xbe29f093	-0.16595678
207	0xbed4a36c	-0.4153093
208	0xbeae89dd	-0.34089556
209	0xbe840101	-0.25782016
210	0xbdc42dff	-0.095790856
211	0xbdfa0dab	-0.12209638
212	0xbded11d9	-0.1157567
213	0xbe3124c6	-0.17299184
214	0xbe84a63e	-0.25908083
215	0xbe529412	-0.20564297
216	0xbe422485	-0.18959244
217	0x3c9ee62d	0.019396866
218	0xbe473ed9	-0.19457568
219	0xbe1ed8d8	-0.15512407
220	0xbdc2eabf	-0.095174305
221	0xbe08f394	-0.13374168
222	0xbe9356ff	-0.2877731
223	0xbdd81294	-0.105504185
224	0xbe64d365	-0.22346266
225	0xbe074c46	-0.1321269
226	0xbdc53f5d	-0.09631226
227	0xbe02eb74	-0.1278513
228	0xbdc514fd	-0.09623144
229	0xbe0d96b4	-0.1382702
230	0x3db3903a	0.087677434
231	0xbe828474	-0.2549168
232	0xbd31b7aa	-0.043388046
233	0xbd99780b	-0.074935995
234	0xbcf39ab9	-0.029736863
235	0x3dedd166	0.11612205
236	0x3babdce7	0.0052448395
237	0xbd7b83a8	-0.061404854
238	0xbe48c9b4	-0.19608194
239	0xbd39fbb4	-0.04540606
240	0x3dd16b6f	0.102255695
241	0xbcffa083	-0.031204468
242	0xbdb811ca	-0.08987768
243	0xbd9e5041	-0.07730151
244	0x3d233897	0.03984889
245	0x3e4ee359	0.20203914
246	0xbdd3e793	-0.10346904
247	0xbe0d3f93	-0.13793783
248	0xbe0ff0d0	-0.14056706
249	0xbd50b7b6	-0.05095645

conv1.bias f4 [10]
0	0x3e45121d	0.19245191
1	0x3e2b7eed	0.16747637
2	0xbdcfc5a1	-0.101451166
3	0xbd726b1c	-0.05918418
4	0x3ccb6465	0.024828145
5	0xbaf2b447	-0.0018516862
6	0x3dac24fe	0.08405493
7	0x3dfcade8	0.123378575
8	0x3dadf68a	0.08494289
9	0x3c7110a5	0.014713441

conv2.weight f4 [20, 10, 5, 5]
0	0xbc846046	-0.016159188
1	0xbcb9e66d	-0.022692883
2	0xbc1d261d	-0.009591606
3	0xbd3eefe5	-0.0466155
4	0xbd3f14b4	-0.046650603
5	0x3d2f79ff	0.042840954
6	0xbd85e409	-0.06537635
7	0xbd14200e	-0.036163382
8	0xbd29567f	-0.041342255
9	0x3cd3673c	0.025806062
10	0xbd68a861	-0.056801204
11	0xbc68b813	-0.014204043
12	0x3caaf206	0.020867359
13	0xbd85a889	-0.06526286
14	0x3c834a41	0.016026618
15	0xbce1a912	-0.02754644
16	0xbd7ee43c	-0.06222938
17	0x3c85e4fc	0.01634454
18	0x3bf2669f	0.0073974873
19	0xbbdecc20	-0.006799236
20	0x3c85b0b1	0.016319605
21	0xbd8675a1	-0.06565405
22	0xbd744ca3	-0.0596434
23	0xbd2dfba2	-0.042476304
24	0x3cd04f43	0.02542842
25	0xbc3b7cb4	-0.011443306
26	0xbc871f8f	-0.01649454
27	0xbc393854	-0.011304934
28	0xbd87fee7	-0.06640416
29	0x3e0f370a	0.1398584
30	0xbdabd3ba	-0.08389993
31	0xbcb3afa1	-0.021934332
32	0xbcaf8086	-0.02142359
33	0x3d095b2d	0.033534218
34	0x3e0c1aa8	0.13682044
35	0xbddcc28b	-0.107792936
36	0xbd1c1d5e	-0.038113944
37	0x3d34fec1	0.044188265
38	0x3de1202e	0.10992466
39	0x3c5c1b1d	0.013434199
40	0xbdd90d75	-0.1059827
41	0xbb703ce9	-0.00366574
42	0x3d8584da	0.0651948
43	0x3bf109ce	0.007355905
44	0xbdb485ad	-0.08814559
45	0xbda7dc64	-0.08196333
46	0xbd872d82	-0.06600477
47	0xbd9da951	-0.0769831
48	0xbe08147b	-0.13289063
49	0xbd8fe5e4	-0.0702627
50	0xbd4b9865	-0.04970588
51	0x3d0fb3e8	0.03508368
52	0xbc259cfc	-0.010108229
53	0xbcee81d1	-0.029114636
54	0x3c1df5b9	0.009641104
55	0xbd78d936	-0.060754023
56	0xbbd74dbd	-0.0065705464
57	0xbd5b3c07	-0.053524043
58	0xbd3452dd	-0.044024337
59	0x3c4dbbf3	0.012557018
60	0xbd55c676	-0.05219122
61	0x3c186d19	0.009303355
62	0xbd5144ad	-0.051090885
63	0xbcd17c63	-0.025572008
64	0xbd25bd76	-0.040463887
65	0xbd165dd3	-0.03671057
66	0x3c9d97d6	0.01923744
67	0x3d0cacd4	0.03434451
68	0xbc2e8c46	-0.010653561
69	0xbd9cf155	-0.07663218
70	0xbc61de12	-0.013785856
71	0xbd75a2fa	-0.05996988
72	0xbd453530	-0.048146427
73	0xbd8244ce	-0.0636078
74	0xbd6b9d7c	-0.057523236
75	0x3cc9b336	0.024621587
76	0x3c3cdb28	0.01152686
77	0x3d2d1e5a	0.042265274
78	0xbc313ee8	-0.010818221
79	0x3ad4ea55	0.0016244153
80	0xbd634941	-0.055489782
81	0xbb84519c	-0.004038049
82	0xbd52c2fd	-0.051455487
83	0xbcb9ae1d	-0.022666031
84	0xbca7d7cf	-0.020488648
85	0x3d17d678	0.037069768
86	0xbc94f5b5	-0.018183568
87	0x3c995f6a	0.018722255
88	0xbd9a596b	-0.075365864
89	0xbd3495fc	-0.04408835
90	0xbd4931d8	-0.0491198
91	0x3cadbb64	0.021207519
92	0xbd51c0d0	-0.05120927
93	0x3d2928ad	0.041298557
94	0xbd7bbea3	-0.061461102
95	0xbd0cdbdf	-0.034389373
96	0xbcd5f24a	-0.026116509
97	0x3c9fb515	0.019495526
98	0xbd84a0b4	-0.06475964
99	0xbcf7b7a0	-0.030238926
100	0x3c2689b5	0.010164668
101	0xbc3317cc	-0.010930967
102	0xbc050b5a	-0.008120382
103	0xbc0a6841	-0.008447708
104	0xbd4094e0	-0.04701698
105	0xbd4f31c1	-0.05058456
106	0xbd19d653	-0.03755791
107	0xbd8b07e0	-0.067886114
108	0xbb8ca08d	-0.0042916
109	0xbd357838	-0.044304103
110	0xbd7d291c	-0.061806783
111	0xbd153568	-0.036427885
112	0xbd14cff6	-0.03633114
113	0x3ce48ff7	0.027900679
114	0xbca33c3e	-0.019926187
115	0xbdd0a355	-0.10187403
116	0xbd50f3fb	-0.051013928
117	0xbd5e713d	-0.05430721
118	0xbc94c5d0	-0.01816073
119	0x3d9614c4	0.073281795
120	0xbdbc152d	-0.091837265
121	0xbd791d88	-0.06081918
122	0xbd1714b7	-0.03688499
123	0xbd3dd865	-0.046348948
124	0x3e1c77bb	0.15280049
125	0x3d652693	0.05594499
126	0x3aab1400	0.0013052225
127	0xbc5b840a	-0.01339818
128	0xbd0bdb22	-0.03414453
129	0x3b21fba9	0.0024716652
130	0xbac65b59	-0.0015133425
131	0x3d3cb824	0.046074048
132	0x3c3587a0	0.011079699
133	0xbcdec7f0	-0.027194947
134	0x3d4bf693	0.0497957
135	0x3ce26c20	0.027639449
136	0xbd3d434b	-0.046206754
137	0xbd8409e3	-0.06447198
138	0xbd1f139f	-0.03883707
139	0xbcfea5a0	-0.031084836
140	0xbd3d6800	-0.04624176
141	0x3d373c44	0.04473521
142	0x3ce03312	0.027368102
143	0xbd1883bb	-0.037235003
144	0xbcead5bd	-0.028666371
145	0x3d1f50f8	0.038895577
146	0xbc7b5b71	-0.015341626
147	0x3d65d368	0.056109816
148	0x3d0a00b6	0.033692084
149	0xbd6afedc	-0.05737196
150	0x3b981ee2	0.0046423534
151	0x3b397c93	0.0028303012
152	0xbd0422a0	-0.032259583
153	0x3c495c1c	0.012290027
154	0xbd829fec	-0.06378159
155	0x3bffc021	0.007804886
156	0xbd51044f	-0.0510295
157	0x3d44ac75	0.04801603
158	0xbd8e6191	-0.06952203
159	0xbc3c955d	-0.01151022
160	0xbc410414	-0.011780757
161	0x3d403e18	0.046934217
162	0xbd889725	-0.066694535
163	0xbd2e74df	-0.042591926
164	0x3d5527bf	0.052039858
165	0xbc103b54	-0.008803207
166	0xbd5ce133	-0.053925704
167	0xbc1e0aa3	-0.009646091
168	0xbc8b590e	-0.017010238
169	0x3d025122	0.031815656
170	0xbcbd5275	-0.023110608
171	0xbd6e6e02	-0.05821038
172	0xbcf498bf	-0.029857991
173	0x3d585e9c	0.0528246
174	0x3d46800d	0.048461962
175	0xb9b80155	-0.00035096207
176	0x3c87f994	0.0165985
177	0x3c3c8af8	0.011507742
178	0xbc9701f5	-0.01843355
179	0x3d01de7f	0.03170633
180	0xbd82df1a	-0.063902095
181	0x3b1c0821	0.0023808556
182	0xbb9626d4	-0.0045822654
183	0xbd4a0fbe	-0.04933142
184	0xbcbdd3b6	-0.02317224
185	0xbcb8af97	-0.022544665
186	0xbcf00253	-0.029297983
187	0xbca393c7	-0.019967927
188	0x3cadb260	0.02120322
189	0x3cb2f344	0.021844514
190	0xbb05e297	-0.0020429248
191	0xbd2c279b	-0.04202996
192	0xbc83b6c0	-0.016078353
193	0xbd95ce3a	-0.07314725
194	0xbd906d55	-0.070521034
195	0x3d0e9ce0	0.034817576
196	0x3cf26a3e	0.029591676
197	0xbd4e75fe	-0.050405495
198	0xbc2dbb87	-0.010603792
199	0x3ca2fd73	0.019896245
200	0xbc48a2d1	-0.01224585
201	0x3cc8450b	0.024446985
202	0xbcbb6bbf	-0.022878526
203	0xbd6947ed	-0.05695336
204	0x3c6dff40	0.014526188
205	0xbd48696a	-0.048928656
206	0xbcd1df85	-0.025619278
207	0xbc0cf069	-0.00860224
208	0xbcff57d1	-0.031169804
209	0xbd059207	-0.032609966
210	0xbc611d6d	-0.013739926
211	0xbcce8ece	-0.025214579
212	0x3bf895d9	0.0075862226
213	0xbdb27d6d	-0.08715329
214	0xbde1c07d	-0.11023042
215	0x3d014995	0.031564314
216	0xbd88491c	-0.066545695
217	0xbd858399	-0.06519241
218	0xbd133a23	-0.035944115
219	0x3a0a2f36	0.0005271317
220	0x3b961173	0.004579717
221	0x3ce423c5	0.027849087
222	0x3c81a245	0.015824446
223	0xbc9788f3	-0.01849792
224	0xbd9e87af	-0.07740723
225	0x3c9ffa11	0.01952842
226	0xbd7eb24c	-0.062181756
227	0x3cce4f62	0.025184337
228	0x3ca52f67	0.020164205
229	0x3cd43044	0.025901921
230	0x3a1fc74f	0.0006095068
231	0xbe11606b	-0.14196937
232	0xbd0f8b0c	-0.035044715
233	0xbca28d42	-0.019842748
234	0x3c73309b	0.014843131
235	0xbd2f0f4c	-0.042739198
236	0x3b7c6659	0.0038513152
237	0x3b999260	0.0046866387
238	0xbd420904	-0.04737188
239	0xbd0205cc	-0.03174381
240	0xbcbc93be	-0.023019668
241	0x3da1f07b	0.07907196
242	0x3da82c89	0.082116194
243	0xbd258d02	-0.04041768
244	0xbcec4f69	-0.02884646
245	0xbc555f62	-0.013023229
246	0x3d80b129	0.062837906
247	0x3e27fe11	0.16405512
248	0xbd86c32a	-0.06580193
249	0xbc8b08f2	-0.016972039
250	0xbe106d1b	-0.1410412
251	0xbd85e9d0	-0.06538737
252	0xbe287199	-0.16449584
253	0xbe3a38cf	-0.18185733
254	0xbdc172fb	-0.09445759
255	0xbe1f5b81	-0.1556225

conv2.bias f4 [20]
0	0xbc6bdaa7	-0.0143953925
1	0x3c554c98	0.01301875
2	0x3c2c91af	0.010532781
3	0xbd9bfa28	-0.07616073
4	0xbd38cf48	-0.045119554
5	0x3d5a72bd	0.05333208
6	0xbd1ee1ef	-0.038789686
7	0xbbcd6f7b	-0.006269393
8	0xbcb4a415	-0.022050897
9	0xbda146a6	-0.07874803
10	0x3bcdd74c	0.006281769
11	0xbcec853d	-0.028872127
12	0xbc1a9c42	-0.009436669
13	0xbc6b256a	-0.014352182
14	0x3b57815c	0.00328835
15	0x3d0ae8fc	0.033913597
16	0x3a0c1ff6	0.0005345339
17	0xbd7302ea	-0.05932895
18	0xbd4fee23	-0.050764214
19	0x3c0fac71	0.008769141

fc1.weight f4 [50, 320]
0	0x3d649f0d	0.055815745
1	0xbcc14b0c	-0.023595355
2	0xbd237a2a	-0.039911427
3	0xbcf74247	-0.03018297
4	0x3c13e5cf	0.009026959
5	0xbd21e016	-0.039520346
6	0xbb9be4af	-0.004757486
7	0xbab3c841	-0.0013716297
8	0xbd0d6e13	-0.034528803
9	0xbd38f112	-0.045151778
10	0xbc992b93	-0.018697536
11	0xbd7cf4cb	-0.06175689
12	0xbcf62356	-0.030046146
13	0xbd237ab5	-0.039911944
14	0x3be38836	0.006943728
15	0xbd0e8745	-0.03479697
16	0x3cabe3f7	0.020982726
17	0xbc8e5552	-0.017374668
18	0xbd5ad8d4	-0.05342944
19	0xbd13ac1d	-0.036052812
20	0x3d5441ca	0.051820554
21	0x3cf1ef3c	0.029533021
22	0xbcf58d12	-0.029974494
23	0xbb3704f9	-0.0027926548
24	0x3cc99f33	0.024612045
25	0x3d3015e6	0.042989634
26	0xbb46a34c	-0.0030309735
27	0x3cc16d99	0.02361183
28	0x3d0756cb	0.033041757
29	0x3b38001e	0.0028076242
30	0xbd21cad0	-0.039500058
31	0xbd53595f	-0.051598903
32	0xbbda10c3	-0.00665483
33	0xbd0087c2	-0.03137947
34	0xbd47a0e2	-0.048737414
35	0xbc510569	-0.012757638
36	0xbd708197	-0.058717337
37	0xbbbc49bf	-0.005746096
38	0x3ced18b7	0.028942449
39	0x3c7b4a72	0.015337573
40	0xbcf1b473	-0.02950499
41	0xbd7c6a6b	-0.061624926
42	0xbbe6f141	-0.0070478027
43	0x3c50ccb2	0.012744116
44	0xbd838d15	-0.06423394
45	0x3c81d405	0.01584817
46	0xbd328990	-0.04358822
47	0xbce7a7dc	-0.028278284
48	0xbd330bad	-0.043712307
49	0xbd70c2ea	-0.058779635
50	0x3bc4e3f8	0.0060086213
51	0xbd184339	-0.037173484
52	0x3d8082c8	0.062749445
53	0x3d378ce3	0.044812094
54	0x3d1a9ce7	0.03774729
55	0xbd128c58	-0.035778373
56	0xbd063f18	-0.032775015
57	0x3c18be6e	0.009322746
58	0xbd167100	-0.03672886
59	0x3c83c598	0.016085431
60	0x3d313a56	0.043268524
61	0xbc666d2c	-0.014064115
62	0x3c9f002d	0.019409264
63	0xbac6187f	-0.0015113502
64	0x3dab896e	0.08375822
65	0x3d883d87	0.066523604
66	0x3ab32fc6	0.0013670854
67	0xbd015e13	-0.031583857
68	0xbd7aafe4	-0.0612029
69	0xbd014a01	-0.031564716
70	0xbd1d4f2a	-0.038405575
71	0xbd31ccda	-0.043408252
72	0xbd8cc180	-0.06872845
73	0xbd6aea48	-0.057352334
74	0x3cef2494	0.029192246
75	0x3de44d63	0.11147573
76	0xbcabbcc0	-0.020964026
77	0xbd253ba2	-0.040340073
78	0xbac16188	-0.0014753798
79	0x3d9b1baf	0.075736396
80	0x3ba71c98	0.005099844
81	0xbd0aac86	-0.033855937
82	0x3d2e9f9f	0.042632695
83	0x3cd93b6b	0.02651759
84	0xbd05376a	-0.03252355
85	0xbd3ef541	-0.04662061
86	0x3d2fd4c9	0.042927537
87	0xbcfe5282	-0.031045202
88	0xbc6d35db	-0.014478172
89	0x3bc588e5	0.006028282
90	0xbced4703	-0.028964525
91	0xbbfb1cb1	-0.0076633324
92	0x3c0e5156	0.008686384
93	0x3c9d937d	0.019235367
94	0xbc70d5da	-0.014699424
95	0x3d158650	0.036505044
96	0x3cb3f58a	0.021967668
97	0x3b086e19	0.0020817576
98	0xbd6008e8	-0.054695994
99	0xbad0c20c	-0.0015926971
100	0x3d592548	0.05301407
101	0xbc54f85b	-0.012998666
102	0xbc213bad	-0.009840888
103	0xbd165947	-0.036706235
104	0xbd367ed9	-0.044554565
105	0x3c1eb343	0.009686294
106	0xbd3780a1	-0.044800404
107	0x3d1c20e8	0.03811732
108	0x3d3c0b6e	0.045909338
109	0x3cc2e34b	0.023790022
110	0xbce2cee2	-0.02768654
111	0xbd68f5ab	-0.056874912
112	0xbb9f1e68	-0.0048559196
113	0x3cfbd62c	0.030741774
114	0xbc7dc73c	-0.015489396
115	0x3b54a0f8	0.0032444578
116	0xbd22861a	-0.03967867
117	0xbcca9e2c	-0.024733625
118	0xbcf360c5	-0.02970923
119	0xbcd35cd4	-0.0258011
120	0x3d140d06	0.036145233
121	0x3d891d4c	0.06695041
122	0x3c7b4c65	0.015338038
123	0xbc8aea5a	-0.01695745
124	0x3d08fa31	0.033441726
125	0xbc8f983b	-0.017528644
126	0x3d1380b8	0.036011428
127	0x3c94c7b3	0.01816163
128	0xbcb562c5	-0.022141824
129	0xbd014725	-0.03156199
130	0xbcf81467	-0.030283166
131	0xbc8e1e27	-0.017348362
132	0x3b9abfb1	0.0047225584
133	0xbcb3c3a2	-0.021943871
134	0x3d04981c	0.032371625
135	0xbce45369	-0.027871804
136	0x3d04fc3f	0.032467123
137	0xbcc33599	-0.023829268
138	0xbae04e06	-0.0017113097
139	0xbd3b0546	-0.045659326
140	0xbd3709dc	-0.044687137
141	0xbccc6d57	-0.024954481
142	0xbc4e98c5	-0.012609665
143	0xbc31a7a3	-0.01084319
144	0xbc14b736	-0.009076884
145	0xbcd9a101	-0.02656603
146	0xbb1b51ce	-0.0023699882
147	0xbbe76562	-0.0070616463
148	0x3d97ad84	0.07406142
149	0xba99bc71	-0.0011729134
150	0x3d0247ba	0.031806685
151	0xbd64ed3e	-0.055890314
152	0x3d2398d6	0.039940678
153	0xbd5ea561	-0.054356936
154	0xbb5bb2ef	-0.00335234
155	0x3c906b10	0.017629176
156	0xbd6ae7b1	-0.057349864
157	0xbd0214c6	-0.031758092
158	0x3ce22f53	0.027610457
159	0x3d49a219	0.049226854
160	0x3c3e4f4c	0.011615586
161	0xbd0509dc	-0.032480106
162	0xbd2370d1	-0.039902512
163	0x3d47f881	0.048820976
164	0xbc16e759	-0.009210431
165	0x3ae9d576	0.0017840106
166	0xbbbd086e	-0.005768827
167	0xbd146506	-0.036229156
168	0xbd24cb91	-0.0402332
169	0xbcc99cb3	-0.024610853
170	0xbd44f726	-0.04808726
171	0xbd0bafc6	-0.034103177
172	0xbd55e316	-0.05221852
173	0xbc77da62	-0.01512775
174	0xbd4f0ae2	-0.050547488
175	0x3ce2585c	0.027630024
176	0xbd455abc	-0.048182234
177	0xbcfd2237	-0.030900104
178	0x3d690f8d	0.056899596
179	0xbd3de4e0	-0.04636085
180	0xbcc35802	-0.023845676
181	0xbc517845	-0.012785022
182	0xbcdaf677	-0.026728852
183	0xbcf6bd69	-0.030119615
184	0x3d80334c	0.06259784
185	0x3d4a4c4f	0.04938918
186	0xbd49c593	-0.049260687
187	0xbd1dd33b	-0.038531523
188	0x3c0bf142	0.008541407
189	0xbc734e7e	-0.014850257
190	0xbd2b8423	-0.041874062
191	0xbd2ab816	-0.041679464
192	0xbd014ae6	-0.03156557
193	0xbd21f725	-0.039542336
194	0xbc826bd1	-0.015920551
195	0xbd0a5a50	-0.033777535
196	0xbcdc2d3d	-0.02687704
197	0x3d02cf33	0.03193588
198	0xbc3407b7	-0.0109881675
199	0xbc3eadd4	-0.011638124
200	0x3d1e629f	0.03866827
201	0xbd24da16	-0.040247045
202	0x3d63210d	0.05545144
203	0xbc210cad	-0.009829682
204	0xbd4c8092	-0.0499273
205	0x3cbb0ad8	0.02283232
206	0x3c861b3b	0.016370406
207	0xbc8e682f	-0.017383663
208	0xbc80ef0a	-0.015738983
209	0xbcfffb2d	-0.0312477
210	0xbc02be37	-0.007979921
211	0x3d05937f	0.032611366
212	0x3bdef31b	0.006803883
213	0xbc951455	-0.018198172
214	0x3d1734ac	0.036915466
215	0x3ce7edf2	0.028311703
216	0x3d3d9de3	0.04629315
217	0xbd10eebf	-0.035383936
218	0xbd81d55e	-0.06339525
219	0xbcec17ae	-0.028819885
220	0x3c85944d	0.016306067
221	0xbd309938	-0.04311487
222	0xbccdfe4a	-0.025145669
223	0xbd5314d5	-0.05153354
224	0x3d095178	0.03352496
225	0xbbf4f25c	-0.0074751806
226	0x3dd279c4	0.10277131
227	0x3d7c2772	0.061561055
228	0xbd7ab401	-0.06120682
229	0xbc2729fa	-0.010202879
230	0xbcec5e01	-0.028853418
231	0x3d42450d	0.047429133
232	0xbbd90f57	-0.006624143
233	0xba9ff7a2	-0.0012204538
234	0xbd81442c	-0.06311831
235	0xbd319988	-0.04335931
236	0x3cd533a8	0.026025608
237	0xbd3f64ed	-0.04672711
238	0x3bd0343e	0.006353884
239	0x3c9deb8b	0.019277355
240	0xbc927914	-0.01788
241	0xbd596b47	-0.053080823
242	0x3c5b1b39	0.01337319
243	0x3d3d8df4	0.046277955
244	0xbcab5197	-0.020912929
245	0xbce518e1	-0.027965965
246	0xbd24cdd9	-0.040235374
247	0xbbbed690	-0.0058239177
248	0x3d1eaac9	0.038737092
249	0xbd070c9f	-0.03297102
250	0x3cab6ecb	0.020926854
251	0xbb8efa6e	-0.0043633496
252	0xbd3d2f76	-0.04618784
253	0xbd48a172	-0.04898209
254	0x3ccb59f0	0.024823159
255	0x3d1aa102	0.037751205

fc1.bias f4 [50]
0	0xbd09fc91	-0.03368813
1	0x3b806362	0.0039180974
2	0x3d2bb9e6	0.041925333
3	0x3d4ec206	0.050478004
4	0xbc861e6e	-0.016371932
5	0xbd8b4871	-0.068009265
6	0x3d5feabf	0.05466723
7	0x3d5f0d3e	0.054455988
8	0xbce20da7	-0.0275944
9	0x3c401c47	0.011725492
10	0x3bfd94b7	0.0077386755
11	0x3d35c535	0.044377524
12	0xbb8bce34	-0.0042665247
13	0xbcd8615f	-0.026413618
14	0x3d04964d	0.0323699
15	0xbd505d72	-0.050870366
16	0x3d0203d8	0.031741947
17	0xbd7e1ffa	-0.062042214
18	0xbca86e24	-0.020560332
19	0x3c8edad1	0.017438324
20	0x3bc0d1b0	0.0058843717
21	0x3bb997b4	0.0056638364
22	0xbd743fd9	-0.059631202
23	0xbd65197a	-0.0559325
24	0x3d2b3852	0.041801758
25	0xbd015479	-0.0315747
26	0xbc451478	-0.012028806
27	0xbc34af0a	-0.011028061
28	0xbc3dcd37	-0.011584572
29	0xbcc0f5dc	-0.023554735
30	0xb81060c6	-3.4422403e-05
31	0xbd41b202	-0.047288902
32	0xbd3ff6fd	-0.046866406
33	0x3cfff726	0.03124578
34	0x3d7ee86a	0.062233366
35	0xbd4923b2	-0.049106307
36	0x3c7b5f73	0.015342581
37	0x3b0f0143	0.002182082
38	0xbd2d8ad8	-0.04236874
39	0x3bbd9885	0.005786004
40	0x3db7fa58	0.08983296
41	0x3d375d5f	0.04476678
42	0x3d215e66	0.039396666
43	0x3c8f24f8	0.017473683
44	0xbbf95982	-0.007609547
45	0x3ceb5d17	0.028730912
46	0xbd38e43b	-0.045139533
47	0xbc5a857b	-0.013337488
48	0x3d08a9cf	0.033365067
49	0xbc38973d	-0.011266527

fc2.weight f4 [10, 50]
0	0x3c6b3cad	0.014357728
1	0xbad34488	-0.0016118446
2	0xbdebdbcf	-0.115165345
3	0x3e2ba1e6	0.16760978
4	0xbba26de5	-0.004956948
5	0x3e897d2c	0.2685331
6	0x3e278f35	0.16363223
7	0x3e1dbceb	0.15404098
8	0x3dd28c7d	0.10280702
9	0x3da0ad78	0.078455865
10	0x3cae4647	0.021273745
11	0x3e0e0004	0.13867193
12	0xbb0f1727	-0.0021833868
13	0x3ded621d	0.11590979
14	0xbe34429b	-0.17603533
15	0x3da3a0e9	0.079896756
16	0xbd5fc127	-0.054627564
17	0xbcf8c170	-0.030365676
18	0xbde7d305	-0.11319546
19	0xbd960ae5	-0.07326297
20	0x3d1145d8	0.035467
21	0xbd3c0416	-0.045902334
22	0x3e2b935c	0.16755432
23	0x3c867bf5	0.01641653
24	0xbc8deb1d	-0.017324025
25	0x3d323c1f	0.043514367
26	0xbe62c93d	-0.22147079
27	0x3bb052d1	0.0053809662
28	0xbd1bf205	-0.038072605
29	0x3d11ea22	0.035623677
30	0x3c2664b9	0.01015585
31	0x3d5be01e	0.05368053
32	0xbddcd0f2	-0.10782041
33	0xbdfa7735	-0.12229768
34	0x3e3cd5ea	0.18440977
35	0x3e8a5754	0.2701975
36	0xbbcb3e66	-0.006202507
37	0x3e85e17f	0.26148602
38	0xbdf1fa90	-0.11815369
39	0x3cfd863e	0.0309478
40	0x3c18dc11	0.009329812
41	0xbdd64fe3	-0.10464456
42	0xbdf5c989	-0.120013304
43	0x3d5b7f31	0.053588096
44	0xbda29c3d	-0.07939956
45	0x3e354625	0.1770254
46	0xbd03c05a	-0.032165863
47	0xbd7d8747	-0.06189659
48	0xbe0ea08e	-0.13928434
49	0x3d5deffb	0.05418394
50	0x3d2826f9	0.041052792
51	0xbdd732ec	-0.105077595
52	0x3afb5081	0.0019173772
53	0x3d1a3930	0.037652194
54	0x3e5f7e6c	0.2182557
55	0x3e8d3b2e	0.27584213
56	0x3e4bf8f2	0.19919184
57	0x3e5c282e	0.21499702
58	0x3d434e4a	0.047682084
59	0xbd253286	-0.040331386
60	0x3e5e0790	0.21682572
61	0xbd8f7c8e	-0.07006179
62	0xbdafc02f	-0.08581578
63	0xbc52f6f6	-0.012876263
64	0xbdaa6c3a	-0.08321424
65	0x3de92971	0.113848574
66	0x3dc86ea3	0.09786727
67	0x3d595293	0.053057265
68	0xbcecd074	-0.028907992
69	0x3e89895c	0.2686261
70	0xbdd819fc	-0.10551831
71	0x3c98970a	0.018626709
72	0x3e2f3a15	0.17112
73	0x3e88293a	0.26593953
74	0x3d86b759	0.065779395
75	0x3d26ca95	0.04072054
76	0x3c38fff5	0.011291494
77	0x3e0bc30a	0.1364862
78	0xbe1d693d	-0.15372176
79	0xbd75aab3	-0.059977245
80	0xbdcf60cb	-0.10125884
81	0x3d15b17b	0.03654621
82	0xbc857761	-0.016292276
83	0x3d40bb03	0.04705335
84	0x3e93d972	0.28876835
85	0x3e9370b3	0.2879692
86	0x3e0ccd2b	0.1375014
87	0x3bcbafb2	0.006216013
88	0x3dd5fc13	0.1044847
89	0xbd87f7d0	-0.06639063
90	0x3ec9c142	0.39405257
91	0xbcb2c2af	-0.021821348
92	0xbcd83ed5	-0.026397148
93	0xbe091b8c	-0.13389415
94	0x3e8a632c	0.27028787
95	0x3d85753c	0.06516501
96	0x3d9c4ddf	0.0763204
97	0xbd6cb117	-0.057786074
98	0xbd9357ef	-0.071945064
99	0x3e5f2f95	0.21795495
100	0x3e250227	0.16114102
101	0xbe29c641	-0.16579534
102	0xbe15de34	-0.14635545
103	0x3d76034f	0.06006175
104	0xbb8f1f1e	-0.004367723
105	0x3e2c3d8a	0.1682035
106	0x3c0132bf	0.007885634
107	0xbd8b7933	-0.06810226
108	0x3e179c33	0.14805679
109	0x3d961b93	0.07329478
110	0x3d17f522	0.03709901
111	0xbc98e9be	-0.018666144
112	0x3dca5edd	0.09881375
113	0xbdef17ab	-0.11674436
114	0x3cc1ec19	0.02367215
115	0xbbd941e6	-0.00663017
116	0x3e1e547c	0.15461916
117	0xbd8e37bb	-0.069442235
118	0xbdfcc4a1	-0.123421915
119	0x3dd8fa0f	0.1059457
120	0xbc9fe63c	-0.019518964
121	0xbd9bc908	-0.07606703
122	0x3d1ee5a6	0.03879323
123	0xbc2d2669	-0.01056824
124	0x3e1a63a9	0.1507708
125	0xbc9c161b	-0.01905351
126	0x3d766632	0.060156055
127	0x3df9d31d	0.1219847
128	0x3d5ed9a3	0.054406773
129	0x3e03bbdf	0.12864636
130	0x3d14d889	0.036339317
131	0x3c973647	0.018458499
132	0xbe254c6d	-0.16142435
133	0x3de9a11a	0.11407681
134	0xbb373d2c	-0.0027960045
135	0x3dd6223b	0.10455748
136	0x3e41641c	0.18885845
137	0x3cc42934	0.023945428
138	0xbdb752fb	-0.08951374
139	0x3dc37946	0.095446154
140	0xbd3ea6ca	-0.04654578
141	0xbdc8619e	-0.09784244
142	0xbd064733	-0.032782745
143	0xbe08ea9e	-0.1337075
144	0x3d336f60	0.043807387
145	0x3d291213	0.041277003
146	0xbd27681a	-0.040870763
147	0x3b71b0ed	0.0036879138
148	0xbd0b7da0	-0.034055352
149	0x3cd28b5e	0.025701221
150	0x3d3ee38e	0.04660373
151	0x3d5036b1	0.050833408
152	0xbe08d4c6	-0.13362417
153	0x3df07f8a	0.11743076
154	0xbc9104c2	-0.017702464
155	0xbe626574	-0.22109014
156	0xbe60f690	-0.21969056
157	0xbd267156	-0.04063543
158	0xbc245e78	-0.010032289
159	0xbd8555d4	-0.06510511
160	0x3e8cc0cb	0.2749084
161	0x3d6a2123	0.057160508
162	0x3d5b82ca	0.053591527
163	0xbd6cace4	-0.05778207
164	0xbc6fd96b	-0.014639239
165	0xbce3e911	-0.027821096
166	0x3ddcf2ec	0.10788521
167	0xbd847953	-0.06468453
168	0xbc8248ac	-0.015903793
169	0x3d9dc13b	0.077028714
170	0xbdc1f484	-0.09470466
171	0x3e1a7b05	0.1508599
172	0xbd2c6388	-0.042087108
173	0xbd952a4a	-0.072834566
174	0xbd54aebf	-0.051924463
175	0x3e1da780	0.15395927
176	0x3c415ea4	0.011802349
177	0xbb240cc8	-0.0025032032
178	0x3d262c2a	0.040569462
179	0x3d1a629e	0.037691705
180	0x3cb6fb5d	0.022336656
181	0x3dc18947	0.09450012
182	0xbc80327f	-0.015649078
183	0x3e019c14	0.12657195
184	0xbca990b1	-0.020698877
185	0xbe9095fa	-0.28239423
186	0xbc1e1c3b	-0.009650285
187	0x3cc90256	0.024537247
188	0xbdcb0588	-0.099131644
189	0x3dd44adf	0.10365843
190	0xbe0e3cea	-0.13890424
191	0xbdada6c1	-0.084790714
192	0x3c8de700	0.017322063
193	0xbdfa99d6	-0.12236373
194	0xbe15de0d	-0.14635487
195	0xbd82b6eb	-0.06382545
196	0x3d692068	0.05691567
197	0x3d83b5bd	0.06431148
198	0x3c8ac302	0.01693869
199	0x3e303c7d	0.17210574
200	0xbd803f34	-0.06262055
201	0xbd2ff6a6	-0.04295983
202	0x3d282bbd	0.041057337
203	0xbda51976	-0.08061497
204	0x3e37b219	0.17939033
205	0x3e9668f5	0.2937695
206	0x3d261d09	0.040555034
207	0xbca5e164	-0.020249076
208	0x3dc7a782	0.097487465
209	0xbde69a83	-0.112599395
210	0xbe005ce5	-0.12535436
211	0xbbc24b06	-0.0059293536
212	0x3b76472c	0.0037579043
213	0x3d8f585d	0.06999276
214	0x3e767476	0.24067864
215	0x3cc44ae0	0.023961484
216	0x3cac59a5	0.02103884
217	0x3d480ea4	0.048842087
218	0x3b98af18	0.0046595447
219	0x3d22b415	0.03972252
220	0x3d821732	0.063520804
221	0xbdfc08ec	-0.12306389
222	0x3dff7da4	0.12475136
223	0x3df131d0	0.11777079
224	0xbca3b5ff	-0.019984243
225	0xbdba6765	-0.09101752
226	0x3ca2bef6	0.019866448
227	0xbd351331	-0.044207755
228	0xbceaa63a	-0.028643716
229	0xbd4a9809	-0.0494614
230	0x3d823ba2	0.0635903
231	0x3e253275	0.16132529
232	0xbdafab4f	-0.085775964
233	0x3dc52cf8	0.09627718
234	0xbd9cb9f5	-0.07652656
235	0x3ecd41c6	0.40089244
236	0x3e9a40d5	0.30127588
237	0xbd2354b5	-0.039875705
238	0x3c3ffea0	0.011718422
239	0xbe6107fd	-0.21975704
240	0xbd539ac9	-0.051661287
241	0x3d73797c	0.05944203
242	0x3d0fcd6d	0.03510802
243	0x3d99b960	0.075060606
244	0x3dbebde6	0.09313564
245	0xbc4bce89	-0.012439379
246	0x3e057e8c	0.13036555
247	0xbb9a695f	-0.0047122682
248	0x3dffdc87	0.12493234
249	0x3cebdca0	0.028791726
250	0xbca739b2	-0.020413253
251	0x3e3f9c9c	0.18712085
252	0x3d8e5f7e	0.069518074
253	0xbcbdd49a	-0.023172665
254	0xbea1fa59	-0.31636313
255	0xbfbd1977	-1.4773396

fc2.bias f4 [10]
0	0x3e0227a6	0.12710437
1	0x3e17803c	0.14795011
2	0xbcf71a9b	-0.030164054
3	0xbd5fa227	-0.054598
4	0xbb689f85	-0.0035495472
5	0x3df2cade	0.118551
6	0xbd3a9d72	-0.045560308
7	0xbd51cfe2	-0.051223643
8	0xbdb1c8d7	-0.08680885
9	0x3d201fc5	0.039092798

momentum_buffer f4 [10, 1, 5, 5]
0	0xb9e4767c	-0.00043575827
1	0x8d54cbd4	-6.5572893e-31
2	0x00157d2e	1.973451e-39
3	0x00000000	0.0
4	0x2ebfa699	8.715268e-11
5	0xbab3b799	-0.0013711333
6	0x31c05db2	5.5985874e-09
7	0x00000000	0.0
8	0x00000000	0.0
9	0x00000000	0.0
10	0xb935a920	-0.00017324509
11	0xb6aa660e	-5.0782755e-06
12	0xb4a3222f	-3.0385988e-07
13	0x00000000	0.0
14	0x00000000	0.0
15	0x377a11b9	1.4905288e-05
16	0xb1880ce2	-3.9595855e-09
17	0xba2d3301	-0.00066070264
18	0x9cff1eee	-1.688248e-21
19	0xacb3aeae	-5.1068793e-12
20	0xb816d2f6	-3.595926e-05
21	0x2c1ba79e	2.211987e-12
22	0xad5b0b89	-1.245127e-11
23	0x9baa149f	-2.8137467e-22
24	0x3a37fe0e	0.0007018753
25	0x3fc5ce66	1.5453613
26	0x3fb7b5ff	1.4352416
27	0x3fb30678	1.3986349
28	0x3f841402	1.0318606
29	0x3f12d542	0.57356656
30	0x3fac0b1c	1.344089
31	0x3fb2b624	1.3961835
32	0x3fa07abc	1.2537456
33	0x3f17533c	0.5911138
34	0x3e5c0325	0.21485575
35	0x3f28cd22	0.6593801
36	0x3edd862e	0.43266433
37	0x3e4d2aae	0.20035812
38	0x3e4166b3	0.18886833
39	0x3d709c7c	0.058742985
40	0x3e1540aa	0.14575449
41	0x3c55b870	0.013044462
42	0xbcc06ac6	-0.023488414
43	0xbc531e94	-0.012885708
44	0xbdc7ed53	-0.09762063
45	0x3e8b8dd2	0.27256638
46	0x3d586703	0.052832615
47	0x3d2d886b	0.042366426
48	0x3dc771bd	0.09738491
49	0x3e12acff	0.14323805
50	0xb7c0e0ce	-2.2992866e-05
51	0x3612e992	2.1891651e-06
52	0x943a6f10	-9.4125034e-27
53	0xb67f52b9	-3.8046112e-06
54	0xb83caaa4	-4.4981614e-05
55	0xb9a619ed	-0.00031681304
56	0x3a9ec4cd	0.0012113095
57	0x2b877a54	9.62628e-13
58	0x3afeddf3	0.0019444808
59	0x332fc2f2	4.0922664e-08
60	0xbc08c966	-0.008348798
61	0x33fe7ae9	1.1850154e-07
62	0xa6cf97aa	-1.4404619e-15
63	0x2d1f4c00	9.054979e-12
64	0x308cc92b	1.0243516e-09
65	0xb37751c2	-5.7583527e-08
66	0x3b8687a6	0.004105526
67	0x2bba0c75	1.3219552e-12
68	0x39f96a7e	0.00047572324
69	0x00000000	0.0
70	0x3855197e	5.08069e-05
71	0x3bd5b76d	0.00652211
72	0x3b4833e7	0.0030548514
73	0x34bc359e	3.505674e-07
74	0x3a530a13	0.00080505124
75	0xb9c5b9df	-0.00037713253
76	0xbadf17ef	-0.0017020683
77	0xb6932d64	-4.3862256e-06
78	0x2d92cefe	1.6690201e-11
79	0x2cc18b05	5.500824e-12
80	0xba47a8ef	-0.00076164206
81	0x30a19d8d	1.175907e-09
82	0xad844d98	-1.5041121e-11
83	0x00000000	0.0
84	0xa42a72d7	-3.6960147e-17
85	0x32be7664	2.2172749e-08
86	0x00000000	0.0
87	0x00000000	0.0
88	0x00000000	0.0
89	0x00000000	0.0
90	0x00000000	0.0
91	0x00000000	0.0
92	0x00000000	0.0
93	0x00000000	0.0
94	0x00000000	0.0
95	0x80000016	-3.1e-44
96	0x8000010c	-3.76e-43
97	0x00000000	0.0
98	0x00000000	0.0
99	0x17af831d	1.1342208e-24
100	0xbdf2ef35	-0.11862031
101	0xbd6921cb	-0.056916993
102	0x3c26972e	0.01016788
103	0xbdf2730e	-0.11838351
104	0xbe924348	-0.28566957
105	0xbd30d969	-0.04317609
106	0xbb1deb0e	-0.0024096402
107	0x3b2405b1	0.0025027806
108	0xbce93b49	-0.028470652
109	0xbdbffeb2	-0.09374751
110	0xb85d0d00	-5.2702613e-05
111	0x3d8b52b6	0.06802885
112	0x3c86511e	0.016396102
113	0x3cc5cad9	0.024144577
114	0x3d61cd70	0.05512756
115	0x3ce5398c	0.027981542
116	0x3e4eafc2	0.20184234
117	0x3e9f7502	0.31143957
118	0x3f08bd1e	0.5341357
119	0x3f1b128c	0.60575175
120	0x3e76cb3d	0.24100967
121	0x3ee89d56	0.45432538
122	0x3eeb37ca	0.45941
123	0x3ecd96a6	0.40153998
124	0x3e89754f	0.26847312
125	0x3887465c	6.450407e-05
126	0x3905a4de	0.00012745286
127	0xaf187125	-1.3864516e-10
128	0x3667df9c	3.455184e-06
129	0x1c0f0b57	4.7329387e-22
130	0x394c1bd8	0.00019465329
131	0xbb603cf3	-0.0034216016
132	0xb4488662	-1.867534e-07
133	0xb9cb1ae5	-0.00038739215
134	0xa6d74fd0	-1.4940255e-15
135	0xbac25c80	-0.0014828593
136	0xbb9104e4	-0.004425632
137	0xb1a3c2c0	-4.766065e-09
138	0x3888dd48	6.526202e-05
139	0x36786ab3	3.7016987e-06
140	0x3758fab8	1.2932978e-05
141	0x3584f9d2	9.907474e-07
142	0xadb168f3	-2.0169177e-11
143	0xbac31756	-0.0014884274
144	0x387da5ac	6.0474194e-05
145	0xaf053371	-1.2114555e-10
146	0xaf523cf3	-1.9121042e-10
147	0x37954804	1.7795719e-05
148	0x362afd4b	2.547941e-06
149	0xba1e6eaa	-0.0006043712
150	0x37aef56e	2.0856703e-05
151	0xbb2ca803	-0.002634526
152	0x3ac8949c	0.0015303078
153	0x350b73df	5.195015e-07
154	0x392dc5f3	0.00016572308
155	0xba47ee3b	-0.00076267467
156	0xbbb4fc29	-0.005523224
157	0x38699e44	5.5698925e-05
158	0x39283a9a	0.0001604356
159	0x3d2290cf	0.03968888
160	0xbbc34932	-0.0059596533
161	0x3756da85	1.2806272e-05
162	0x39ba41f2	0.00035525818
163	0x3c009ff6	0.007850638
164	0x3db56947	0.08857971
165	0x9db4ea2e	-4.788774e-21
166	0xbb7966b9	-0.0038055612
167	0xbba583c8	-0.00505111
168	0x3a20fd62	0.00061412726
169	0x3cb49621	0.022044243
170	0xb9c2b90b	-0.0003714043
171	0xba036d52	-0.00050135434
172	0xb9d972f4	-0.00041475112
173	0x37bbfbd3	2.2409402e-05
174	0xbb1f1201	-0.0024272206
175	0x00000000	0.0
176	0x00000000	0.0
177	0x00000000	0.0
178	0x00000000	0.0
179	0x00000000	0.0
180	0x00000000	0.0
181	0x00000000	0.0
182	0x00000000	0.0
183	0x00000000	0.0
184	0x00000000	0.0
185	0x00000000	0.0
186	0x00000000	0.0
187	0x00000000	0.0
188	0x00000000	0.0
189	0x00000000	0.0
190	0x00000000	0.0
191	0x00000000	0.0
192	0x00000000	0.0
193	0x00000000	0.0
194	0x00000000	0.0
195	0x00000000	0.0
196	0x00000000	0.0
197	0x00000000	0.0
198	0x00000000	0.0
199	0x00000000	0.0
200	0x00000000	0.0
201	0x00000000	0.0
202	0x00000000	0.0
203	0x00000000	0.0
204	0x00000000	0.0
205	0x00000000	0.0
206	0x00000000	0.0
207	0x00000000	0.0
208	0x00000000	0.0
209	0x00000000	0.0
210	0x00000000	0.0
211	0x00000000	0.0
212	0x35cf1130	1.5427704e-06
213	0x00000000	0.0
214	0x00000000	0.0
215	0x00000000	0.0
216	0x00000000	0.0
217	0x3bc59f7b	0.0060309744
218	0x00000000	0.0
219	0x00000000	0.0
220	0x00000000	0.0
221	0x00000000	0.0
222	0x00000000	0.0
223	0x00000000	0.0
224	0x00000000	0.0
225	0x3d43b071	0.04777569
226	0x3e0b87d9	0.1362604
227	0x3b387099	0.0028143285
228	0xba864907	-0.0010245153
229	0x3cb047c4	0.021518596
230	0xbb78aac0	-0.0037943572
231	0x3df46982	0.119341865
232	0x3bd6edb7	0.0065590995
233	0x3caa1b55	0.020764986
234	0x3cbd1eb4	0.02308593
235	0xbe735937	-0.23764502
236	0xbd298c66	-0.04139366
237	0xbcd98606	-0.026553165
238	0x3b0656c8	0.0020498503
239	0x3c80342a	0.015649874
240	0xbe1e0584	-0.15431792
241	0xbe2a6afc	-0.16642374
242	0xbd3c96af	-0.04604214
243	0xbc49bf2a	-0.0123136435
244	0xbc2bcebc	-0.010486301
245	0xbe317a0c	-0.17331713
246	0xbe4657f7	-0.19369493
247	0xbcff2e48	-0.031149998
248	0xbcaf644f	-0.021410136
249	0x3bb0664c	0.0053832885

momentum_buffer f4 [10]
0	0x3bd4bae2	0.0064920047
1	0x37f69340	2.9394054e-05
2	0xb84db92c	-4.9048263e-05
3	0xb88da6f2	-6.7545e-05
4	0xbbabffb1	-0.0052489867
5	0xb8f4de88	-0.00011676276
6	0x3b4e4581	0.0031474533
7	0x3bf1be9c	0.0073774587
8	0x3c06259a	0.008187676
9	0x3bb6f6dc	0.005583627

momentum_buffer f4 [20, 10, 5, 5]
0	0x3887c316	6.473639e-05
1	0xb95432f7	-0.00020236881
2	0xb9faef86	-0.00047862175
3	0xba401c63	-0.00073284487
4	0xb9a943d3	-0.00032284725
5	0x3931dcf9	0.00016962354
6	0xb9739711	-0.00023230563
7	0xba0f6686	-0.0005470294
8	0xba450d3b	-0.0007516925
9	0xb9e64b87	-0.0004392529
10	0x38ce52f2	9.838295e-05
11	0xb978f3c4	-0.00023741933
12	0xba19c808	-0.0005866294
13	0xbaaa67d9	-0.001300092
14	0xba5cf5dc	-0.000842897
15	0x377abca0	1.4945079e-05
16	0xb8f15fd4	-0.00011509625
17	0xb9d66410	-0.00040891813
18	0xba1618dd	-0.0005725751
19	0xba3cbc09	-0.000719965
20	0xb9e92860	-0.00044471305
21	0xb9b4cc04	-0.0003448428
22	0xba0fd22a	-0.0005486334
23	0xba285176	-0.000642083
24	0xba726ccc	-0.00092477794
25	0xbdc62c74	-0.096764475
26	0xbb1072bf	-0.002204105
27	0xbdb07aa3	-0.08617141
28	0xbe099efc	-0.13439554
29	0xbe729750	-0.23690534
30	0x3d36439c	0.04449807
31	0x3db01365	0.08597449
32	0xbd91d814	-0.07121292
33	0xbe607e17	-0.219231
34	0xbecdcd38	-0.40195632
35	0xbe34d671	-0.17659928
36	0xbd326662	-0.04355467
37	0x3e321c26	0.1739355
38	0x3e81e62e	0.25370926
39	0x3e3eb043	0.18621926
40	0xbe4357fb	-0.1907653
41	0x3d42357d	0.04741429
42	0x3e278258	0.16358316
43	0x3e8f7fe0	0.28027248
44	0x3e77152e	0.24129173
45	0xbd10d8cb	-0.035363
46	0xbcb923b8	-0.02260004
47	0x3cd36052	0.025802765
48	0x3bda0c14	0.006654272
49	0x3c8b0514	0.016970195
50	0xb51bdaf2	-5.8060607e-07
51	0x376b1f66	1.4014402e-05
52	0x30bd9c2f	1.379595e-09
53	0x373bbadb	1.1189574e-05
54	0x3112302a	2.1273174e-09
55	0x3635caef	2.7089225e-06
56	0xb39e3d20	-7.368567e-08
57	0x3789073e	1.6335045e-05
58	0xb0254a22	-6.0132e-10
59	0x375aa92f	1.3033204e-05
60	0x37f95618	2.9723204e-05
61	0xb878df99	-5.933605e-05
62	0xb38d6aa2	-6.5852205e-08
63	0xb1b5fcf4	-5.2965508e-09
64	0x3308b006	3.182506e-08
65	0xb6582202	-3.2206303e-06
66	0xb404a714	-1.235424e-07
67	0x37a91020	2.0153879e-05
68	0x38b2651b	8.506534e-05
69	0xb3759599	-5.7179566e-08
70	0x2a8df0a2	2.5213604e-13
71	0x31956cb9	4.348831e-09
72	0xb5479a80	-7.4358104e-07
73	0xb2d308a0	-2.4567555e-08
74	0xa96a2f68	-5.1999556e-14
75	0x2f30acaa	1.606845e-10
76	0x2cab23a7	4.8640705e-12
77	0xad8606e7	-1.5237102e-11
78	0x13364d1a	2.3009644e-27
79	0xb5c51dcc	-1.4686316e-06
80	0xaba88cfc	-1.1976249e-12
81	0x9e1d5d58	-8.330814e-21
82	0xae7adeac	-5.704119e-11
83	0x2fa63fe3	3.0240618e-10
84	0x33873f76	6.297971e-08
85	0x97e72a10	-1.4938643e-24
86	0xa8b0b1ac	-1.9616978e-14
87	0xb7293faf	-1.00880125e-05
88	0xb122ebee	-2.3708213e-09
89	0xb7756646	-1.462695e-05
90	0x28f34476	2.700811e-14
91	0x23336d19	9.726712e-18
92	0xb638e73b	-2.755273e-06
93	0xb16d17c1	-3.4501542e-09
94	0xb6bb8df1	-5.5895584e-06
95	0xb349c389	-4.6976798e-08
96	0x246f8c19	5.194353e-17
97	0xb0566afe	-7.800479e-10
98	0xaef75f8a	-1.1249231e-10
99	0xab2ff396	-6.2510533e-13
100	0xbbfa5088	-0.0076389946
101	0xba48ecd0	-0.00076646823
102	0x3c373527	0.011182106
103	0x3d45795e	0.048211448
104	0x3ddcb809	0.107772894
105	0xb9a2cfe4	-0.00031053938
106	0x3858a800	5.1654875e-05
107	0xbc4207c6	-0.011842674
108	0xbc21dd36	-0.009879401
109	0xbba326fe	-0.0049790135
110	0x3c1d8d8e	0.009616269
111	0xbb1e152d	-0.0024121508
112	0xbc45914e	-0.012058569
113	0xbcea45c5	-0.028597722
114	0xbd4df3ac	-0.05028121
115	0xbc54f3f0	-0.012997612
116	0xbd9f0567	-0.07764702
117	0xbd95c3b5	-0.07312719
118	0xbded49dc	-0.11586353
119	0xbe0360ef	-0.12829946
120	0x3e33f8a8	0.17575324
121	0x3e3f94b2	0.18709067
122	0x3e1961d8	0.1497873
123	0x3e012087	0.12610064
124	0x3d70ea33	0.0588171
125	0xa8b2bbfa	-1.9843492e-14
126	0xa8d21306	-2.3322934e-14
127	0x2e128282	3.331247e-11
128	0x2b19a0d5	5.457972e-13
129	0x2b9c4248	1.1102863e-12
130	0x3846bd71	4.738331e-05
131	0x31bad12a	5.4370917e-09
132	0x381e8b87	3.780008e-05
133	0xb0eec9d4	-1.7374142e-09
134	0xa80d9314	-7.858965e-15
135	0x2fec62aa	4.2998255e-10
136	0x219b7f28	1.0536867e-18
137	0x2c9de6a1	4.4878133e-12
138	0xabb95535	-1.316869e-12
139	0xa88c95c0	-1.5608066e-14
140	0xb41eaef0	-1.4778539e-07
141	0x222f4f7b	2.3759e-18
142	0x2ee82878	1.0557327e-10
143	0xabb65d79	-1.2957822e-12
144	0x2b4e0296	7.318949e-13
145	0xb2ef7be2	-2.7879597e-08
146	0xb177e01f	-3.6070629e-09
147	0xb02ebad5	-6.3566336e-10
148	0x2b54832c	7.549957e-13
149	0x2abdcf5c	3.371703e-13
150	0xb820fa3a	-3.8380014e-05
151	0x38a84a14	8.0246624e-05
152	0xb9c074d0	-0.00036708126
153	0xb71a38a0	-9.192299e-06
154	0xbaaf63ad	-0.0013381146
155	0x36239d60	2.4380497e-06
156	0x38b614d4	8.682316e-05
157	0x3a21becd	0.0006170094
158	0xb990bd3d	-0.00027606814
159	0xb78c6060	-1.6734179e-05
160	0x3851bee2	5.0007257e-05
161	0xb8904fc3	-6.881312e-05
162	0xb939cfa0	-0.00017720321
163	0xba0d67ac	-0.00053941715
164	0xb9c0dbc2	-0.00036784826
165	0x37103d80	8.597388e-06
166	0xb7a27564	-1.936657e-05
167	0xb9cf369d	-0.00039522807
168	0xb98685bf	-0.0002565812
169	0xb990ee06	-0.00027643162
170	0xb934a978	-0.0001722927
171	0xb9ad9163	-0.00033105453
172	0xb9cbabab	-0.0003884708
173	0xb9cbe376	-0.0003888865
174	0xb9d6a150	-0.00040937448
175	0x382e2d78	4.152718e-05
176	0xb9081130	-0.00012976374
177	0xb9a11649	-0.00030724917
178	0xb9f8d451	-0.00047460434
179	0xb9591a5e	-0.00020704555
180	0x38e4240b	0.00010878601
181	0xb91d099f	-0.00014976271
182	0xb9c2aa92	-0.00037129648
183	0xba130cec	-0.00056095305
184	0xb963c612	-0.00021722194
185	0x38845110	6.3093496e-05
186	0xb91fa2e3	-0.00015224102
187	0xb9bddf03	-0.00036215046
188	0xba4f792a	-0.0007914478
189	0xba0da210	-0.00054028723
190	0x3720e2c4	9.589541e-06
191	0xb89ac515	-7.3800016e-05
192	0xb9b5d096	-0.0003467842
193	0xb9c015b4	-0.00036637264
194	0xb9d61074	-0.0004082952
195	0xb995815c	-0.00028515875
196	0xb967e3a8	-0.00022114685
197	0xb9cc59b8	-0.00038976758
198	0xb9d804a8	-0.000412022
199	0xba1b76d2	-0.00059304864
200	0x37efe72c	2.8598668e-05
201	0xb8bb62a8	-8.935231e-05
202	0xb95de259	-0.00021160523
203	0xb9ab5f6d	-0.0003268676
204	0xb91592bf	-0.00014264414
205	0x389d359c	7.496329e-05
206	0xb8d841e0	-0.00010311953
207	0xb9861096	-0.0002557083
208	0xb9ca942e	-0.00038638845
209	0xb91cf140	-0.00014967192
210	0x383655d7	4.3472126e-05
211	0xb8dbdf60	-0.000104843406
212	0xb982c759	-0.00024944058
213	0xba0eef82	-0.00054525596
214	0xb9c32bf0	-0.00037226034
215	0x36dcef60	6.584378e-06
216	0xb8554665	-5.0848717e-05
217	0xb97a85c2	-0.00023891687
218	0xb9845fa0	-0.00025248248
219	0xb99381c2	-0.00028134702
220	0xb94df6c7	-0.00019642255
221	0xb91fc5d2	-0.00015237115
222	0xb98cd0f6	-0.0002685857
223	0xb994da1c	-0.00028391264
224	0xb9d636b5	-0.0004085802
225	0xbaa6900c	-0.0012707724
226	0xb9d4532d	-0.00040497762
227	0x3d263026	0.04057326
228	0xbc9de5b5	-0.019274572
229	0xbd27ee34	-0.040998653
230	0xbb5b6871	-0.0033479
231	0xbb21512e	-0.0024615037
232	0xbbe23ed4	-0.0069044624
233	0x3cbc309c	0.022972398
234	0xbc22484d	-0.009904933
235	0x3aea3c86	0.0017870821
236	0xbc0d8efb	-0.008640046
237	0xbd2571be	-0.040391676
238	0x3996ae4d	0.00028740094
239	0x3a80b6c5	0.0009820095
240	0x3adf3476	0.0017029184
241	0xbcb6ebb5	-0.02232919
242	0xbd59194d	-0.053002644
243	0xbb858f4f	-0.0040759216
244	0x3b9869f9	0.004651305
245	0xbb9a57a2	-0.0047101537
246	0xbc86d440	-0.01645863
247	0xbce01fc8	-0.027358904
248	0xb9113528	-0.0001384808
249	0x39971afe	0.00028821075
250	0xb416fa97	-1.4061003e-07
251	0xb416fa97	-1.4061003e-07
252	0xb41653b4	-1.400029e-07
253	0x000007eb	2.84e-42
254	0x00000000	0.0
255	0xb416fa97	-1.4061003e-07

momentum_buffer f4 [20]
0	0xbb8e4fbd	-0.0043430016
1	0xb52b3454	-6.377861e-07
2	0xbc3c5e69	-0.0114971185
3	0xbad496ea	-0.0016219292
4	0x3baa1f4b	0.0051917187
5	0xbb176990	-0.0023103692
6	0xbb920d53	-0.004457155
7	0x3a8da37f	0.0010806172
8	0xbb814d0b	-0.003945952
9	0x3bc9ebcb	0.006162142
10	0x38b6bbe4	8.7134336e-05
11	0xbb612849	-0.0034356287
12	0x3b9e1365	0.0048240894
13	0x39e39464	0.00043407374
14	0xba718607	-0.0009213392
15	0xb3eedd08	-1.1122944e-07
16	0xba141f6a	-0.0005650433
17	0x3b757080	0.0037451088
18	0xbaffdfb5	-0.0019521626
19	0x3b963186	0.0045835404
