quick-start/notebooks_gpu/logs/log_20240531-14_25/model_epoch_0.bin (torch, 180126 bytes, 16 tensors)

conv1.weight f4 [10, 1, 5, 5]
-0.032945562 -0.24223593 -0.07416836 -0.27323747 -0.11393631 -0.112753496 -0.063414045 -0.19747588
-0.060924046 -0.08037833 0.043858305 -0.037911754 -0.177804 -0.30027044 -0.16371413 -0.26069966
-0.08884277 0.04126549 -0.20675395 -0.054204244 -0.04470714 -0.04474194 -0.19247802 -0.1369435
-0.070543036 0.022183852 0.10922736 -0.028776182 -0.1213004 0.36003968 -0.122811966 -0.07345845
0.15876865 0.0245453 0.033322353 -0.061226334 -0.020798553 -0.023597566 -0.056156572 0.12602854
-0.13676202 -0.12898603 -0.070034176 -0.11182906 -0.18514016 -0.071477555 -0.17097898 -0.13083738
-0.11602105 0.0048536365 -0.0016353627 -0.122254334 -0.13341415 -0.21507302 -0.002876699 -0.25166157
0.023027007 -0.16463189 0.09305139 -0.13281028 0.023991715 -0.0961631 -0.15519382 -0.23459929
-0.13917659 -0.18575694 0.0009984467 -0.27076897 0.0066396915 -0.21764739 -0.2425044 0.025287135
-0.00898042 -0.14481904 -0.02089136 -0.17411752 0.066053756 -0.28002533 -0.24724303 -0.30365828
-0.032957613 -0.2374605 -0.019445341 -0.39209932 -0.15249018 -0.08662078 -0.19110715 -0.09299979
-0.23002796 -0.19936422 -0.25464606 -0.11513027 -0.29900563 -0.26735288 -0.17520633 -0.19042143
-0.18697207 -0.15361443 -0.35567436 -0.34653702 -0.10097295 -0.05434072 -0.16059129 -0.041935895
-0.046776615 -0.14833994 0.020164592 -0.19036187 -0.16931269 -0.11643032 -0.0741214 -0.08240199
-0.032459147 -0.108043194 -0.24875355 -0.048708156 -0.17860776 -0.021621952 -0.049539242 -0.23270793
0.19709158 0.1521839 -0.063557215 0.12975375 -0.0772011 -0.070260875 -0.19891568 -0.07555897
-0.016363224 -0.15202995 -0.12027354 0.15736385 -0.1459439 0.03679135 -0.19496666 -0.19201763
0.029737592 -0.18251902 0.03197506 -0.1474542 -0.11920417 -0.11868339 -0.18102941 0.08326246
-0.027777264 -0.0019425101 -0.018652702 -0.020221492 -0.24420469 -0.07684829 -0.18551254 -0.026357394
0.0033054375 -0.021954948 -0.06295423 -0.10760749 0.089680806 -0.21008795 -0.19968529 -0.07583912
-0.009454054 -0.20565028 -0.011782122 0.033693593 0.0573853 -0.20092358 -0.15674937 0.1390475
-0.16801122 -0.15909657 -0.008618178 -0.055358373 -0.1252133 -0.13457529 -0.0046556024 -0.2100259
-0.13074818 -0.18391885 -0.05773563 -0.30416775 -0.07858323 -0.22994214 -0.36729202 -0.24317786
-0.29159474 -0.36750937 -0.10660129 -0.12916663 -0.22702304 -0.13289136 -0.05636721 -0.4349741
-0.18122956 -0.20236127 -0.14932093 -0.2834185 -0.128209 -0.19711784 -0.24018447 -0.19904628
-0.20421708 -0.13744414 -0.19128434 -0.42269847 -0.25415716 -0.15217623 -0.16595678 -0.4153093
-0.34089556 -0.25782016 -0.095790856 -0.12209638 -0.11573719 -0.17299184 -0.25908083 -0.20564297
-0.1895987 0.018781075 -0.19449262 -0.15512407 -0.09517451 -0.13374168 -0.28777388 -0.105504185
-0.22346266 -0.17336683 -0.04898358 -0.10634993 -0.103233956 -0.13604113 0.09475757 -0.29747894
-0.054773804 -0.07435618 -0.038004953 0.06570795 -0.006140501 -0.069703735 -0.20107926 -0.09431125
0.050101064 -0.013286671 -0.10232308 -0.06451351 -0.03246203 0.26357952 -0.1009567 -0.0856643
-0.12553145 -0.087276466
00000000: edf1 06bd b20c 78be 95e5 97bd c8e5 8bbe
00000010: 7157 e9bd 4eeb e6bd 39df 81bd 1e37 4abe
00000020: 7e8b 79bd 659d a4bd c4a4 333d 5b49 1bbd
00000030: 4012 36be 0cbd 99be ada4 27be 6d7a 85be
00000040: 33f3 b5bd 0106 293d 4fb7 53be 4505 5ebd
00000050: d61e 37bd 5343 37bd f518 45be eb3a 0cbe
00000060: de78 90bd e9ba b53c 98b2 df3d 07bc ebbc
00000070: 586c f8bd 1f57 b83e d784 fbbd 6271 96bd
00000080: 4094 223e 3a13 c93c 057d 083d 77c8 7abd
00000090: ba61 aabc af4f c1bc 6f04 66bd a00d 013e
000000a0: 580b 0cbe ea14 04be 146e 8fbd a206 e5bd
000000b0: 6295 3dbe d362 92bd 1d15 2fbe 3cfa 05be
000000c0: 729c edbd 410b 9f3b ab59 d6ba 7b60 fabd
000000d0: b89d 08be 1a3c 5cbe 0087 3cbb c9d9 80be
000000e0: 22a3 bc3c 4395 28be ba91 be3d 6bff 07be
000000f0: 468a c43c 29f1 c4bd 21eb 1ebe cc3a 70be
00000100: 4f84 0ebe 1137 3ebe 50de 823a 3ba2 8abe
00000110: c591 d93b f5de 5ebe 1353 78be f726 cf3c
00000120: 9d22 13bc 714b 14be 5b24 abbc dd4b 32be
00000130: 3147 873d 7b5f 8fbe 472d 7dbe 1979 9bbe
00000140: 90fe 06bd d828 73be d64b 9fbc 3ec1 c8be
00000150: 6326 1cbe 3c66 b1bd 98b1 43be ad76 bebd
00000160: 738c 6bbe 2226 4cbe f860 82be 6bc9 ebbd
00000170: 4417 99be 7ae2 88be 4a69 33be d6fd 42be
00000180: 9b75 3fbe 1a4d 1dbe f31a b6be 4d6d b1be
00000190: e8ca cebd 6094 5ebd 0b72 24be f9c4 2bbd
000001a0: d698 3fbd 6de6 17be 3730 a53c 39ee 42be
000001b0: 4e60 2dbe 0573 eebd f6cc 97bd 60c2 a8bd
000001c0: e2f3 04bd c045 ddbd 40b9 7ebe 3482 47bd
000001d0: f4e4 36be 8520 b1bc a9e9 4abd fd4a 6ebe
000001e0: 60d2 493e 19d6 1b3e 492a 82bd 2bde 043e
000001f0: 9c1b 9ebd efe4 8fbd 8db0 4bbe a9be 9abd
00000200: 2b0c 86bc bdad 1bbe f951 f6bd fd23 213e
00000210: 5172 15be 87b2 163d 57a5 47be 45a0 44be
00000220: 409c f33c 44e6 3abe 48f8 023d 3cfe 16be
00000230: 5121 f4bd 4710 f3bd c65f 39be 8285 aa3d
00000240: 258d e3bc d39b feba 8dcd 98bc 8ba7 a5bc
00000250: cb10 7abe a362 9dbd 00f7 3dbe 76eb d7bc
00000260: 0aa0 583b ddda b3bc 26ee 80bd 5161 dcbd
00000270: 92aa b73d 4c21 57be 4d7a 4cbe 8a51 9bbd
00000280: 2de5 1abc fd95 52be cd09 41bc 4b02 0a3d
00000290: d90c 6b3d e9be 4dbe e882 20be 7862 0e3e
000002a0: 220b 2cbe 36ea 22be 4233 0dbc 76bf 62bd
000002b0: ea37 00be 1bce 09be 068e 98bb 0811 57be
000002c0: dae2 05be 3955 3cbe 327c 6cbd e0bb 9bbe
000002d0: 3ff0 a0bd f475 6bbe b30d bcbe 9e03 79be
000002e0: e84b 95be 302a bcbe c751 dabd 4244 04be
000002f0: ba78 68be ac14 08be 4ee1 66bd edb4 debe
00000300: 3e94 39be cb37 4fbe 96e7 18be 3b1c 91be
00000310: 3849 03be 42d9 49be ebf2 75be cad2 4bbe
00000320: 481e 51be 28be 0cbe 0be0 43be ef6b d8be
00000330: e320 82be 16d4 1bbe 93f0 29be 6ca3 d4be
00000340: dd89 aebe 0101 84be ff2d c4bd ab0d fabd
00000350: 9f07 edbd c624 31be 3ea6 84be 1294 52be
00000360: 2926 42be c5da 993c 1329 47be d8d8 1ebe
00000370: daea c2bd 94f3 08be 1957 93be 9412 d8bd
00000380: 65d3 64be 1387 31be 02a3 48bd fecd d9bd
00000390: 536c d3bd 5e4e 0bbe 4210 c23d 294f 98be
000003a0: 7f5a 60bd 0e48 98bd 15ab 1bbd e491 863d
000003b0: 4136 c9bb d5c0 8ebd b9e7 4dbe 4226 c1bd
000003c0: c636 4d3d 56b0 59bc c38e d1bd a91f 84bd
000003d0: e8f6 04bd e5f3 863e 63c2 cebd c470 afbd
000003e0: 518b 00be 01be b2bd

conv1.bias f4 [10]
0.18641844 0.1654829 -0.10146281 -0.059183184 0.021013377 -0.0018645104 0.08259305 0.123935364
0.096668065 0.019953141
00000000: 7ae4 3e3e 5974 293e bccb cfbd 116a 72bd
00000010: 3f24 ac3c 9662 f4ba 8c26 a93d d3d1 fd3d
00000020: e8f9 c53d c574 a33c

conv2.weight f4 [20, 10, 5, 5]
-0.01585704 -0.022481099 -0.009371992 -0.04704407 -0.047506876 0.04325765 -0.064972244 -0.035926443
-0.041784238 0.024829779 -0.056401476 -0.013953709 0.021001613 -0.066431485 0.014336488 -0.027140688
-0.061896194 0.01625242 0.005781323 -0.008342316 0.016708603 -0.06529945 -0.059935536 -0.043891456
0.024267614 -0.017548287 -0.008126191 -0.010154195 -0.048961364 0.16711095 -0.077641636 -0.020437391
0.026856719 0.02624147 0.12172909 -0.076218575 -0.03331569 0.01666776 0.05064067 0.042730186
-0.09234974 -0.052670117 -0.007461573 -0.03092565 -0.08128952 -0.093660556 -0.06478988 -0.05619445
-0.05699346 -0.09142135 -0.04956273 0.03507595 -0.010141781 -0.029238304 0.009660854 -0.060834475
-0.0066451407 -0.05343803 -0.043718707 0.012622833 -0.05214876 0.009319618 -0.05134173 -0.025117498
-0.040645264 -0.036686003 0.019285625 0.0342646 -0.010710248 -0.076744266 -0.0137773985 -0.059888862
-0.048289314 -0.06355518 -0.057367425 0.024859384 0.011582444 0.042551365 -0.010736014 0.0016270737
-0.055397853 -0.0040216413 -0.051205214 -0.022788191 -0.020515852 0.037721362 -0.01823692 0.01854548
-0.07551748 -0.043870717 -0.04916931 0.021150602 -0.051599342 0.041283466 -0.061400343 -0.034406558
-0.026037673 0.019332832 -0.06457087 -0.030421164 -0.03741195 -0.03043727 -0.014862244 -0.0058023375
-0.03451671 -0.04173844 -0.03106312 -0.0673035 0.0016932543 -0.028874995 -0.0189537 -0.016317528
-0.017380655 0.019814037 -0.030944739 -0.06382601 -0.012118487 -0.072108805 -0.04070669 0.022499315
-0.07116937 -0.048905674 -0.07272496 -0.030538129 0.11472425 0.05576354 0.0020277437 -0.012837997
-0.033778645 0.0027149143 -0.0017921284 0.045856114 0.010981683 -0.02665973 0.050327368 0.027700795
-0.04614273 -0.06475891 -0.039027393 -0.030822003 -0.046329748 0.04489065 0.027324429 -0.037411425
-0.028733067 0.03863604 -0.015386654 0.05601783 0.03355772 -0.057628635 0.004965288 0.0036420056
-0.032212608 0.013089204 -0.06298046 0.0076854345 -0.049586687 0.04886489 -0.06995248 -0.011831403
-0.011390338 0.045502573 -0.06690463 -0.043293633 0.05097056 -0.007981598 -0.05379866 -0.009802895
-0.017548352 0.031580787 -0.023242133 -0.06017365 -0.029560808 0.050584745 0.04787088 -0.00019084386
0.016806586 0.011693672 -0.018471053 0.03155873 -0.06362112 0.0025801272 -0.004419166 -0.049524136
-0.023691777 -0.022279266 -0.029130617 -0.019982759 0.020460647 0.020799674 -0.0017815891 -0.041798294
-0.01620088 -0.07402672 -0.07152483 0.03507692 0.029882727 -0.050583433 -0.0114439605 0.0191643
-0.012137006 0.024582993 -0.022743994 -0.05694754 0.014416292 -0.0487292 -0.025479287 -0.008489176
-0.03130825 -0.032993894 -0.013550875 -0.025097385 0.007576282 -0.08769843 -0.11100432 0.03175036
-0.066385254 -0.06528391 -0.036599457 -0.00022259956 0.0047641257 0.028064294 0.015695853 -0.019135635
-0.07794101 0.006893538 -0.0050525106 -0.019201025 0.012962415 -0.022721274 -0.0020028115 -0.08120314
-0.05826663 -0.03214039 0.011940472 -0.045399174 0.010664932 -0.04389375 -0.054641347 -0.034612466
-0.027021503 0.02173227 0.055556867 -0.029273665 0.0032044763 -0.03827619 -0.02018743 0.1529432
-0.03144294 -0.006279014 -0.14112341 -0.06547047 -0.16454142 -0.18186235 -0.094457544 -0.1557011
00000000: a0e6 81bc 482a b8bc fc8c 19bc 48b1 40bd
00000010: 9296 42bd ef2e 313d 2b10 85bd 9b27 13bd
00000020: f325 2bbd d267 cb3c 3c05 67bd 199e 64bc
00000030: 930b ac3c 3b0d 88bd 97e3 6a3c 2656 debc
00000040: dd86 7dbd cc23 853c 4171 bd3b 36ae 08bc
00000050: 7be0 883c b8bb 85bd f77e 75bd 87c7 33bd
00000060: e0cc c63c 6dc1 8fbc b723 05bc c85d 26bc
00000070: b68b 48bd 221f 2b3e 9402 9fbd 516c a7bc
00000080: 9f02 dc3c 5af8 d63c 1a4d f93d 7c18 9cbd
00000090: 0876 08bd d48a 883c 976c 4f3d d905 2f3d
000000a0: dc21 bdbd 9fbc 57bd 3680 f4bb ca57 fdbc
000000b0: 1f7b a6bd 1bd1 bfbd 8eb0 84bd 272c 66bd
000000c0: f971 69bd 1e3b bbbd 4a02 4bbd cdab 0f3d
000000d0: b629 26bc 2b85 efbc 8f48 1e3c 922d 79bd
000000e0: 7bbf d9bb d6e1 5abd 6312 33bd 00d0 4e3c
000000f0: f099 55bd 50b1 183c b54b 52bd 36c3 cdbc
00000100: a67b 26bd 1044 16bd e3fc 9d3c 0a59 0c3d
00000110: 097a 2fbc 192c 9dbd 99ba 61bc 064e 75bd
00000120: 04cb 45bd 3829 82bd 1bfa 6abd e8a5 cb3c
00000130: 4bc4 3d3c 574a 2e3d 1be6 2fbc 8943 d53a
00000140: dce8 62bd f9c7 83bb 8fbc 51bd 4dae babc
00000150: dc10 a8bc b781 1a3d 9865 95bc b1ec 973c
00000160: e9a8 9abd c8b1 33bd c265 49bd 0744 ad3c
00000170: d559 53bd da18 293d ed7e 7bbd e4ed 0cbd
00000180: f54c d5bc e35f 9e3c bb3d 84bd ce35 f9bc
00000190: 463d 19bd 9557 f9bc c580 73bc 8921 bebb
000001a0: 6561 0dbd edf5 2abd 1678 febc 6bd6 89bd
000001b0: 30f0 dd3a 418b ecbc ca44 9bbc 56ac 85bc
000001c0: e061 8ebc 0c51 a23c d27f fdbc 36b7 82bd
000001d0: 9e8c 46bc c8ad 93bd 0fbc 26bd 7c50 b83c
000001e0: 3fc1 91bd 5151 48bd d3f0 94bd 192b fabc
000001f0: 8cf4 ea3d 4f68 643d e5e3 043b 7656 52bc
00000200: 7a5b 0abd b4ec 313b dae5 eaba 9fd3 3b3d
00000210: 84ec 333c 8265 dabc 1224 4e3d c7ec e23c
00000220: 2900 3dbd 52a0 84bd 30db 1fbd 6d7e fcbc
00000230: 43c4 3dbd 42df 373d 7bd7 df3c b93c 19bd
00000240: 9c61 ebbc d340 1e3d 4e18 7cbc f472 653d
00000250: d273 093d 010c 6cbd dbb3 a23b b7ae 6e3b
00000260: 5ef1 03bd 1a74 563c e6fb 80bd 19d6 fb3b
00000270: 691b 4bbd 8d26 483d 3f43 8fbd 80d8 41bc
00000280: 8a9e 3abc e860 3a3d 4b05 89bd aa54 31bd
00000290: 82c6 503d 40c5 02bc fc5b 5cbd 529c 20bc
000002a0: 90c1 8fbc db5a 013d 4966 bebc a578 76bd
000002b0: 8229 f2bc f331 4f3d 4214 443d 421d 48b9
000002c0: f7ad 893c d196 3f3c 9b50 97bc ba43 013d
000002d0: ca4b 82bd 5a17 293b a7ce 90bb d2d9 4abd
000002e0: 4215 c2bc 0283 b6bc 55a3 eebc e2b2 a3bc
000002f0: 169d a73c 1464 aa3c 3684 e9ba b034 2bbd
00000300: b5b7 84bc 529b 97bd 9c7b 92bd d1ac 0f3d
00000310: 9fcc f43c 9330 4fbd 737f 3bbc 73fe 9c3c
00000320: 4bda 46bc 4662 c93c 9d51 babc d341 69bd
00000330: 5032 6c3c 4598 47bd f0b9 d0bc 2f16 0bbc
00000340: 143d 00bd 9b24 07bd 7d04 5ebc 0899 cdbc
00000350: 7642 f83b 3c9b b3bd 3c56 e3bd aa0c 023d
00000360: fef4 87bd 92b3 85bd 50e9 15bd 9d69 69b9
00000370: 621c 9c3b 17e7 e53c 9794 803c 56c2 9cbc
00000380: 899f 9fbd 30e3 e13b 888f a5bb 784b 9dbc
00000390: 4f60 543c f721 babc 9a41 03bb d54d a6bd
000003a0: fda8 6ebd a4a5 03bd f8a1 433c 7cf4 39bd
000003b0: f8bb 2e3c efc9 33bd 9bcf 5fbd cdc5 0dbd
000003c0: 335c ddbc e007 b23c 998f 633d 53cf efbc
000003d0: 3102 523b 7fc7 1cbd 1c60 a5bc 249d 1c3e
000003e0: 50ca 00bd 30c0 cdbb a882 10be 6215 86bd
000003f0: 8c7d 28be 203a 3abe f572 c1bd 1c70 1fbe

conv2.bias f4 [20]
-0.019882964 0.014567816 0.018226432 -0.07705125 -0.036843468 0.051773977 -0.03919727 -0.00791822
-0.027157482 -0.06978066 0.006482308 -0.032111086 -0.011755691 -0.016154114 0.0015603527 0.035133746
6.202375e-05 -0.05170018 -0.05081045 0.005792624
00000000: 99e1 a2bc d9ad 6e3c 994f 953c 0ccd 9dbd
00000010: 2de9 16bd f310 543d 518d 20bd 6cbb 01bc
00000020: 5e79 debc 2ae9 8ebd 8a69 d43b ea86 03bd
00000030: f19a 40bc a255 84bc c084 cc3a 67e8 0f3d
00000040: bf12 8238 91c3 53bd 9e1e 50bd 0dd0 bd3b

fc1.weight f4 [50, 320]
0.07090045 -0.004678523 -0.035757612 -0.02137953 0.03430919 -0.03140186 0.0012965694 0.023725785
-0.017013028 -0.051230256 -0.0120968735 -0.052541263 -0.024521675 -0.0449689 0.0037838188 -0.029892279
0.020982638 -0.017375354 -0.05342944 -0.036052812 0.051822167 0.029555514 -0.029839141 -0.0027926548
0.024610382 0.04300993 -0.003186227 0.023611894 0.033041757 0.0028072796 -0.039500043 -0.051598903
0.006820989 -0.008149271 -0.040778376 -0.009161125 -0.052892584 -0.00961684 0.029563604 0.014310413
-0.0056688217 -0.051919848 -0.006476282 0.010598975 -0.05488867 0.0391136 -0.03513294 -0.027735885
-0.044648614 -0.058056034 0.006551411 -0.03718169 0.048788767 0.035098642 0.031644344 -0.03532007
-0.047373742 -0.006118611 -0.048262745 0.016636722 0.045815036 -0.012640981 0.021230953 -0.000524647
0.076185204 0.072760016 -0.009711399 -0.044384293 -0.03917751 -0.016052607 -0.04206178 -0.05056565
-0.043745384 -0.06320213 0.01669797 0.1105019 -0.019236926 -0.02678678 -0.006486633 0.08717713
0.005473883 -0.03342661 0.04071414 0.025111848 -0.034816343 -0.03487567 0.04371066 -0.0361188
-0.019598264 -0.0078001004 -0.027989104 -0.0094047105 0.01031332 0.022363758 -0.015297497 0.03675661
0.021904094 0.0021064377 -0.05468174 -0.0016131678 0.053129084 -0.010366723 -0.0059637474 -0.036133453
-0.044439852 0.009153332 -0.042361394 0.037787292 0.04588777 0.0243139 -0.027016632 -0.056210555
-0.00534828 0.039494723 -0.009068548 0.006386394 -0.039393958 -0.021056637 -0.029304486 -0.027613638
0.037249077 0.04901303 0.0091529805 -0.013942202 0.03362228 -0.01926111 0.035697807 0.018393878
-0.025582401 -0.048149206 -0.02773893 -0.022510115 -0.0003646765 -0.002740907 0.044632368 -0.030245509
0.05896054 -0.022625497 -0.013950474 -0.038368788 -0.032969285 -0.01000227 -0.012181484 -0.021303015
-0.01744034 -0.0008830151 0.0112896385 0.030151203 0.058349147 0.013000651 0.020082785 -0.05473107
0.034689847 -0.041804623 0.009032389 0.013232913 -0.0628139 -0.029442698 0.04645709 0.052775625
0.011615586 -0.03245607 -0.039902516 0.048820976 -0.0092103705 0.0017968781 -0.0057879356 -0.03622822
-0.0402474 -0.024549922 -0.048071235 -0.034103133 -0.05221852 -0.01512794 -0.050545674 0.027630024
-0.048471726 -0.0337916 0.05590516 -0.04647783 -0.025942475 -0.015117611 -0.03771224 -0.030229418
0.053031906 0.05401252 -0.052858233 -0.035651512 0.0130392555 -0.010920196 -0.04023738 -0.044115484
-0.04022135 -0.040350482 -0.014543047 -0.032422587 -0.02657176 0.035443526 -0.009666177 -0.011398673
0.03778146 -0.04341986 0.054958504 -0.009856278 -0.052685846 0.023135101 0.017115891 -0.01762451
-0.011296542 -0.040128447 -0.0125180725 0.034125227 0.018335737 -0.025048092 0.041556377 0.027735682
0.042668473 -0.038354117 -0.059851177 -0.03197827 0.016658112 -0.042851567 -0.021026138 -0.0461553
0.013160776 -0.012477599 0.08201827 0.058917504 -0.049392313 -0.006838533 -0.04547566 0.062034268
0.014721145 0.00705358 -0.047004763 -0.027474405 0.022275371 -0.03959969 0.010347047 0.019447833
-0.01788 -0.053085525 0.013373178 0.046277955 -0.020912929 -0.027954454 -0.04022352 -0.005823935
0.038738087 -0.032956686 0.020945262 -0.004363418 -0.04618784 -0.048980672 0.024823159 0.037751205
00000000: 4134 913d 4c4e 99bb 9376 12bd 2024 afbc
00000010: cb87 0c3d 3d9f 00bd a6f1 a93a 945c c23c
00000020: e85e 8bbc d1d6 51bd f731 46bc 8235 57bd
00000030: aee1 c8bc 4f31 38bd f2f9 773b a7e0 f4bc
00000040: c8e3 ab3c c256 8ebc d4d8 5abd 1dac 13bd
00000050: 7b43 543d 681e f23c 3771 f4bc f904 37bb
00000060: b69b c93c 2e2b 303d 05d0 50bb bb6d c13c
00000070: cb56 073d 56fa 373b ccca 21bd 5f59 53bd
00000080: 9a82 df3b 8584 05bc 3a07 27bd 8b18 16bc
00000090: e5a5 58bd f38f 1dbc 5f2f f23c 3976 6a3c
000000a0: 86c1 b9bb e8a9 54bd fe36 d4bb 53a7 2d3c
000000b0: f1d2 60bd 9535 203d 8fe7 0fbd 5e36 e3bc
000000c0: 77e1 36bd 2acc 6dbd 38ad d63b d44b 18bd
000000d0: bbd6 473d 98c3 0f3d 809d 013d c7ab 10bd
000000e0: f80a 42bd a17e c8bb 28af 45bd bc49 883c
000000f0: 8ca8 3b3d 1e1c 4fbc 89ec ad3c 7788 09ba
00000100: fd06 9c3d 3403 953d 8f1c 1fbc 4ecc 35bd
00000110: 9978 20bd c280 83bc f948 2cbd ed1d 4fbd
00000120: 5c2e 33bd 1e70 81bd 2eca 883c d24e e23d
00000130: c296 9dbc f36f dbbc d28d d4bb ec89 b23d
00000140: 425e b33b 57ea 08bd dfc3 263d 5db7 cd3c
00000150: 959b 0ebd cad9 0ebd f309 333d 4ff1 13bd
00000160: 8a8c a0bc fc97 ffbb 6849 e5bc 3716 1abc
00000170: 33f9 283c 3334 b73c 5aa2 7abc 198e 163d
00000180: 3770 b33c 290c 0a3b f6f9 5fbd ee70 d3ba
00000190: e29d 593d 30d9 29bc 8a6b c3bb ac00 14bd
000001a0: 9006 36bd dbf7 153c 2483 2dbd d9c6 1a3d
000001b0: d0f4 3b3d f22d c73c fc51 ddbc 0a3d 66bd
000001c0: a040 afbb 38c5 213d 3f94 14bc f544 d13b
000001d0: 8f5b 21bd f87e acbc f60f f0bc ff35 e2bc
000001e0: 7d92 183d e3c1 483d 62f6 153c d56d 64bc
000001f0: 84b7 093d 7ac9 9dbc dd37 123d c2ae 963c
00000200: 2f92 d1bc 1a38 45bd c13c e3bc 2267 b8bc
00000210: 0d32 bfb9 caa0 33bb 6ed0 363d 6ec5 f7bc
00000220: 9b80 713d 1b59 b9bc 8790 64bc 9728 1dbd
00000230: cd0a 07bd 90e0 23bc d994 47bc a983 aebc
00000240: 0bdf 8ebc 247a 67ba 2df8 383c a8ff f63c
00000250: 84ff 6e3d af00 553c a784 a43c b02d 60bd
00000260: f116 0e3d 533b 2bbd 96fc 133c dcce 583c
00000270: 93a4 80bd d031 f1bc ca49 3e3d 412b 583d
00000280: 4c4f 3e3c a8f0 04bd d270 23bd 81f8 473d
00000290: 18e7 16bc 3985 eb3a b9a8 bdbb 0b64 14bd
000002a0: 75da 24bd eb1c c9bc 58e6 44bd baaf 0bbd
000002b0: 16e3 55bd 2edb 77bc fb08 4fbd 5c58 e23c
000002c0: 4a8a 46bd 1069 0abd cffc 643d 895f 3ebd
000002d0: 5085 d4bc dbaf 77bc 2678 1abd afa3 f7bc
000002e0: fc37 593d 3b3c 5d3d e081 58bd 5207 12bd
000002f0: 9aa2 553c 9fea 32bc f3cf 24bd 70b2 34bd
00000300: 24bf 24bd 8c46 25bd f645 6ebc 8ccd 04bd
00000310: 05ad d9bc 3b2d 113d e35e 1ebc 80c1 3abc
00000320: bbc0 1a3d 06d9 31bd 2b1c 613d 3a7c 21bc
00000330: 1dcd 57bd d385 bd3c a036 8c3c 4761 90bc
00000340: 2215 39bc ba5d 24bd 9a18 4dbc e5c6 0b3d
00000350: d434 963c a831 cdbc 0537 2a3d f135 e33c
00000360: 23c5 2e3d 3519 1dbd 8226 75bd a5fb 02bd
00000370: 9876 883c 2085 2fbd 023f acbc 570d 3dbd
00000380: 4ca0 573c d86e 4cbc 32f9 a73d 7b53 713d
00000390: 984f 4abd c615 e0bb b044 3abd a517 7e3d
000003a0: f530 713c b821 e73b 1188 40bd 0112 e1bc
000003b0: d77a b63c 4933 22bd a986 293c 1051 9f3c
000003c0: 1479 92bc 3570 59bd 2d1b 5b3c f48d 3d3d
000003d0: 9751 abbc bd00 e5bc 6bc1 24bd b5d6 bebb
000003e0: d4ab 1e3d 97fd 06bd 6695 ab3c 01fb 8ebb
000003f0: 762f 3dbd f59f 48bd f059 cb3c 02a1 1a3d

fc1.bias f4 [50]
-0.033078305 -0.00097591453 0.03845027 0.046305142 -0.020943291 -0.0639102 0.05185118 0.048411734
-0.032243576 0.00910496 0.0043383515 0.045224536 -0.00015601513 -0.033687554 0.029189957 -0.05034969
0.029467897 -0.06095639 -0.024351623 0.0144473575 0.0017145417 0.0059961933 -0.058029115 -0.05738942
0.04106187 -0.033639222 -0.009423441 -0.014721284 -0.012840536 -0.024142658 -0.0013751901 -0.046596933
-0.0488916 0.031234888 0.05212776 -0.046645947 0.0174174 -0.0026929744 -0.04083749 0.0066984077
0.07899003 0.04399776 0.039230574 0.010320443 -0.015845697 0.031200098 -0.045289204 -0.010947638
0.035916556 -0.013267126
00000000: 1e7d 07bd 84d4 7fba 087e 1d3d 76aa 3d3d
00000010: 4491 abbc 5ae3 82bd e761 543d 624b 463d
00000020: d711 04bd f82c 153c bb28 8e3b 5d3d 393d
00000030: fe97 23b9 f6fb 09bd c71f ef3c 7a3b 4ebd
00000040: a966 f13c 68ad 79bd 0e7d c7bc 9cb4 6c3c
00000050: 79ba e03a b77b c43b f0af 6dbd 2b11 6bbd
00000060: 7e30 283d 48c9 09bd c764 1abc 8a31 71bc
00000070: 1d61 52bc d3c6 c5bc b93f b4ba 6ddc 3ebd
00000080: 8f42 48bd 4fe0 ff3c eb83 553d d20f 3fbd
00000090: efae 8e3c 9d7c 30bb 3645 27bd 517e db3b
000000a0: 86c5 a13d ff36 343d 3db0 203d 1317 293c
000000b0: d6ce 81bc 5997 ff3c 2c81 39bd b95d 33bc
000000c0: 3d1d 133d 5c5e 59bc

fc2.weight f4 [10, 50]
0.016553208 -0.05400454 -0.08324946 0.14790389 -0.0053860922 0.26438642 0.14391518 0.12858097
0.15170282 0.03209753 0.026538005 0.106742166 0.036921684 0.14218256 -0.1547308 0.08150958
-0.059982903 -0.033702184 -0.11324543 -0.069891386 0.03026924 -0.049085382 0.16216913 0.0129934475
-0.017326137 0.03318004 -0.23900598 0.06145574 -0.055787407 0.036376927 0.022632016 0.057167105
-0.10996502 -0.121363245 0.17118889 0.2721816 -0.015468706 0.2484326 -0.12141812 0.03784431
0.011520512 -0.088639624 -0.09128232 0.061389003 -0.0726186 0.19470887 -0.031987667 -0.02613167
-0.14300042 0.05896942 0.021624925 -0.094393164 -0.015882768 0.07289752 0.1894819 0.2858324
0.20666306 0.20724668 0.005287865 -0.049946483 0.23258157 -0.079006895 -0.11842366 0.009439573
-0.12481542 0.11828454 0.12093451 0.054761045 -0.015663762 0.28707904 -0.102404594 0.020206362
0.17210661 0.26591918 0.026671752 0.0868873 0.016507769 0.13243362 -0.14645717 -0.05580418
-0.095340535 0.03546871 0.0013203995 0.054352682 0.26575488 0.28894475 0.14644721 0.048551474
0.109565206 -0.08648707 0.34413555 -0.014889293 -0.030171204 -0.13746566 0.28176773 0.06889843
0.08059114 -0.02651734 -0.05210852 0.21208264 0.1897588 -0.17250675 -0.17027691 0.09405497
-0.0051386505 0.117501386 0.011678675 -0.07500505 0.16731714 0.08461902 0.076312356 -0.033055764
0.08401299 -0.1079094 0.020673022 -0.012210973 0.19356704 -0.07479968 -0.11855045 0.1164346
-0.031492624 -0.07591953 0.03382554 -0.03645447 0.17113467 -0.03993938 0.054148916 0.11670757
0.04037861 0.12764893 0.037314583 0.014467604 -0.13792434 0.112766035 -0.0016331286 0.10196264
0.16211288 0.021445647 -0.09032133 0.07331439 -0.032142613 -0.10112995 -0.027628927 -0.14385091
0.027955994 0.0073500946 -0.0432177 -0.032366116 -0.04271041 0.036536753 0.024353601 0.03886274
-0.1057469 0.11495771 0.0014397985 -0.22233608 -0.22244261 -0.025442377 -0.042016 -0.07436617
0.2738632 0.06762588 0.07396432 -0.058852796 -0.0101186065 -0.028096592 0.103707306 -0.065950744
0.024620837 0.081795216 -0.09486238 0.14698967 -0.04706906 -0.074133754 -0.08514529 0.18170057
-0.0010429578 -0.0068953447 0.019337308 0.030440627 0.010014884 0.08457934 -0.03213023 0.111716315
-0.0038958099 -0.28412864 -0.011506945 -0.004903138 -0.09822221 0.037964396 -0.1291247 -0.084890194
0.033746276 -0.11524726 -0.16131662 -0.07940179 0.0511168 0.080814466 0.053770002 0.17383716
-0.08026904 -0.03466164 0.046764337 -0.08638377 0.17401792 0.31191128 0.052980777 0.009212316
0.072725415 -0.13267569 -0.18061042 0.0043511656 0.011457414 0.047365073 0.26240188 0.026897954
0.03802492 0.05923095 -0.02050655 0.027334793 0.049660534 -0.12087559 0.1276651 0.124135844
-0.0016934299 -0.07723283 0.056132693 -0.05042758 -0.010916985 -0.04580514 0.07500567 0.12908524
-0.09979338 0.10682358 -0.06878472 0.4137497 0.2813579 -0.0051122997 0.019817902 -0.1909485
-0.04139598 0.06055318 0.016827244 0.07889056 0.13087894 0.0154617075 0.14966339 0.0038607556
0.098741956 0.038392905 -0.02153563 0.19486181 0.053223375 -0.048900224 -0.332588 -1.4799829
00000000: 989a 873c dd33 5dbd b17e aabd 1e74 173e
00000010: d17d b0bb a85d 873e 805e 133e bbaa 033e
00000020: fc57 1b3e b378 033d 3b66 d93c a39b da3d
00000030: 313b 173d 4e98 113e c071 1ebe 7fee a63d
00000040: a2b0 75bd 4d0b 0abd 38ed e7bd 3723 8fbd
00000050: 32f7 f73c c10d 49bd aa0f 263e 78e2 543c
00000060: 8bef 8dbc cbe7 073d fcbd 74be 04b9 7b3d
00000070: 5681 64bd f9ff 143d c766 b93c 0e28 6a3d
00000080: 5735 e1bd 4b8d f8bd 244c 2f3e 635b 8b3e
00000090: 7570 7dbc 1e65 7e3e 10aa f8bd a302 1b3d
000000a0: 88c0 3c3c b188 b5bd 3af2 babd 0973 7b3d
000000b0: 10b9 94bd c361 473e 8005 03bd 1612 d6bc
000000c0: b46e 12be eb89 713d c126 b13c 3451 c1bd
000000d0: 941c 82bc 4c4b 953d 8b07 423e a058 923e
000000e0: 7b9f 533e 7938 543e d445 ad3b af94 4cbd
000000f0: dd29 6e3e 5ece a1bd 1b88 f2bd 70a8 1a3c
00000100: 3a9f ffbd 2a3f f23d 83ac f73d 1e4d 603d
00000110: 4a51 80bc 06fc 923e 80b9 d1bd d087 a53c
00000120: b73c 303e 8f26 883e b87e da3c f8f1 b13d
00000130: 4d3b 873c ae9c 073e def8 15be ed92 64bd
00000140: e641 c3bd a347 113d 4111 ad3a eba0 5e3d
00000150: 0611 883e 91f0 933e 42f6 153e e9dd 463d
00000160: b963 e03d 2220 b1bd 8932 b03e 39f2 73bc
00000170: 9a29 f7bc ccc3 0cbe dc43 903e 9f1a 8d3d
00000180: f80c a53d e53a d9bc be6f 55bd 312c 593e
00000190: 2250 423e 9ca5 30be 125d 2ebe e49f c03d
000001a0: 2062 a8bb 91a4 f03d ea57 3f3c 3f9c 99bd
000001b0: 2f55 2b3e bd4c ad3d a749 9c3d 7b65 07bd
000001c0: 010f ac3d 9aff dcbd 785a a93c 8810 48bc
000001d0: 7036 463e 9330 99bd 94ca f2bd 4375 ee3d
000001e0: 69fe 00bd b37b 9bbd a68c 0a3d 4851 15bd
000001f0: ed3d 2f3e 7a97 23bd 41cb 5d3d 6104 ef3d
00000200: 0b64 253d 67b6 023e 2dd7 183d 8809 6d3c
00000210: 0a3c 0dbe e1f1 e63d b40e d6ba cad1 d03d
00000220: eb00 263e c8ae af3c 64fa b8bd db25 963d
00000230: f9a7 03bd 381d cfbd 0f56 e2bc a74d 13be
00000240: f803 e53c 10d9 f03b 0b05 31bd 5592 04bd
00000250: 1cf1 2ebd 90a7 153d 3481 c73c 892e 1f3d
00000260: d591 d8bd f36e eb3d 9fb7 bc3a 12ac 63be
00000270: ffc7 63be 886c d0bc f818 2cbd 4a4d 98bd
00000280: cc37 8c3e 707f 8a3d 9b7a 973d a10f 71bd
00000290: 83c8 25bc d32a e6bc 7f64 d43d 2f11 87bd
000002a0: a3b1 c93c 4084 a73d 3547 c2bd 7684 163e
000002b0: 7dcb 40bd 70d3 97bd a760 aebd b70f 3a3e
000002c0: dbb3 88ba 58f2 e1bb 4669 9e3c 9f5e f93c
000002d0: 7815 243c ef37 ad3d fd9a 03bd 86cb e43d
000002e0: d850 7fbb 4f79 91be a087 3cbc 81aa a0bb
000002f0: ba28 c9bd 8e80 1b3d 4439 04be e9da adbd
00000300: 8939 0a3d c106 ecbd 2f30 25be 689d a2bd
00000310: da5f 513d 0e82 a53d ef3d 5c3d 5e02 323e
00000320: 1864 a4bd 5df9 0dbd f68b 3f3d f9e9 b0bd
00000330: c131 323e d6b2 9f3e 5f02 593d 41ef 163c
00000340: 10f1 943d 23dc 07be f0f1 38be 3994 8e3b
00000350: e1b7 3b3c e101 423d 8a59 863e 1959 dc3c
00000360: 05c0 1b3d 279c 723d 5afd a7bc 37ed df3c
00000370: d868 4b3d 9f8d f7bd a4ba 023e ef3a fe3d
00000380: 14f6 ddba 3f2c 9ebd 65eb 653d 268d 4ebd
00000390: 27dd 32bc 2c9e 3bbd 939c 993d ec2e 043e
000003a0: 7960 ccbd 52c6 da3d 01df 8cbd 00d7 d33e
000003b0: 250e 903e 1485 a7bb 2759 a23c 0188 43be
000003c0: d58e 29bd 9c06 783d 4ad9 893c 6091 a13d
000003d0: 2105 063e 1a53 7d3c 5c41 193e bb04 7d3b
000003e0: 3939 ca3d e141 1d3d 7d6b b0bc db89 473e
000003f0: c100 5a3d 9a4b 48bd f948 aabe 1470 bdbf

fc2.bias f4 [10]
0.12228223 0.12390342 -0.024498882 -0.04836669 -0.0016321898 0.10909285 -0.046853267 -0.026412968
-0.074572936 0.02785264
00000000: 1b6f fa3d 14c1 fd3d e1b1 c8bc 261c 46bd
00000010: 34ef d5ba 126c df3d 36e9 3fbd 0260 d8bc
00000020: b2b9 98bd 382b e43c

momentum_buffer f4 [10, 1, 5, 5]
8.838059e-05 6.934974e-32 -7.144756e-38 0.0 2.4585217e-10 0.002169466 3.3492558e-06 0.0
0.0 0.0 0.027442586 3.9796298e-05 -7.433019e-05 0.0 0.0 1.2641563e-05
-1.8773347e-09 -0.0017506687 4.1650074e-22 -6.7946394e-14 -4.8127476e-05 1.6766868e-14 -9.367719e-09 6.941679e-23
0.0011215056 0.38181147 0.58246887 0.67137444 0.84352744 0.79034877 0.7167949 0.98841196
0.874372 0.842698 0.8824009 0.6535919 0.7900734 0.5604022 0.49588606 0.73453754
0.13009068 0.046642922 0.10743853 0.29463267 0.27811658 -0.018597912 -0.0045822198 0.116605245
0.1924837 0.19610265 2.0953015e-05 -8.164691e-05 1.0615085e-17 5.7011624e-05 2.3864799e-05 4.8024496e-05
0.0018764155 3.2358575e-12 -0.0025383565 -5.459214e-09 0.004686143 3.3323448e-07 2.8947203e-16 -3.0377104e-10
-1.3793403e-10 2.2344343e-06 0.00070483773 2.127987e-11 -0.0017370967 0.0 6.707994e-05 0.00068836415
0.0034728115 -8.6962746e-07 0.0009096247 -5.7798658e-05 0.0033435598 2.751812e-06 -1.5958106e-11 1.4490492e-10
-0.0001619244 -8.433096e-08 9.7363334e-17 0.0 -7.255469e-18 2.5779067e-05 0.0 0.0
0.0 0.0 0.0 0.0 0.0 0.0 0.0 -2.2e-44
-2.86e-43 0.0 0.0 2.8153824e-25 0.02760207 0.013180387 0.0026035558 0.0053159012
0.0055893147 -0.0016622869 -0.00737297 -0.0046249735 0.00031835728 -0.00034259833 0.014817873 0.02773558
0.032819737 0.023291599 0.005139482 0.10410534 0.19369912 0.22128275 0.17970711 0.060209185
0.03832969 0.12807152 0.10119258 0.11359615 0.08723075 9.168655e-05 -0.00018029749 -1.690113e-10
-0.0001709538 -8.622535e-21 0.0019108722 0.0054517444 -2.5513298e-06 -0.00084795355 -7.2313475e-12 -7.4699725e-05
-0.0024274043 9.0907434e-11 -0.0024072987 -0.00012766446 6.74141e-06 -0.00038213827 -4.1483084e-11 -0.003857334
-0.00027635862 3.2796028e-09 1.4682344e-10 4.8185975e-05 -0.0006638269 0.0001973773 5.031681e-06 -0.0026755682
-0.00070736447 -1.8846502e-07 0.00041806116 -0.0020925205 -0.0043664626 6.8057154e-05 8.066461e-06 -0.0025286656
-0.009728098 0.00012079863 0.0016605343 -0.0039757052 -0.012432727 1.3551051e-16 -0.0010318848 0.0027798677
-0.00014839019 -0.0033907178 0.00045090198 -2.486391e-05 0.0019121199 -8.133014e-09 0.006112759 0.0
0.0 0.0 0.0 0.0 0.0 0.0 0.0 0.0
0.0 0.0 0.0 0.0 0.0 0.0 0.0 0.0
0.0 0.0 0.0 0.0 0.0 0.0 0.0 0.0
0.0 0.0 0.0 0.0 0.0 0.0 0.0 0.0
0.0 0.0 0.0 0.0 8.9801164e-05 0.0 0.0 0.0
0.0 0.001812148 0.0 0.0 3.8652022e-08 0.0 0.0 0.0
0.0 -0.21882287 -0.11594745 -0.03013639 -0.003564608 0.0038330106 -0.23073341 -0.110667646
-0.0038916867 0.0017241652 0.004564818 -0.35900086 -0.13932694 0.02786076 0.0016790231 -5.5130553e-05
-0.1932641 -0.056728 0.005687952 -0.0005426693 0.004258611 -0.08301606 -0.008504113 -0.004337169
0.0077930475 0.020975132
00000000: f858 b938 cf0a b40b af7f c281 0000 0000
00000010: 9e28 872f 9a2d 0e3b c7c3 6036 0000 0000
00000020: 0000 0000 0000 0000 46cf e03c f3ea 2638
00000030: b8e1 9bb8 0000 0000 0000 0000 1a17 5437
00000040: 6c02 01b1 b276 e5ba 5ec2 fb1b 6e00 99a9
00000050: 7cdc 49b8 c405 9728 aaef 20b2 e9d6 a71a
00000060: 7cff 923a cb7c c33e ae1c 153f 32df 2b3f
00000070: 6af1 573f 4c54 4a3f df7f 373f 9108 7d3f
00000080: d8d6 5f3f 0ebb 573f 06e5 613f cc51 273f
00000090: 4042 4a3f 8576 0f3f c7e4 fd3e a70a 3c3f
000000a0: 7e36 053e a60c 3f3d bb08 dc3d 18da 963e
000000b0: 4c65 8e3e a65a 98bc 7226 96bb bbce ee3d
000000c0: 721a 453e 22cf 483e 42c4 af37 da39 abb8
000000d0: 52d0 4323 c41f 6f38 4431 c837 e96d 4938
000000e0: 0ef2 f53a 07b4 632c 8e5a 26bb c193 bbb1
000000f0: 378e 993b 66e7 b234 88de a625 f9ff a6af
00000100: faa8 17af 4af3 1536 dcc4 383a 022e bb2d
00000110: 4baf e3ba 0000 0000 45ad 8c38 5673 343a
00000120: 1c98 633b 5870 69b5 e173 6e3a d66c 72b8
00000130: a01f 5b3b c5ab 3836 765e 8cad 1c53 1f2f
00000140: 40ca 29b9 7019 b5b3 2b81 e024 0000 0000
00000150: fcd6 05a3 2040 d837 0000 0000 0000 0000
00000160: 0000 0000 0000 0000 0000 0000 0000 0000
00000170: 0000 0000 0000 0000 0000 0000 1000 0080
00000180: cc00 0080 0000 0000 0000 0000 8443 ae16
00000190: bc1d e23c 8df2 573c 6ba0 2a3b 0331 ae3b
000001a0: 9226 b73b 18e1 d9ba f598 f1bb 178d 97bb
000001b0: 31e9 a639 c59e b3b9 aac6 723c ba35 e33c
000001c0: fd6d 063d 06ce be3c 1a69 a83b 2e35 d53d
000001d0: 1059 463e f297 623e 2405 383e e89d 763d
000001e0: 98ff 1c3d 2e25 033e 0e3e cf3d 19a5 e83d
000001f0: 09a6 b23d d747 c038 3d0e 3db9 74d4 39af
00000200: 1042 33b9 05e0 229e 3b76 fa3a 8ca4 b23b
00000210: 8337 2bb6 3349 5eba 306e feac 1ca8 9cb8
00000220: 1615 1fbb 56e8 c72e c5c3 1dbb abdd 05b9
00000230: 4534 e236 bb59 c8b9 cd71 36ae 53cb 7cbb
00000240: 3ae4 90b9 625f 6131 206f 212f 4c1b 4a38
00000250: ab04 2eba 11f7 4e39 d0d5 a836 9658 2fbb
00000260: 6d6e 39ba df5c 4ab4 382f db39 ab22 09bb
00000270: 8b14 8fbb e8b9 8e38 3055 0737 f8b7 25bb
00000280: 9a62 1fbc 4555 fd38 49a6 d93a a246 82bb
00000290: a3b2 4bbc a53b 1c25 4f40 87ba 712e 363b
000002a0: 3099 1bb9 ce36 5ebb 0a67 ec39 d792 d0b7
000002b0: 19a0 fa3a 60b9 0bb2 8a4d c83b 0000 0000
000002c0: 0000 0000 0000 0000 0000 0000 0000 0000
000002d0: 0000 0000 0000 0000 0000 0000 0000 0000
000002e0: 0000 0000 0000 0000 0000 0000 0000 0000
000002f0: 0000 0000 0000 0000 0000 0000 0000 0000
00000300: 0000 0000 0000 0000 0000 0000 0000 0000
00000310: 0000 0000 0000 0000 0000 0000 0000 0000
00000320: 0000 0000 0000 0000 0000 0000 0000 0000
00000330: 0000 0000 0000 0000 0000 0000 0000 0000
00000340: 0000 0000 0000 0000 0000 0000 0000 0000
00000350: a253 bc38 0000 0000 0000 0000 0000 0000
00000360: 0000 0000 9985 ed3a 0000 0000 0000 0000
00000370: 5902 2633 0000 0000 0000 0000 0000 0000
00000380: 0000 0000 1a13 60be db75 edbd 97e0 f6bc
00000390: 339c 69bb 3f33 7b3b 6145 6cbe b8a5 e2bd
000003a0: ab0b 7fbb 62fd e13a 7894 953b f6ce b7be
000003b0: b9ab 0ebe 403c e43c ab12 dc3a fb3b 67b8
000003c0: 06e7 45be 9f5b 68bd 0062 ba3b ec41 0eba
000003d0: d18b 8b3b 5304 aabd d654 0bbc d01e 8ebb
000003e0: d25c ff3b 0ad4 ab3c

momentum_buffer f4 [10]
-2.6809517e-05 -0.002241245 6.942055e-05 2.0947784e-05 -0.0034803443 6.7486326e-05 0.0015168432 -0.00040612882
0.0004969528 -0.006314
00000000: 00e5 e0b7 dae1 12bb e095 9138 06b9 af37
00000010: 7d16 64bb 7287 8d38 d0d0 c63a b0ed d4b9
00000020: f045 023a ace5 cebb

momentum_buffer f4 [20, 10, 5, 5]
-0.00076680793 -0.00037482628 -0.0009603766 -0.00063395075 -3.630732e-05 -0.00041793496 -0.00047372977 -0.000930237
-0.0008670091 -7.587318e-05 -0.000381038 -0.00030275487 -0.0009934113 -0.0009488447 -0.0007394546 -0.0007492364
-0.00057787105 -0.0006074416 -0.0005243547 -0.0006028727 -0.0008043761 -0.00010455758 -0.00039056648 -0.0004961504
-0.0002864688 0.023733467 -0.02367974 -0.053202067 -0.12797126 -0.21769041 0.008979695 -0.001817394
0.30654347 0.2060841 0.059358183 0.034580916 0.047285408 0.2819129 0.059259214 -0.015544608
0.011611615 0.008001255 0.01144857 -0.046272628 -0.09329698 0.0027524873 0.0114669185 0.004275153
-0.048241384 -0.065249 2.9543045e-05 7.1489226e-10 -2.0476572e-17 1.1978678e-05 2.0991074e-06 4.260093e-05
8.209109e-05 2.0378099e-11 1.7658524e-12 -4.8085904e-09 1.1188458e-06 2.794234e-05 -6.4246924e-05 -8.8084086e-08
1.3729506e-07 1.1873863e-09 -0.00020768652 -2.8720003e-06 2.0557728e-07 0.00027474147 -4.904358e-15 -8.804672e-09
-2.8229388e-07 1.7134572e-06 -6.1647204e-13 5.0103996e-13 3.9342685e-10 5.0121446e-10 1.4519865e-09 5.920904e-17
-1.3758099e-11 1.4421549e-10 0.0013113552 6.5857736e-11 0.0010234644 -2.828925e-08 -3.906977e-18 0.00080268946
3.6867232e-07 0.002059361 -2.9724063e-06 9.874158e-07 -1.8220541e-06 -1.5132209e-05 -9.298368e-06 -4.6901177e-12
1.1427845e-15 -2.0079926e-23 1.1763711e-18 1.36158e-16 -0.0013314468 0.0017874948 0.00026659496 0.0007601839
-0.0060979635 -0.0020706428 -0.017263673 -0.00054092705 0.004818045 0.0038007572 0.008715876 -0.06353371
0.006873996 0.010665148 -0.001775123 0.06917265 0.039085504 0.039258998 0.03259979 0.0071552857
0.01616417 0.058221303 -0.06118074 -0.12423573 -0.1419735 -0.00020415297 4.9017834e-10 -9.385826e-12
2.2037132e-06 -3.475046e-11 2.2856545e-07 1.1864873e-05 2.31125e-06 9.1880024e-11 -9.10774e-11 5.7843107e-07
1.7449009e-05 7.043022e-10 5.592823e-09 -2.8474209e-11 -5.880818e-15 -3.132207e-15 2.0775873e-10 -1.7196865e-10
-3.401285e-12 -0.001040683 -1.07848555e-05 -8.477144e-10 1.4154147e-17 -2.9403539e-13 -0.00043773727 -1.4089717e-05
-0.00038504432 -0.00047633503 -1.5564867e-05 -0.00018135257 -0.00050255604 -0.0005046726 -0.00039103822 -4.004519e-05
-0.00015386842 -3.0379684e-05 -0.0004292677 -0.00047296932 -0.0003338324 -0.00032460035 -0.00019983406 -0.00038512851
-0.0002038814 -0.0002697325 -0.00034246722 -4.1154402e-05 -0.00015366837 -0.00032153068 -0.00019407007 -0.0005100028
-0.00024895996 -0.000634304 -0.00043671246 -2.6818772e-05 -0.00027793934 -0.00031466948 -0.0006184234 -0.00058116403
-5.9778744e-05 -0.00025322754 -0.00020113634 -0.0006422092 -0.00063645415 -0.00048602035 -0.0004977659 -0.0002990868
-0.00039709592 -0.00032495955 -0.0004002327 -0.0005343857 -6.6192326e-05 -0.00025876882 -0.0003478138 -0.00018968138
-0.00039766784 -0.0001940867 -0.0004946346 -0.0003405104 -2.084401e-05 -0.00021644906 -0.00024533647 -0.0004822525
-0.00045312408 -4.653888e-05 -0.00019740264 -0.0001567795 -0.00050079566 -0.00049634813 -0.0003790296 -0.0003881306
-0.00023315471 -0.000309606 -0.00025338284 -0.00031210162 -0.00041667552 -5.151886e-05 -0.00020172642 -0.00027118178
-0.00014784426 5.7216886e-05 8.279759e-05 -0.00019917876 -0.009955317 0.0075874943 0.007716107 -0.019326432
-0.003359965 9.274957e-05 0.0015444483 0.049530055 -0.08989002 -0.027296731 -0.00024458498 0.0012459157
0.09986413 -0.08646233 -0.03921996 -0.0046187364 -0.007254428 0.06838685 0.017471148 0.009710168
-0.0070416695 -0.0022657388 -9.098863e-11 5.4573486e-15 -6.435226e-17 -4.08673e-38 0.0 5.4573486e-15
00000000: 9c03 49ba 5584 c4b9 c8c1 7bba b72f 26ba
00000010: b048 18b8 481e dbb9 ef5e f8b9 26db 73ba
00000020: ff47 63ba 1a1e 9fb8 0ec6 c7b9 12bb 9eb9
00000030: 5a35 82ba e4bb 78ba f5d7 41ba 6768 44ba
00000040: 457c 17ba b73c 1fba d974 09ba 1a0a 1eba
00000050: c4dc 52ba ec45 dbb8 f2c4 ccb9 1710 02ba
00000060: 3131 96b9 b06c c23c 04fc c1bc 69ea 59bd
00000070: e60a 03be 3cea 5ebe 921f 133c a035 eeba
00000080: 44f3 9c3e b607 533e 9121 733d b8a4 0d3d
00000090: 58ae 413d e356 903e cab9 723d d0ae 7ebc
000000a0: a53e 3e3c b217 033c c892 3b3c 5e88 3dbd
000000b0: 7d12 bfbd 1363 343b bedf 3b3c 9516 8c3b
000000c0: c298 45bd 45a1 85bd 35d3 f737 1282 4430
000000d0: f0dc bca3 08f8 4837 64de 0c36 66ae 3238
000000e0: 5128 ac38 663f b32d 8a85 f82b cf38 a5b1
000000f0: 402b 9635 b865 ea37 4ebc 86b8 bd28 bdb3
00000100: 616b 1334 7131 a330 6dc6 59b9 97bc 40b6
00000110: a7bc 5c34 2d0b 9039 b8b2 b0a7 5b43 17b2
00000120: 2d8e 97b4 f1f9 e535 7e85 2dab bc07 0d2b
00000130: e849 d82f d5c5 0930 3c8f c730 d986 8824
00000140: f808 72ad 0d91 1e2f c7e1 ab3a 9cd2 902e
00000150: c425 863a b800 f3b2 5b24 90a2 946b 523a
00000160: f0ed c534 58f6 063b 8d79 47b6 5987 8435
00000170: 4d8d f4b5 58e0 7db7 3000 1cb7 d304 a5ac
00000180: 4eb1 a426 7d33 c299 0b9a ad21 c0fa 1c25
00000190: f183 aeba 5f4a ea3a c5c5 8b39 1447 473a
000001a0: 6dd1 c7bb 9fb3 07bb 8c6c 8dbc 00cd 0dba
000001b0: b1e0 9d3b 2016 793b 09cd 0e3c f61d 82bd
000001c0: 423f e13b dfbc 2e3c 3eab e8ba 64aa 8d3d
000001d0: 1f18 203d 0bce 203d 5b87 053d e376 ea3b
000001e0: b96a 843c 7679 6e3d a898 7abd 4d6f febd
000001f0: 8061 11be e511 56b9 3cbd 0630 011e 25ad
00000200: 81e3 1336 8ad5 18ae 986b 7534 3e0f 4737
00000210: f91a 1b36 db0b ca2e 0548 c8ae 7b45 1b35
00000220: 765f 9237 dd98 4130 fe2a c031 3876 faad
00000230: f9e0 d3a7 05b3 61a7 e26e 642f df14 3daf
00000240: 1a58 6fac 8767 88ba 9af0 34b7 9904 69b0
00000250: 898c 8223 f786 a5aa 1a80 e5b9 e062 6cb7
00000260: c6df c9b9 9bbc f9b9 4c91 82b7 7629 3eb9
00000270: f7bd 03ba 014c 04ba 4304 cdb9 32f6 27b8
00000280: bd57 21b9 e0d7 feb7 560f e1b9 def8 f7b9
00000290: 3a06 afb9 1f2f aab9 8c8a 51b9 13eb c9b9
000002a0: ffc8 55b9 e26a 8db9 2c8d b3b9 349d 2cb8
000002b0: 0a22 21b9 1e93 a8b9 4a7f 4bb9 b5b1 05ba
000002c0: d786 82b9 6c47 26ba 8ef6 e4b9 e0f8 e0b7
000002d0: 63b8 91b9 39fa a4b9 b11d 22ba 4259 18ba
000002e0: f0ba 7ab8 a0c3 84b9 20e8 52b9 ee59 28ba
000002f0: b7d7 26ba 8cd0 feb9 817c 02ba c0ce 9cb9
00000300: 5031 d0b9 555f aab9 53d6 d1b9 0416 0cba
00000310: bcd0 8ab8 5dab 87b9 c75a b6b9 35e5 46b9
00000320: 137e d0b9 c083 4bb9 5eaa 01ba 8886 b2b9
00000330: 2cda aeb7 9af6 62b9 81a0 80b9 d6d6 fcb9
00000340: 4991 edb9 be32 43b8 defd 4eb9 2d65 24b9
00000350: d447 03ba 5c1d 02ba 7eb8 c6b9 027e cbb9
00000360: fe7a 74b9 9d52 a2b9 78d8 84b9 92a1 a3b9
00000370: 3e75 dab9 f415 58b8 8686 53b9 672d 8eb9
00000380: a406 1bb9 2afc 6f38 9ea3 ad38 a4da 50b9
00000390: a01b 23bc 84a0 f83b 66d7 fc3b 7752 9ebc
000003a0: dc32 5cbb 8c82 c238 166f ca3a 07e0 4a3d
000003b0: 4218 b8bd 659d dfbc a43b 80b9 fe4d a33a
000003c0: 9185 cc3d 2913 b1bd 1ca5 20bd c558 97bb
000003d0: 8eb6 edbb 680e 8c3d a71f 8f3c 6517 1f3c
000003e0: cebd e6bb ca7c 14bb 0c16 c8ae 289f c427
000003f0: df62 94a4 b480 5e81 0000 0000 289f c427

momentum_buffer f4 [20]
-0.0037172022 5.001289e-07 0.012136182 0.00017459755 0.0030070264 0.0007478311 -0.0009175157 0.00054855447
-0.0032256946 -0.0060551516 6.660101e-05 0.01079343 -0.0028846997 -0.0018556502 -0.0012395838 1.4917116e-06
-0.0036752801 0.007689803 0.0011036396 0.0004013934
00000000: 4e9c 73bb 9940 0635 d6d6 463c 2c14 3739
00000010: 8811 453b 180a 443a 7085 70ba decc 0f3a
00000020: 2d66 53bb 4b6a c6bb 25ac 8b38 edd6 303c
00000030: 3b0d 3dbb 4a39 f3ba 8879 a2ba d236 c835
00000040: f8dc 70bb befa fb3b 00a8 903a 1c72 d239

momentum_buffer f4 [50, 320]
-0.032225303 -0.07398136 -0.017502945 1.3070887e-06 0.1911695 -0.029017713 -0.009095478 0.013619326
0.18522047 0.05124623 0.0065528816 0.0056994054 0.00029337333 -0.04047876 -0.014329924 -0.005995302
0.0 0.0 0.0 0.0 -8.563745e-21 -8.1861045e-33 -2.8283514e-37 0.0
0.0 4.3147276e-17 -4.524877e-10 0.0 0.0 2.451421e-19 0.0 0.0
-0.010552185 -0.043128386 -0.103870444 -0.03910673 -0.06263795 -0.048055712 -0.014633033 -0.0069648763
-0.08626551 -0.063148394 -0.08029943 -0.08533408 -0.14110483 -0.1630814 -0.16423555 -0.066681385
1.0195186e-18 -1.653586e-25 -2.6845346e-06 0.0 -7.196395e-06 0.002960714 0.00031585206 5.960116e-05
0.043335076 0.008400581 0.0105491895 3.6116109e-07 0.0018908632 2.6457405e-05 2.7732519e-09 -1.4757643e-05
0.14138068 0.15435241 0.07182857 0.05100561 0.004033584 -0.002734161 -9.635923e-05 0.0025817305
0.007532887 0.0025316586 0.004096679 0.011340284 0.051260386 0.039089642 0.00387356 0.0003383713
1.1667024e-14 3.8620883e-13 0.0019181952 -1.4337915e-05 1.1592349e-05 4.239879e-06 0.012681739 0.0248699
-0.00015649466 0.070006445 0.06302785 0.08424826 -0.00026274926 0.0029462734 -0.00020335532 0.0001380854
-6.802986e-39 1.8199023e-19 0.0 0.0 1.0060681e-37 -6.704863e-08 -0.00039570357 0.010539319
-6.6514985e-30 0.00026599967 -0.00087164086 -1.1895787e-06 0.0 -5.5836244e-07 0.00013431543 2.3249725e-06
0.00100042 -4.245459e-07 -1.7927294e-06 0.000322222 0.002503444 3.7654502e-07 -5.7586504e-08 -9.095568e-05
0.0017761876 -0.0019473449 0.00028287494 0.0015877639 -9.225826e-15 6.9333484e-12 2.5303887e-21 1.4786709e-06
0.0059524896 -0.0005144025 -0.015207415 -0.012592245 0.0003369176 0.07231807 -0.0051520094 -0.022475686
0.049013503 0.028248303 -0.0030393489 -0.00020481402 0.036262292 -0.008259641 -0.048382457 -0.025453191
0.023194175 -0.034808565 -0.0411398 0.012606744 0.094374076 -0.019952446 -0.11708571 -0.037104517
0.10160039 -0.0726082 -0.05198795 0.0024410053 0.031819172 -0.049649514 -0.16351253 -0.14671378
0.0 0.0 0.0 0.0 0.0 -1.2232135e-37 -1.2232135e-37 0.0
0.0 -7.4103296e-10 -2.014782e-10 0.0 0.0 0.0 0.0 0.0
5.935631e-20 0.0033387407 -6.456016e-07 1.9106287e-21 0.00011467366 0.013360493 0.00030026198 1.3915447e-06
0.01267525 0.006469234 0.002045217 4.1975245e-06 0.0030713875 -0.00015962792 0.0004687307 -0.007829047
0.024845097 -0.0005203964 -0.000120534845 0.0 0.0018707883 2.3161805e-05 -8.267713e-05 -1.6289443e-10
-1.5427439e-06 -0.0053013684 -0.005433961 -1.2538642e-13 0.028832262 -0.0007262215 -3.6082056e-05 0.0
0.00024488015 0.00038075956 0.007910807 0.00035567477 -3.5804032e-06 0.0017524268 3.310659e-05 7.666899e-06
-0.0045405985 -0.0008760921 0.00066056644 0.0034663312 0.0070165237 0.027385 0.023751726 0.0025899282
0.012023627 -0.003850477 0.0050607733 -0.027159072 0.0029756357 -0.00065552513 0.045011327 -0.14423431
0.0017428306 0.0043902514 -0.0028760675 -0.009987425 0.016727753 0.00019607409 -0.009460893 -0.0739801
0.0 0.0 0.0 0.0 0.0 -6.5984167e-37 -6.5983504e-37 0.0
0.0 -9.147659e-10 -1.0910259e-09 0.0 0.0 0.0 0.0 0.0
00000000: aefe 03bd 8a83 97bd 5662 8fbc 3a6f af35
00000010: f0c1 433e 8eb6 edbc 3305 15bc 9823 5f3c
00000020: 6faa 3d3e 91e7 513d 8eb9 d63b 14c2 ba3b
00000030: e7cf 9939 0ecd 25bd 0fc8 6abc 3d74 c4bb
00000040: 0000 0000 0000 0000 0000 0000 0000 0000
00000050: bbc3 219e cc04 2a8a d57c c082 0000 0000
00000060: 0000 0000 50fb 4624 fbc1 f8af 0000 0000
00000070: 0000 0000 d4b4 9020 0000 0000 0000 0000
00000080: 12e3 2cbc 64a7 30bd 07ba d4bd 612e 20bd
00000090: 5348 80bd 11d6 44bd 64bf 6fbc 9e39 e4bb
000000a0: f9ab b0bd f253 81bd 0774 a4bd a2c3 aebd
000000b0: c97d 10be cffe 26be 5d2d 28be 4090 88bd
000000c0: 5374 9621 3bb4 4c96 f427 34b6 0000 0000
000000d0: 9078 f1b6 8a08 423b f298 a539 42fc 7938
000000e0: 1f80 313d 97a2 093c 82d6 2c3c 9ae5 c134
000000f0: d7d6 f73a d8f0 dd37 9093 3e31 9897 77b7
00000100: 19c6 103e 8f0e 1e3e db1a 933d 42eb 503d
00000110: 282c 843b 9c2f 33bb 7814 cab8 4032 293b
00000120: 70d6 f63b 2fea 253b 6f3d 863b 99cc 393c
00000130: 69f6 513d 761c 203d 8edb 7d3b 6d67 b139
00000140: a72c 5228 8f6a d92a f36b fb3a e08c 70b7
00000150: c37c 4237 4944 8e36 12c7 4f3c f6bb cb3c
00000160: b718 24b9 8a5f 8f3d bf14 813d 5a8a ac3d
00000170: 9cc1 89b9 4416 413b c73b 55b9 04cb 1039
00000180: f513 4a80 2cdb 5620 0000 0000 0000 0000
00000190: 5bf0 0802 60fc 8fb3 6f76 cfb9 1cad 2c3c
000001a0: 8ee8 068f df75 8b39 d47e 64ba 9da9 9fb5
000001b0: 0000 0000 60e2 15b5 06d7 0c39 b906 1c36
000001c0: 8620 833a 25ed e3b4 b79d f0b5 e8ef a839
000001d0: d210 243b f427 ca34 0855 77b3 75bf beb8
000001e0: f7ce e83a 0d3e ffba d54e 9439 841c d03a
000001f0: 9d32 26a8 0df2 f32c d630 3f1d bf76 c635
00000200: 1a0d c33b f8d8 06ba 8628 79bc b44f 4ebc
00000210: 51a4 b039 7f1b 943d 30d2 a8bb ee1e b8bc
00000220: 62c2 483d fc68 e73c d02f 47bb 58c3 56b9
00000230: c587 143d 7253 07bc af2c 46bd 3683 d0bc
00000240: b601 be3c 6d93 0ebd 3582 28bd 848c 4e3c
00000250: 3247 c13d 5073 a3bc a2ca efbd e8fa 17bd
00000260: de13 d03d 9cb3 94bd 51f1 54bd 46f9 1f3b
00000270: d254 023d 4a5d 4bbd d46f 27be 233c 16be
00000280: 0000 0000 0000 0000 0000 0000 0000 0000
00000290: 0000 0000 c57e 2682 c57e 2682 0000 0000
000002a0: 0000 0000 8fb1 4bb0 1287 5daf 0000 0000
000002b0: 0000 0000 0000 0000 0000 0000 0000 0000
000002c0: b026 8c1f c6ce 5a3b 674d 2db5 ef5c 101d
000002d0: f47c f038 f8e5 5a3c 7b6c 9d39 1dc5 ba35
000002e0: daab 4f3c defb d33b 0c09 063b 76d8 8c36
000002f0: 5549 493b cb61 27b9 f8bf f539 6745 00bc
00000300: f287 cb3c 366b 08ba a7c7 fcb8 0000 0000
00000310: 3d35 f53a 994b c237 f262 adb8 b51a 33af
00000320: 4710 cfb5 1ab7 adbb 5e0f b2bb 2d2c 0daa
00000330: a331 ec3c e65f 3eba d056 17b8 0000 0000
00000340: 4263 8039 afa0 c739 549c 013c dc79 ba39
00000350: dc46 70b6 b0b1 e53a eedb 0a38 15a1 0037
00000360: 4dc9 94bb 8ca9 65ba dd29 2d3a 632b 633b
00000370: deea e53b 8256 e03c fb92 c23c c9bb 293b
00000380: bffe 443c 4958 7cbb d8d4 a53b b47c debc
00000390: e202 433b 8cd7 2bba cc5d 383d 29b2 13be
000003a0: b16f e43a 19dc 8f3b 687c 3cbb 4ca2 23bc
000003b0: a408 893c 3d99 4d39 dd01 1bbc e182 97bd
000003c0: 0000 0000 0000 0000 0000 0000 0000 0000
000003d0: 0000 0000 5188 6083 bd87 6083 0000 0000
000003e0: 0000 0000 ed72 7bb0 10f3 95b0 0000 0000
000003f0: 0000 0000 0000 0000 0000 0000 0000 0000

momentum_buffer f4 [50]
-0.0012288776 0.00019226939 0.0015558988 -0.0020428672 -0.0004978225 0.002169928 -0.005261334 -0.0045559527
0.0063241823 0.002676955 6.8831316e-05 -0.0008148497 -0.00036639813 0.0016589517 -0.0011135256 0.0006157122
-0.00694702 0.0016612681 -0.001322464 -0.010841204 0.00043637905 -1.05128095e-07 -0.00076331844 1.7867424e-06
-0.00043668319 -0.0023085668 -0.003851273 0.0014707791 0.0009156726 -1.5319281e-05 3.2640128e-06 -0.00092262425
0.0005779045 -0.0011604783 -0.004594947 0.0024308898 -0.00091938575 0.010129694 -0.0007562636 -0.0031434593
-0.011982463 -0.002261517 -0.0022140867 0.010981243 -0.0006354621 0.0060649 0.0011621107 -0.00046924327
-0.0069280914 -0.005668955
00000000: 4a12 a1ba ec9b 4939 4def cb3a a0e1 05bb
00000010: 4d80 02ba 5a35 0e3b 4567 acbb 1a4a 95bb
00000020: 163b cf3b da6f 2f3b 8859 9038 a39b 55ba
00000030: 2019 c0b9 2f71 d93a b8f3 91ba bf67 213a
00000040: d4a3 e3bb e8be d93a 8756 adba 4e9f 31bc
00000050: cec9 e439 c8c2 e1b3 6f19 48ba 00d0 ef35
00000060: a0f2 e4b9 534b 17bb a465 7cbb 28c7 c03a
00000070: bf09 703a e881 80b7 500b 5b36 44dc 71ba
00000080: 847e 173a 311b 98ba 3691 96bb 904f 1f3b
00000090: ef02 71ba 04f7 253c fe3f 46ba 7f02 4ebb
000000a0: 1852 44bc f635 14bb 361a 11bb acea 333c
000000b0: 2495 26ba 12bc c63b f751 983a c404 f6b9
000000c0: 0b05 e3bb a4c2 b9bb
