quick-start/notebooks_gpu/logs/log_20240531-14_25/model_epoch_2.bin (torch, 180126 bytes, 16 tensors)

conv1.weight f4 [10, 1, 5, 5]
00000000: 792e 0cbd cc0c 78be 13da 97bd c8e5 8bbe
00000010: 9360 e9bd 7b71 e9bd 21e4 81bd 1e37 4abe
00000020: 7e8b 79bd dd9d a4bd aad7 0d3d d6f5 1dbd
00000030: c601 36be 0cbd 99be 8dac 27be bdd6 85be
00000040: 3891 b5bd edf4 373d 06a7 53be f50c 5ebd
00000050: 9eb3 38bd 6162 37bd 6b03 45be e83a 0cbe
00000060: 3d65 90bd 58f1 1c3d 9093 993d 4f33 85bc
00000070: 0503 c43c 9d57 933e 3e2e 8dbd f04c 21bd
00000080: 57a7 c63d e8aa 04bd 97a8 bc3d 5b2f 81bd
00000090: 7bca a53d e202 a4bd 70cd 8dbb bcd2 053e
000000a0: fab7 59be de86 b1bd 280f 033d d408 fcbd
000000b0: 6b1a 15be bf7c b3bd 9ff4 42be 7363 82be
000000c0: 5799 19be 51b1 42bc 6fc6 96ba b55c fabd
000000d0: 329f 08be 4e52 5cbe 2a56 ddba aad6 80be
000000e0: 569f b33c b5af 28be 27f3 be3d 60df 07be
000000f0: 52af b43c 7115 c4bd 8dfd 1ebe 734c 70be
00000100: c089 0ebe 9e7b 3ebe 2282 163b dfa3 8abe
00000110: 3dde e43b 71de 5ebe d828 78be ac17 1c3d
00000120: 4d69 33b9 f0e9 13be 0b03 a8bc 0f5e 31be
00000130: 36b7 8c3d fb15 8fbe e628 7dbe 1979 9bbe
00000140: 0d57 05bd fd21 73be 204f 9fbc 3ec1 c8be
00000150: 4d26 1cbe 98dc b0bd 98b1 43be ad76 bebd
00000160: 738c 6bbe 2226 4cbe d260 82be 6bc9 ebbd
00000170: 4417 99be 7ae2 88be 4b69 33be 1a04 43be
00000180: 0b74 3fbe 3b4b 1dbe a41a b6be 896f b1be
00000190: 4287 a3bd a0cf d53d 2e28 3fbd b65f a23c
000001a0: f0c2 a03d 4c9f 93be d9c9 46bd e681 49be
000001b0: b47f 40be 2e45 1abd b6f2 03bd c6b8 8cbd
000001c0: 8caa e4bc 7e9f dcbd 7877 73be 8def 6dbc
000001d0: 2216 49be 4f0a dcbc fb48 94bd 4207 92be
000001e0: 38ca 023e b847 b33d c8cf aebd a3d1 503e
000001f0: 19ac 24bd dd05 91bd 96ce 4bbe 3bd2 98bd
00000200: a518 73bc 521b 1bbe b8ee f6bd 020b 223e
00000210: 8c22 16be 4211 213d a9d2 47be 4e3e 44be
00000220: 7005 fa3c c3e5 3abe bb61 0c3d 1f12 16be
00000230: 4664 f2bd 9fdb f3bd 0627 39be 9e04 ac3d
00000240: bb6f e2bc 501f 45ba 624d 98bc 1931 a2bc
00000250: 225d 7abe e3ca 9dbd b7ab 3dbe 35da 97bc
00000260: a223 123c b071 b5bc 2e37 a0bd 59e0 d6bd
00000270: 218e c43d 9bad 56be d620 4abe c62c 5dbd
00000280: 0723 1fbc 3ddb 52be ed0b 05bc f8b6 373d
00000290: 18b5 133e 1581 4dbe 43fe 21be be2d 063e
000002a0: d117 2dbe 2d70 12be 008c 22bc 71cf 73bd
000002b0: 4d40 04be 0817 0abe 52e1 14bc 0811 57be
000002c0: dae2 05be 3955 3cbe f974 6cbd e0bb 9bbe
000002d0: 3ff0 a0bd f475 6bbe b30d bcbe 9e03 79be
000002e0: e84b 95be 302a bcbe c751 dabd 4244 04be
000002f0: ba78 68be ac14 08be 25e3 66bd edb4 debe
00000300: 3e94 39be cb37 4fbe 96e7 18be 3b1c 91be
00000310: 3849 03be 42d9 49be ebf2 75be cad2 4bbe
00000320: 481e 51be 28be 0cbe 0be0 43be ef6b d8be
00000330: e320 82be 16d4 1bbe 93f0 29be 6ca3 d4be
00000340: dd89 aebe 0101 84be ff2d c4bd ab0d fabd
00000350: 0d00 edbd c624 31be 3ea6 84be 1294 52be
00000360: e725 42be 1895 9e3c f93e 47be d8d8 1ebe
00000370: bfea c2bd 94f3 08be fe56 93be 9412 d8bd
00000380: 65d3 64be 3d00 e0bd 6762 96bd b515 c8bd
00000390: f2ec d5bd 1641 0bbe 209b 953d 3a3d 3dbe
000003a0: 233c a1bd 3589 c0bd 3107 09bd cc90 003e
000003b0: cc97 cdbb edd0 d4bd d4d0 5bbe 44de 57bd
000003c0: c611 113e 19e2 09bc 5ba5 b2bd 9eeb acbd
000003d0: e4a1 8c3d 2e0a 813e 7b3b d4bd ad2a 07be
000003e0: f2a6 ffbd 8844 5cbc
-0.034224007 -0.24223632 -0.07414641 -0.27323747 -0.11395373 -0.11398598 -0.0634234 -0.19747588
-0.060924046 -0.080379225 0.0346295 -0.038564526 -0.17774114 -0.30027044 -0.16374417 -0.26140395
-0.08865589 0.044911314 -0.20669183 -0.054211576 -0.04509317 -0.044771556 -0.19239585 -0.13694346
-0.0705056 0.0383161 0.074988484 -0.016259817 0.023927221 0.2877778 -0.068935856 -0.039380014
0.09699886 -0.03238955 0.092118435 -0.063078605 0.08095261 -0.08008362 -0.0043274686 0.1306867
-0.21261588 -0.08668302 0.031996876 -0.12306371 -0.14560859 -0.08764028 -0.19038628 -0.254665
-0.14999901 -0.011883096 -0.001150323 -0.12224714 -0.13341978 -0.21515772 -0.0016886641 -0.25163776
0.021926563 -0.16473277 0.093237214 -0.13268805 0.022056255 -0.09574402 -0.1552641 -0.23466663
-0.13919735 -0.18601844 0.0022965749 -0.2707815 0.0069845007 -0.21764542 -0.2423433 0.038108513
-0.00017109998 -0.14444709 -0.020509264 -0.17321037 0.06870882 -0.27946457 -0.24722633 -0.30365828
-0.03255372 -0.23743434 -0.01944691 -0.39209932 -0.15248986 -0.08635825 -0.19110715 -0.09299979
-0.23002796 -0.19936422 -0.25464493 -0.11513027 -0.29900563 -0.26735288 -0.17520635 -0.19044533
-0.1869661 -0.1536073 -0.355672 -0.34655407 -0.07984783 0.10439992 -0.046669178 0.01982103
0.078496814 -0.2883247 -0.04853234 -0.19678459 -0.18798715 -0.03766363 -0.03221389 -0.0687118
-0.027913354 -0.10772608 -0.23776042 -0.014522445 -0.19637349 -0.026860384 -0.072404824 -0.28521162
0.12772453 0.08753914 -0.08535725 0.2039247 -0.040203188 -0.070811965 -0.19903025 -0.07461973
-0.014837419 -0.1514714 -0.12057251 0.15824512 -0.14661616 0.0393231 -0.19513954 -0.19164392
0.03052017 -0.1825171 0.03427289 -0.1465535 -0.11835532 -0.11907124 -0.18081293 0.08399318
-0.027641168 -0.00075196195 -0.018591587 -0.019798802 -0.2444959 -0.07704713 -0.18522535 -0.018536666
0.008919628 -0.022148937 -0.07823025 -0.1049201 0.095974214 -0.20964663 -0.19739088 -0.053997777
-0.009712941 -0.20591445 -0.008120519 0.044852227 0.1442455 -0.20068772 -0.1581965 0.13103387
-0.16903616 -0.14300604 -0.009921074 -0.059524003 -0.12915154 -0.13485348 -0.009086924 -0.2100259
-0.13074818 -0.18391885 -0.05772874 -0.30416775 -0.07858323 -0.22994214 -0.36729202 -0.24317786
-0.29159474 -0.36750937 -0.10660129 -0.12916663 -0.22702304 -0.13289136 -0.056368966 -0.4349741
-0.18122956 -0.20236127 -0.14932093 -0.2834185 -0.128209 -0.19711784 -0.24018447 -0.19904628
-0.20421708 -0.13744414 -0.19128434 -0.42269847 -0.25415716 -0.15217623 -0.16595678 -0.4153093
-0.34089556 -0.25782016 -0.095790856 -0.12209638 -0.11572275 -0.17299184 -0.25908083 -0.20564297
-0.18959771 0.019358203 -0.19457616 -0.15512407 -0.095174305 -0.13374168 -0.28777307 -0.105504185
-0.22346266 -0.109375454 -0.073429875 -0.09769765 -0.10445584 -0.13599047 0.07304978 -0.18480387
-0.07872798 -0.0940117 -0.033454124 0.12555236 -0.006274199 -0.10391412 -0.2146638 -0.052702203
0.14166936 -0.008415722 -0.08722945 -0.08443378 0.06866816 0.2520308 -0.103629075 -0.13199873
-0.12483014 -0.0134440735

conv1.bias f4 [10]
00000000: 952c 4a3e 534d 2b3e 598e cfbd 2275 72bd
00000010: 1afc f03c 91c8 ebba cc1f ae3d bf41 fb3d
00000020: 8361 9b3d a151 3d3c
0.19743569 0.16728716 -0.101345725 -0.059193738 0.029417086 -0.0017988851 0.085021585 0.122683994
0.07586958 0.011555106

conv2.weight f4 [20, 10, 5, 5]
00000000: 8921 83bc 51c9 b7bc f569 1dbc 05b8 3dbd
00000010: f761 3bbd d110 303d 9257 85bd ba9a 13bd
00000020: 8594 27bd c31e d63c 38b2 67bd 0fe6 65bc
00000030: efc1 ac3c 10ca 83bd 4dab 8c3c f79c e0bc
00000040: 0d2a 7ebd 01bc 8b3c c7bf 0b3c d592 b8bb
00000050: b45c 873c 34ba 85bd ff6f 70bd 5629 2abd
00000060: 3c0d d63c 70a1 b4bc e991 13bd f3e9 7dbc
00000070: e5cf 08bd 114a 393e 35e8 b0bd 3ef5 edbc
00000080: 4b78 0bbd 801c 223d 0764 a93d d235 f1bd
00000090: c540 083c 37fc 943d d47d 0e3e a3fc 893c
000000a0: 9919 13be 1c45 a1bb 4953 a13d 1f8d 7cbd
000000b0: c8e4 00be f2d4 9cbd edd5 9abd 849f bebd
000000c0: 439a 0fbe a58e f9bc 2d92 4bbd 7646 0f3d
000000d0: 7e6f 26bc 717e edbc 7a12 1a3c 9bc1 78bd
000000e0: e4b2 cfbb c4b5 5bbd 0a77 34bd 6cd4 4b3c
000000f0: f508 56bd 1ad2 1b3c 3038 4ebd 4bf9 d0bc
00000100: cc86 25bd 5d21 16bd 4b10 9e3c d652 0c3d
00000110: cad3 2dbc a09b 9dbd 5e8a 64bc a444 75bd
00000120: a108 44bd bf2e 82bd 8ed5 6cbd 984a c93c
00000130: 357e 3c3c f011 2c3d 313a 36bc d9fa c73a
00000140: e54a 63bd 326c 87bb 6009 53bd 418e b8bc
00000150: d582 a8bc b764 183d b3d0 96bc c4e6 973c
00000160: fda9 9abd c7a2 35bd 8af1 48bd 50e8 ad3c
00000170: 2106 51bd 827a 2a3d b4dc 7abd 9800 0dbd
00000180: cddf d5bc 0e5f a03c 1861 82bd 3492 f7bc
00000190: 33a1 063d 3d6c 04bd 4613 98bc f23f 24bc
000001a0: bc22 94bd c40b 80bd 6496 49bd 03da 65bd
000001b0: 9d5c 9339 1f2b 02bd 1b02 bbbd f3a3 0bbd
000001c0: ff2e 6abc 59a7 883d bab3 203a 0a9f 06be
000001d0: 8b94 1bbd 3839 9eba 4ef9 bb3c 5553 c83d
000001e0: 0d71 d6bd 6d51 52bd d19f 8dbc 2daf 76bd
000001f0: a356 ee3d 4869 643d 1b5a a83a 2f77 65bc
00000200: 83b6 0bbd 0844 263b 6391 c3ba 0a9d 3d3d
00000210: 17f0 333c 6456 e5bc abf8 4a3d 4e02 e53c
00000220: 9955 3dbd ae9e 83bd 040b 21bd 3ad0 febc
00000230: 46ab 3cbd 49c6 373d c6f7 e23c 7b56 17bd
00000240: ef62 eabc c05d 1f3d 34c8 7dbc 13c0 663d
00000250: 1989 0d3d 5ff6 6bbd cd0d 723b f526 4f3a
00000260: c0ff fdbc 983b 603c 10ce 81bd 4702 fd3b
00000270: ba23 4bbd 8872 3b3d 9eb3 81bd 76f7 21bc
00000280: 26f5 6fbc 83c1 563d 9baa 7bbd d269 27bd
00000290: fde7 483d a3b8 08bc 5f54 58bd 595e 0dbc
000002a0: 9aed 71bc 4a44 023d 8f92 a3bc f138 61bd
000002b0: 5bb2 c7bc 6c0b 6f3d a7fa 583d 5209 7eb9
000002c0: 3701 893c bf1c 3d3c 2477 96bc 3669 023d
000002d0: aab9 82bd 3114 283b 1e13 95bb 2904 49bd
000002e0: f8f2 b9bc a283 b7bc 0e99 eebc fd1a a2bc
000002f0: ac88 b23c 4801 b93c 79b3 fbba 5bb4 2bbd
00000300: c570 80bc 505d 94bd 7c1d 8fbd d01f 0f3d
00000310: 3fcc f33c 0f8e 4cbd f717 24bc 844c a73c
00000320: 827a 47bc 3eef c83c c33b bbbc 3b1b 69bd
00000330: 5874 6f3c f234 48bd cbe9 d0bc c995 0cbc
00000340: c0fd fdbc e534 04bd 3696 5fbc 38a5 cdbc
00000350: f556 fc3b 23b0 b1bd e7c3 e0bd 159b 013d
00000360: 5125 88bd 36fd 84bd 1d58 11bd 42e2 7b3a
00000370: a7ad 983b f00d e53c 9010 843c 626c 94bc
00000380: e6d3 9dbd c14e d43c c524 79bd f982 0e3d
00000390: 4e45 833c 9c61 333d 2454 a3bc 23fa 29be
000003a0: 0ec8 37bd d9e3 04bd e502 e23c 57c7 6fbd
000003b0: 62a3 47bc 7591 cf3b adc9 4dbd 063e f8bc
000003c0: bf02 06bd 1284 8b3d 40b0 933d 80a7 28bd
000003d0: 0faa 81bd d66f 843c 357c 8e3d 093b 013e
000003e0: 0c99 66bd 2b89 3fbd 6c75 10be 6ff6 85bd
000003f0: 5871 28be d136 3abe a56f c1bd ca5e 1fbe
-0.016007202 -0.022434862 -0.009607782 -0.046318073 -0.045747723 0.042984787 -0.06510843 -0.03603623
-0.040913124 0.026137715 -0.056566447 -0.014031901 0.021088568 -0.06435025 0.017171526 -0.027418597
-0.06205182 0.01705742 0.00852961 -0.005632738 0.016523696 -0.06529656 -0.058700558 -0.041543327
0.026129358 -0.022049636 -0.036027823 -0.015497672 -0.03340139 0.1809466 -0.0863804 -0.029047605
-0.034050267 0.03957796 0.08271032 -0.117778435 0.0083162235 0.07274669 0.13915187 0.0168441
-0.14365233 -0.0049215686 0.078772135 -0.06165802 -0.12587273 -0.076578036 -0.07560334 -0.09307769
-0.1402369 -0.030463526 -0.04969995 0.034979306 -0.010158418 -0.028990956 0.009403819 -0.06073151
-0.006338464 -0.053640142 -0.044058837 0.012440782 -0.052254636 0.009510541 -0.050346553 -0.025509497
-0.040411755 -0.03665291 0.019294878 0.034258686 -0.0106095765 -0.07695699 -0.013949005 -0.059879914
-0.04785979 -0.06356572 -0.05782085 0.024571702 0.0115046995 0.042009294 -0.011122272 0.0015257254
-0.055491347 -0.004132771 -0.051522613 -0.02252877 -0.020570198 0.037205424 -0.018410062 0.018542655
-0.07551954 -0.04434469 -0.049058475 0.02122894 -0.051031236 0.04162074 -0.061245635 -0.034424394
-0.026107693 0.019576576 -0.063661754 -0.030221082 0.032868575 -0.032329787 -0.018563878 -0.010025011
-0.072331876 -0.06252244 -0.04921569 -0.056116115 0.00028107027 -0.031779405 -0.09131261 -0.0340919
-0.014293431 0.06672544 0.0006130297 -0.13146606 -0.03798346 -0.0012071496 0.022946026 0.09781519
-0.104707815 -0.051347185 -0.01728812 -0.060225654 0.116376184 0.055764467 0.0012844236 -0.014005466
-0.034109604 0.002537014 -0.0014920648 0.046292342 0.010982535 -0.027995296 0.049553555 0.0279552
-0.04622421 -0.0642675 -0.039317146 -0.03110515 -0.046061777 0.044866834 0.027706038 -0.03694771
-0.028611628 0.038907766 -0.015489627 0.05633552 0.034554575 -0.057608005 0.0036934495 0.00079022284
-0.03100574 0.013686083 -0.063381314 0.0077212187 -0.04959462 0.045763522 -0.063330874 -0.009885659
-0.01464585 0.05243064 -0.061442 -0.040872402 0.049049366 -0.008344802 -0.052814838 -0.008628451
-0.014766121 0.031803407 -0.019967346 -0.054985944 -0.024377039 0.058360502 0.052973416 -0.000242268
0.016724212 0.011542498 -0.018367358 0.03183862 -0.06383069 0.00256468 -0.004549398 -0.049076233
-0.022698864 -0.022401635 -0.029125717 -0.01978826 0.021793686 0.022583619 -0.0019203267 -0.041920047
-0.015678773 -0.072443604 -0.069880456 0.03494245 0.029760478 -0.049940165 -0.010015479 0.020422228
-0.012175204 0.024528142 -0.022855645 -0.056910735 0.014615141 -0.048878618 -0.025502106 -0.008580633
-0.031004786 -0.032277007 -0.013646653 -0.025103197 0.007700796 -0.086761735 -0.109748654 0.03164204
-0.066477425 -0.06493609 -0.035484422 0.0009608605 0.004659373 0.027960747 0.016121179 -0.018118087
-0.07706432 0.025916459 -0.06082608 0.034792874 0.016024258 0.04379426 -0.019937582 -0.16599326
-0.04486852 -0.032443855 0.02758927 -0.058539715 -0.01218495 0.0063344785 -0.05024116 -0.030303013
-0.032717463 0.068123 0.072113514 -0.041175365 -0.06331264 0.016166609 0.06957284 0.12620176
-0.0562983 -0.046761673 -0.14107293 -0.06541144 -0.16449487 -0.18184973 -0.09445123 -0.15563503

conv2.bias f4 [20]
00000000: 81e0 22bc 514b 463c 553f 943b 743e 9bbd
00000010: a04b 57bd 46df 583d d3d5 1abd 0315 c3bb
00000020: 9979 9ebc 293f a9bd e656 d33b de75 dcbc
00000030: 3697 e5bb e449 4ebc 75f7 213b 9fcd 0a3d
00000040: e9f1 5f3a 9ecc 80bd 162d 5dbd 7aef 3d3c
-0.009941221 0.012102918 0.0045241513 -0.07580271 -0.052562356 0.052947305 -0.037801575 -0.0059534325
-0.019345092 -0.08264 0.006449568 -0.026911672 -0.007006551 -0.012590859 0.0024714146 0.0338875
0.00085428223 -0.06289028 -0.053998075 0.01159274

fc1.weight f4 [50, 320]
00000000: e274 663d 5e93 61bc afe5 33bd f9df 0cbd
00000010: d912 7c3c 482a f0bc 3a6a e9ba d6a6 81bb
00000020: 6546 02bd 8ded 34bd b775 0ebc 1052 55bd
00000030: 94ab b0bc 3779 1bbd 8ad8 d73b 5206 11bd
00000040: 81ea ab3c 6d55 8ebc d4d8 5abd 1dac 13bd
00000050: 543c 543d d4ee f13c b32d f5bc df04 37bb
00000060: d49f c93c 4354 303d 2c30 36bb 996d c13c
00000070: 8156 073d 8704 383b d0ca 21bd 5f59 53bd
00000080: ff2e f3bb ca36 06bd 5ea4 40bd 4700 2abc
00000090: 8773 6bbd 1a35 e7bb b6fa ef3c 0df8 523c
000000a0: 20bf dcbc fbbb 59bd 894b 4bbb a485 433c
000000b0: c528 84bd 7375 9c3c 42d8 2dbd 79f8 8ebc
000000c0: 75de 2dbd 80e8 6bbd 4d64 123c 6762 1bbd
000000d0: fc3a 943d 7e86 6d3d 38d1 4a3d d665 0ebd
000000e0: ca3e 8ebc 4473 913c 4663 dfbc bfbc 953c
000000f0: 5ed5 353d 6f83 67bc f7c1 9e3c 0b3b f537
00000100: d2e1 963d 1c11 6c3d afed 9bbb 1d8f b7bc
00000110: 1a2a 54bd 8a79 c2bc d20f 21bd 2940 29bd
00000120: fd86 63bd 9349 44bd 4340 e93c 0cd5 f63d
00000130: 05d0 e6bc 8212 35bd 3419 6c3b a0c3 af3d
00000140: 0a59 863b a027 0fbd fcb1 293d 2b91 e33c
00000150: cc02 0cbd 9f7e 57bd 6112 383d af5d cabc
00000160: dddd f0bb 473d e33b 938d d8bc 5e93 60bc
00000170: 714f 5f3c 29c9 873c 58ac 5dbc fa83 0e3d
00000180: 6158 bd3c b305 0f3b 1402 60bd b002 bfba
00000190: 24fd 543d fb74 68bc 2c8d 2bbc 00d5 12bd
000001a0: 95d6 36bd 5717 3a3c 45a6 36bd 8ed7 1a3d
000001b0: 8c7b 3e3d 82fe c13c 91c7 e4bc fc18 68bd
000001c0: ace7 35bb edc4 ee3c 362d 9ebc cbbc 04bb
000001d0: 95a2 29bd 02f7 04bd 3fe8 efbc fcb0 d5bc
000001e0: fd76 133d 160f 9d3d 6fa0 8f3c 342c 9abc
000001f0: 21da 0d3d 0a3f 8dbc ee62 123d 0699 843c
00000200: 1048 99bc b858 c3bc b445 17bd 4007 27bc
00000210: 7f36 213c ee7f 9abc 6775 6d3d 59bc 87bc
00000220: f4b0 373d c186 aabc 9b1e fdbb 26b6 42bd
00000230: e180 37bd 9cd1 ecbc be9a b5bb b5ac 91bb
00000240: 6b09 8a3b 0722 88bc 2051 15ba 210f f5bb
00000250: b477 a43d fb6e 573c 11bd f53c 4537 65bd
00000260: 50ac 4d3d fb2b 46bd 52e0 633c 2053 873c
00000270: 8c8d 89bd 1637 1abd 2f7b 243c 40de 1e3d
00000280: 474f 3e3c e309 05bd d170 23bd 81f8 473d
00000290: ebfa 16bc fd12 e93a 1d42 bdbb 0b65 14bd
000002a0: 91cb 24bd 7807 cabc 74fa 44bd b8af 0bbd
000002b0: 16e3 55bd ebdb 77bc e20a 4fbd 5c58 e23c
000002c0: 8db7 44bd ae08 f5bc 1c5a 753d a651 3dbd
000002d0: 0f09 b8bc 71b8 f8bb cb9c efbc d916 fabc
000002e0: 3c5d 7e3d 2123 673d 5ab9 47bd cbfa 20bd
000002f0: db2f a5b9 3bc4 90bc 0854 34bd 659e 24bd
00000300: a621 cabc 6e67 20bd 22b3 90bc bf5a 0abd
00000310: dc15 ffbc 4b78 f13c da2e 56bc 4897 3fbc
00000320: e815 223d b5cf 22bd 3d6c 683d 7496 27bc
00000330: d251 58bd 3bb7 bb3c 253b 6e3c 183e 8ebc
00000340: eb7c 38bc 1d58 01bd 157d c33b 7f3f 113d
00000350: 55d7 1b3c 3df2 8ebc dfe5 1e3d 9439 c93c
00000360: ad9f 423d 6583 d1bc 066a 76bd 4a84 c9bc
00000370: ba3b aa3c 18fa 14bd 84af b1bc c8b1 39bd
00000380: 1c1e 033d cb93 50bc de9b e43d 0b7e 9c3d
00000390: 96da 8dbd 3c98 b5bc fbda 99bc 57da 723d
000003a0: fca1 48bb 2de4 4fbc 3901 a7bd fa69 58bd
000003b0: e6bd d53c 1329 36bd 2eca 2ebc e6b7 de3b
000003c0: 1479 92bc 476b 59bd 391b 5b3c f48d 3d3d
000003d0: 9751 abbc 5e22 e5bc f5d2 24bd 6ed6 bebb
000003e0: c9aa 1e3d 7b10 07bd 3c5a ab3c 6efa 8ebb
000003f0: 762f 3dbd a6a1 48bd f059 cb3c 02a1 1a3d
0.056263812 -0.013768045 -0.043920215 -0.034393284 0.015385353 -0.029317036 -0.0017808147 -0.003956656
-0.031805415 -0.04417186 -0.008695058 -0.052080214 -0.02156619 -0.037957396 0.0065870928 -0.03540642
0.020985844 -0.017374719 -0.05342944 -0.036052812 0.051815346 0.029532827 -0.029929018 -0.0027926487
0.024612345 0.04304911 -0.0027799709 0.02361183 0.03304148 0.002807887 -0.039500058 -0.051598903
-0.007421374 -0.032767095 -0.047031753 -0.010376043 -0.057483222 -0.0070558907 0.029294353 0.012876523
-0.026946604 -0.053157788 -0.0031020364 0.011933718 -0.06453089 0.019098973 -0.042442568 -0.017452465
-0.04244848 -0.057594776 0.008935046 -0.03793564 0.07237813 0.05798959 0.049515933 -0.034765087
-0.017363925 0.017755158 -0.027269017 0.018278478 0.044392936 -0.014130457 0.019379599 2.923377e-05
0.073672906 0.057633504 -0.0047585587 -0.022407109 -0.051797964 -0.023739595 -0.039321728 -0.041320954
-0.055548657 -0.04792173 0.028473025 0.12052354 -0.028175363 -0.044207104 0.0036025764 0.085822344
0.0040999698 -0.0349499 0.041429505 0.027779182 -0.034182355 -0.05261099 0.044939402 -0.024702875
-0.007350667 0.006934795 -0.026434695 -0.01370701 0.01362978 0.016575413 -0.0135298595 0.03479383
0.023113431 0.0021823465 -0.05468948 -0.0014572944 0.051999226 -0.014188047 -0.01047067 -0.035847664
-0.044638235 0.011358104 -0.04459216 0.037803225 0.046504542 0.02368093 -0.027927192 -0.056664452
-0.0027756495 0.029146636 -0.019308668 -0.002025413 -0.041414816 -0.032462128 -0.029285548 -0.02608537
0.036002148 0.07668893 0.017532555 -0.018819906 0.034631852 -0.017241973 0.035738878 0.016186249
-0.01871112 -0.023846015 -0.03693171 -0.0101946 0.009839653 -0.01885983 0.05797329 -0.016569303
0.04484649 -0.020816209 -0.0077245957 -0.04753699 -0.044800643 -0.028908543 -0.0055421283 -0.004445637
0.0042125485 -0.016617788 -0.00056959875 -0.00747861 0.08030644 0.013149018 0.02999738 -0.055960912
0.050213158 -0.048381787 0.013908463 0.01651913 -0.06716451 -0.03765019 0.010039135 0.038786173
0.011615581 -0.03248013 -0.039902512 0.048820976 -0.009215097 0.0017782148 -0.0057757036 -0.036229175
-0.0402332 -0.024661765 -0.048090413 -0.034103125 -0.05221852 -0.015128116 -0.050547488 0.027630024
-0.04802661 -0.029911365 0.059900388 -0.046220444 -0.022465257 -0.0075903465 -0.02924957 -0.030528473
0.062100634 0.056429986 -0.04876075 -0.039301675 -0.00031506908 -0.017671695 -0.04402545 -0.04019012
-0.024674248 -0.03916114 -0.017663542 -0.03377795 -0.031138353 0.029476305 -0.013072694 -0.011693783
0.039571673 -0.039748866 0.05674385 -0.010228742 -0.052812405 0.02291452 0.014540468 -0.017363593
-0.0112602515 -0.031578172 0.0059658387 0.035460945 0.009511788 -0.017449493 0.03879344 0.024563588
0.04751556 -0.02557535 -0.060159706 -0.024599213 0.020780433 -0.03637132 -0.021690138 -0.04533556
0.032011136 -0.012730549 0.11162542 0.07641228 -0.069264576 -0.022167318 -0.018781176 0.059290256
-0.0030614128 -0.012688679 -0.0815453 -0.052835442 0.026091527 -0.044472765 -0.010668321 0.0067968247
-0.01788 -0.053080823 0.01337319 0.046277955 -0.020912929 -0.02797049 -0.040240247 -0.005823902
0.038737092 -0.0329747 0.02091705 -0.0043633496 -0.04618784 -0.048982285 0.024823159 0.037751205

fc1.bias f4 [50]
00000000: 485a 07bd e5e9 1a3c 8d70 383d e5e9 583d
00000010: 1c34 55bc c7d6 91bd a214 633d 6693 733d
00000020: a68f debc 0430 303c 19a4 513c 5042 343d
00000030: bff9 9bbb dc0e b6bc b3fd 0b3d ccd6 54bd
00000040: 0e68 0b3d 1b40 82bd 3cd9 9bbc 41d5 903c
00000050: 1e0a 203c 6eb2 ad3b 70c7 6fbd 270d 63bd
00000060: 2106 2a3d 3027 fabc c402 62bc b776 0bbc
00000070: 464e 36bc cc7c c4bc dd2b 7eb9 0dc7 40bd
00000080: 0c2a 3abd 528a 023d ccb2 8f3d 2b3f 58bd
00000090: 45f7 2c3c 2017 dd3b e1f2 32bd 47a7 8b3b
000000a0: 119c c63d b2fd 3d3d 3d4a 263d e623 ab3c
000000b0: 031d 78bb 2c39 de3c c3fa 33bd 0fd3 64bc
000000c0: 457e 033d e078 28bc
-0.033045083 0.009455179 0.04502921 0.052957434 -0.013012912 -0.07121044 0.0554396 0.059466742
-0.027168106 0.010753635 0.012795472 0.044008553 -0.0047599967 -0.022223882 0.034177493 -0.05196266
0.03403478 -0.063598834 -0.019024484 0.017679812 0.009768037 0.0053008115 -0.058539808 -0.055432465
0.04150975 -0.030536264 -0.013794605 -0.008512191 -0.01112706 -0.023985289 -0.00024239668 -0.04706483
-0.045450255 0.031870194 0.07016525 -0.052794617 0.0105570005 0.0067471415 -0.04368866 0.0042618844
0.09697736 0.04638452 0.040598143 0.020891141 -0.003785909 0.027126871 -0.043940317 -0.013966336
0.032102842 -0.010282725

fc2.weight f4 [10, 50]
00000000: 30c7 09bc 0ede 5d3c 22d3 e0bd e0ae 263e
00000010: dc36 4b3a 5255 883e dd97 283e 345e 2a3e
00000020: 4ab9 ba3d 421a a63d e475 53bb 956d 023e
00000030: 78d0 debc f466 793d c0aa 2fbe 3d57 a03d
00000040: ef2f 4bbd b7ab eebc 8737 cabd e7a3 75bd
00000050: 9fe0 2b3c 766a 30bd 7fbf 353e ff3d 5f3c
00000060: bbf0 ea3b c656 213d 1982 5ebe 1cc8 603c
00000070: 336b a7bc 01ad 043d b4f5 b13a 39a4 3f3d
00000080: c78d ccbd 6605 fbbd aeb2 423e 3133 8a3e
00000090: c23a 633c 83d9 823e 15d6 efbd 69ad 78bb
000000a0: b041 80bc b1bf febd aefb 19be 7cc3 553d
000000b0: c1ed b2bd 8299 2b3e 0863 37bd bbf9 d9bd
000000c0: 665d 09be 7330 5c3d 91e0 363d 9653 dabd
000000d0: 4296 f53c 5524 cb3b 1c93 653e b4aa 863e
000000e0: bd90 393e 1b1b 403e d204 c13c 8221 f5bc
000000f0: 3443 2e3e 5c2c 86bd c3cd b6bd 461c e5bc
00000100: 9348 a1bd e6ab de3d f9cf e03d a7ac 4b3d
00000110: 2815 3abd 4506 7e3e b823 b3bd 0ff2 8b3c
00000120: 81a6 263e 8479 883e 7e08 563d e33c cb3c
00000130: ff35 073c ee0f 1b3e aa25 10be 573d 6bbd
00000140: 0767 dcbd 6dd5 c93c 44b9 02bd 4e60 423d
00000150: 1e36 8b3e 673a 923e c795 0d3e c185 723b
00000160: e3c1 e13d 9333 8abd f7f3 cd3e 1c3f 95bc
00000170: 49de ccbc ad70 fdbd f31b 833e adc7 423d
00000180: d105 923d 8409 bbbd f7ec 26bd 82a4 443e
00000190: 2dd8 323e 5623 17be d90b 1bbe e240 e03c
000001a0: 302d ba3c 4863 4e3e 12a8 7f3c 5d2f 8ebd
000001b0: 20e1 123e 06b8 973d 2e3b 5f3d 9cf5 c4bc
000001c0: f54e d03d b0dc d0bd b31a b4b9 8fb4 b5b9
000001d0: e6dd 193e befd 87bd b110 efbd c1ec c13d
000001e0: 93d5 12bd d4c6 a3bd 8ef1 1b3d dc28 2abc
000001f0: b8da 2b3e b016 6a3b e926 2f3d 8018 013e
00000200: 2e5f 913d ef46 f83d f0eb 1a3d 70af ca3c
00000210: f529 28be 214f fa3d 50ae 9b3c cbe0 e43d
00000220: ef8c 3b3e 9b65 2a3d cb62 bcbd d5d7 9f3d
00000230: c12f 6bbd 2bae b5bd b35a 81bc 5172 f4bd
00000240: 3524 4d3d 5e05 3d3c c501 12bd 16c1 32bc
00000250: 3ef7 3cbd b598 753c 29b3 893d 0ff3 d93c
00000260: 64ab febd b245 ff3d 241c d8bc 7fdb 58be
00000270: a178 5fbe 6177 6dbd 4b55 5e3c 4fce b9bc
00000280: 946b 843e 5273 813d d034 a63d 254a 82bd
00000290: 8e16 6ebd 3afb e9bc 4dbe bb3d 618b 78bd
000002a0: bce3 5bbd ce86 9a3d ce88 f8bd 42f7 1e3e
000002b0: eff8 29bd b61f 93bd 335a e4bc 179b 103e
000002c0: 922a 693c 17f3 bd3c f89f d73c 26f3 2d3d
000002d0: b26f 073d b80b ad3d f0fe 22bb 9928 0a3e
000002e0: 3914 1abd 406d 8ebe a57a 0ebd 707f 1abb
000002f0: e175 c9bd 85b5 ec3d 700f 0abe c4df 9dbd
00000300: 38be f73c 5370 09be eefd 2dbe f88e 01bd
00000310: f6f6 8a3d 6b53 d13d c5d1 9fbb 796c 423e
00000320: c474 80bd 88f0 47bd 6f00 043d 5231 99bd
00000330: 426a 353e ed79 8e3e de47 f63c 415a eebc
00000340: b069 8e3d 7856 dabd f067 8cbd 5e0a 9abc
00000350: 5b13 4dbb bb37 2f3d 02ce 803e 31be d53c
00000360: d9e3 6d3d 8a3c 3b3d 75f9 733b 6172 523d
00000370: f7ef af3d 2e73 f7bd ba56 f23d a663 e43d
00000380: 0e47 1ebd 5164 cfbd 7ccc 34bc 551e 37bd
00000390: eccc e4bc f6e5 4dbd e0bb 463d 7ce3 1a3e
000003a0: abad 80bd d32f bb3d 05ca b2bd eb38 c83e
000003b0: 0700 a33e 2fc8 47bd 4fe6 733a 8e4b 2bbe
000003c0: ac60 2fbd e93c 143d 9b1e 173c 17f3 903d
000003d0: 3c10 a53d ead6 acbc ff91 c93d 1670 b93b
000003e0: deaf 053e c6d9 433c 6004 cdbc 384d 393e
000003f0: 17ad cc3d 8c60 96bc 83c4 95be 7bfc bcbf
-0.008409306 0.0135417115 -0.109777704 0.16277647 0.000775201 0.26627594 0.16464181 0.16637498
0.09117372 0.08110477 -0.0032266313 0.12737115 -0.027199015 0.0608892 -0.1715498 0.078291394
-0.04960626 -0.029134614 -0.09873872 -0.059970763 0.010490566 -0.04307028 0.17748831 0.013625621
0.0071698106 0.039389394 -0.21729316 0.013719585 -0.020436859 0.032391552 0.0013577254 0.046787474
-0.099879794 -0.12256889 0.19013473 0.2699218 0.013868989 0.25556573 -0.11710755 -0.0037945157
-0.015656322 -0.12438906 -0.15037414 0.05218838 -0.08736754 0.16757777 -0.044772178 -0.106433354
-0.13414535 0.053757142 0.044647757 -0.10660474 0.029978875 0.0061993995 0.22419399 0.2630211
0.1812162 0.1876034 0.023561869 -0.029923204 0.17017823 -0.0655143 -0.08925965 -0.027967583
-0.078751706 0.10872631 0.10977168 0.0497252 -0.045430332 0.24807079 -0.08747047 0.017083196
0.16274454 0.2665521 0.052254193 0.024809306 0.00825262 0.15142795 -0.14076868 -0.057431545
-0.107618384 0.024637902 -0.031914964 0.047455125 0.27189726 0.28560182 0.13826667 0.0037005993
0.11023309 -0.06748118 0.40225193 -0.01821857 -0.025008338 -0.12375007 0.2560726 0.047553707
0.07130016 -0.09132674 -0.04075333 0.1920338 0.17465277 -0.14759573 -0.15141238 0.027374689
0.022726625 0.2015506 0.015604036 -0.069426276 0.14343691 0.074081466 0.054499798 -0.024042897
0.1017131 -0.10198343 -0.00034352168 -0.00034657537 0.15026054 -0.06640194 -0.116731055 0.09468985
-0.03584821 -0.07996908 0.03807216 -0.010385718 0.16782653 0.003571909 0.042761717 0.12607002
0.07098232 0.121229045 0.037822664 0.024741858 -0.16422255 0.12222124 0.019004017 0.11175688
0.1831548 0.041600805 -0.09198531 0.078048386 -0.05741859 -0.088711105 -0.01579032 -0.119358666
0.050083358 0.011536924 -0.03564622 -0.010910293 -0.046134226 0.0149900215 0.06723625 0.026605157
-0.12435034 0.12464465 -0.026380606 -0.21177481 -0.2182336 -0.057975177 0.01357014 -0.022681383
0.25863326 0.06320824 0.08115542 -0.06361798 -0.05812698 -0.028562177 0.09167156 -0.060679797
-0.05368398 0.07545243 -0.121354684 0.15524009 -0.041497167 -0.07183783 -0.027875042 0.14121662
0.014231341 0.023187203 0.026321396 0.042468213 0.033065505 0.08449501 -0.0024871193 0.1349205
-0.037616942 -0.27817726 -0.03478493 -0.0023574494 -0.09836937 0.115580596 -0.13482451 -0.077086955
0.03024207 -0.13421755 -0.16991398 -0.031630486 0.06785385 0.10220989 -0.0048773014 0.18986692
-0.06272271 -0.048813373 0.032226976 -0.0748011 0.17716315 0.27827397 0.030063566 -0.02909577
0.06953752 -0.10661024 -0.06855762 -0.018803772 -0.0031292054 0.042777758 0.2515717 0.026091667
0.05807862 0.04571203 0.0037227545 0.05137861 0.085906915 -0.12082516 0.11832948 0.11151819
-0.03864198 -0.10126556 -0.011035081 -0.04470666 -0.027929746 -0.050268136 0.048519015 0.15125841
-0.062831245 0.09139981 -0.087299384 0.39105925 0.31835958 -0.048774894 0.0009304033 -0.1672804
-0.042816803 0.0361909 0.0092236055 0.07077616 0.08059737 -0.021098573 0.098423 0.0056591136
0.1305537 0.011953777 -0.0250265 0.18095863 0.09993952 -0.018356584 -0.2925149 -1.4764551

fc2.bias f4 [10]
00000000: 5744 0a3e 184b 243e 815b 21bd 1c11 33bd
00000010: d5f6 11bc aafe 083e 08e8 47bd 0bec 77bd
00000020: 23e3 dabd 67e8 223d
0.13502632 0.16044271 -0.039393906 -0.04371749 -0.008908947 0.13378397 -0.048805267 -0.060527842
-0.10687854 0.039772417

momentum_buffer f4 [10, 1, 5, 5]
00000000: 7a0e d238 0e07 a207 b079 b080 0000 0000
00000010: 4c00 c533 e05e f1b9 5e88 af28 0000 0000
00000020: 0000 0000 4aed 24a8 7a9e 10bb 4beb 112f
00000030: 1b65 0430 0000 0000 0000 0000 4c90 60b8
00000040: 1a93 03ae 5798 ffba ad48 281f 597e a12b
00000050: 93fa 02b6 1162 6232 39cd bcb4 caa5 601e
00000060: cfe2 3cb8 e9e1 093f 48ce 863f 3320 a23f
00000070: 82af f03f 83d7 ae3f cdb7 9d3f 4d73 cb3f
00000080: 4ed7 c13f 17d7 aa3f 0916 133f 0ebb 3f3f
00000090: 102f 333f 0c97 e43e 00b3 623d 5a27 51be
000000a0: 385f c93d 053b 983e f8db a7bc 937c 40be
000000b0: e724 153e a7ec 8f3e 0a5b f63d 549e c83d
000000c0: 4525 fc3d 8614 a13e 1c90 ecb7 afc9 fc36
000000d0: 4379 2ca7 a6cd 6eb6 ce2a 1136 39cb b4b5
000000e0: ec0a fdb7 6b8b 672d 93b1 40bb bd09 86ac
000000f0: 06cf 4539 fb0e 11b2 f855 02a8 4f33 25ae
00000100: 0cb2 aaa7 b2ea c9b3 fa71 223b 5f3e 8a35
00000110: 2565 113b a5ce a9a4 7927 2038 60d7 4339
00000120: 36e8 593a cd2c 2837 f52a 4138 a860 8b3a
00000130: aea2 ca3b 2bdf 01b7 d8d1 fa2b 9318 d929
00000140: 9d22 b337 f81e 7a2d dd71 691f 0000 0000
00000150: c1c1 8ea6 bd71 3734 0000 0000 0000 0000
00000160: 0000 0000 0000 0000 0000 0000 0000 0000
00000170: 0000 0000 0000 0000 0000 0000 d606 0080
00000180: 7655 0080 0000 0000 0000 0000 506d ea96
00000190: 2110 973e 7d76 e63e 48b2 ed3e 826a 043f
000001a0: 490e ac3e 1248 a23b 7ea0 8bbc c584 b3bc
000001b0: 5464 b9bc 2217 e73b ed03 d63b 59cb 81bc
000001c0: 585b 43bb 888d 08ba 8339 11bb eab5 6bbe
000001d0: cce0 30bd 36c4 d0bd 1c9c 273d 3828 fa3d
000001e0: e3a4 dfbe 38f9 54bd a860 52bd 1c07 babd
000001f0: 66b2 b93e 0d89 6a37 4765 11b7 67f1 f7b5
00000200: 3a7a f5b6 16ba a8a1 ee37 4eb9 a4a9 9f39
00000210: 335f f9b5 0197 53ba 75fd 29ac 3ad9 1eb9
00000220: a844 e8b9 3211 7c34 3ef6 e5b9 aef9 42b8
00000230: 1c72 8f38 2ad5 b5b1 edf1 4534 32f9 07bb
00000240: 66e2 5039 daa7 38ae db77 87ad 0947 8738
00000250: a24b 98b3 e4dd 9339 79e4 94b9 2ad3 d9bb
00000260: af3e 663b 8915 3a38 85db cb3b acc9 58bb
00000270: 2e3c fabb ba5f e0b5 7467 533a 8d39 3c3c
00000280: 9617 1fbb 6e8d 04b6 ed8c b339 b0ac 903b
00000290: 1fa7 633d e0eb bb37 9335 8ab8 4637 4f3b
000002a0: c3d9 4038 24a4 2a3d ee70 6639 fdc2 0539
000002b0: fa73 a736 814c a8b7 1e1b 093b 0000 0000
000002c0: 0000 0000 0000 0000 0000 0000 0000 0000
000002d0: 0000 0000 0000 0000 0000 0000 0000 0000
000002e0: 0000 0000 0000 0000 0000 0000 0000 0000
000002f0: 0000 0000 0000 0000 0000 0000 0000 0000
00000300: 0000 0000 0000 0000 0000 0000 0000 0000
00000310: 0000 0000 0000 0000 0000 0000 0000 0000
00000320: 0000 0000 0000 0000 0000 0000 0000 0000
00000330: 0000 0000 0000 0000 0000 0000 0000 0000
00000340: 0000 0000 0000 0000 0000 0000 0000 0000
00000350: b023 af30 0000 0000 0000 0000 0000 0000
00000360: 0000 0000 411e dc3b 0000 0000 0000 0000
00000370: 0000 0000 0000 0000 0000 0000 0000 0000
00000380: 0000 0000 1358 80be d089 4ebb 6a81 18be
00000390: 3f7c d0bc 008a daba 9ccc 37be 387a adbd
000003a0: 4eab e6bd ae81 d63b e088 693c 1f43 06bf
000003b0: 2d14 6bbe 002c 26bd 5ca1 4c3c c67d 593d
000003c0: ee0e 31bf 4f23 8abe 3c8f babd 6124 2e3c
000003d0: 764d 573d 8e1b 32bf 3d2f c7be 259d 93be
000003e0: 6d28 3fbe c6b5 23be
0.00010016277 2.4379197e-34 -1.62067e-38 0.0 9.1735814e-08 -0.0004603779 1.9488043e-14 0.0
0.0 -9.155283e-15 -0.0022067116 1.3271266e-10 4.8165e-10 0.0 0.0 -5.354015e-05
-2.9916604e-11 -0.0019500357 3.56355e-20 1.1474807e-12 -1.9517363e-06 1.3177229e-08 -3.5167048e-07 1.1892746e-20
-4.5033925e-05 0.53860337 1.0531702 1.2666076 1.8803561 1.3659519 1.2321717 1.5894562
1.5143831 1.334689 0.574555 0.748948 0.69993687 0.4464649 0.05534649 -0.20425168
0.09832615 0.29732528 -0.020490631 -0.18797521 0.14564858 0.2811024 0.12029083 0.09795824
0.12311796 0.3146097 -2.8200498e-05 7.5336643e-06 -2.3935531e-15 -3.5584467e-06 2.16316e-06 -1.3470191e-06
-3.0165036e-05 1.3161787e-11 -0.0029402717 -3.8095902e-12 0.00018864506 -8.443517e-09 -7.235091e-15 -3.7562228e-11
-4.7377517e-15 -9.402483e-08 0.0024787174 1.0299954e-06 0.002218553 -7.3642136e-17 3.8183734e-05 0.00018676883
0.0008312495 1.0024011e-05 4.6054793e-05 0.0010633664 0.0061839437 -7.7409595e-06 1.7821812e-12 9.640999e-14
2.135458e-05 1.4217731e-11 4.9433855e-20 0.0 -9.905746e-16 1.7084581e-07 0.0 0.0
0.0 0.0 0.0 0.0 0.0 0.0 0.0 -2.452e-42
-3.0658e-41 0.0 0.0 -3.7873725e-25 0.29504493 0.45012274 0.4642508 0.5172502
0.3360465 0.004952439 -0.017044302 -0.021913895 -0.022630848 0.007052318 0.0065312297 -0.015844034
-0.0029809084 -0.0005209078 -0.0022159524 -0.23018613 -0.043183133 -0.10193674 0.040920362 0.12214702
-0.43680486 -0.051995486 -0.05136171 -0.09083387 0.3626892 1.39793965e-05 -8.666254e-06 -1.8473191e-06
-7.315798e-06 -1.1433379e-18 -0.00019666526 0.00030453235 -1.8579652e-06 -0.00080715126 -2.4157041e-12 -0.00015148977
-0.0004430164 2.3475584e-07 -0.00043861748 -4.6485737e-05 6.840026e-05 -5.2920273e-09 1.8435067e-07 -0.0020747897
0.00019920766 -4.198584e-11 -1.540095e-11 6.450533e-05 -7.091809e-08 0.00028203346 -0.00028398985 -0.006647487
0.0035132577 4.4365912e-05 0.006221237 -0.003307919 -0.0076365685 -1.6717161e-06 0.0008064427 0.011488331
-0.0024275533 -1.9751856e-06 0.00034246538 0.004415117 0.0555793 2.2401975e-05 -6.590332e-05 0.003161864
4.5979174e-05 0.041660443 0.00021976579 0.00012756507 4.9904893e-06 -2.0062786e-05 0.0020920704 0.0
0.0 0.0 0.0 0.0 0.0 0.0 0.0 0.0
0.0 0.0 0.0 0.0 0.0 0.0 0.0 0.0
0.0 0.0 0.0 0.0 0.0 0.0 0.0 0.0
0.0 0.0 0.0 0.0 0.0 0.0 0.0 0.0
0.0 0.0 0.0 0.0 1.2743069e-09 0.0 0.0 0.0
0.0 0.0067174737 0.0 0.0 0.0 0.0 0.0 0.0
0.0 -0.25067195 -0.0031515248 -0.14893118 -0.02544987 -0.0016673207 -0.17949146 -0.08470577
-0.112631425 0.0065462207 0.014253825 -0.5244617 -0.22956915 -0.040569305 0.012489643 0.053098463
-0.69163406 -0.26980063 -0.09109351 0.010628791 0.052564107 -0.69573295 -0.38903227 -0.2883083
-0.18667765 -0.1598731

momentum_buffer f4 [10]
00000000: ea7c 623a 4bd7 5abb 5cba 8938 8d86 b438
00000010: 2e89 87bc 2604 48b8 c843 19ba 4e4d b63b
00000020: 46f9 083c 27f0 83bb
0.00086398295 -0.0033392485 6.567381e-05 8.608131e-05 -0.016544905 -4.768758e-05 -0.0005846587 0.0055634147
0.008360213 -0.004026431

momentum_buffer f4 [20, 10, 5, 5]
00000000: 4611 f239 3017 8636 4db1 78b9 14f2 0039
00000010: fd45 d438 7d55 db39 a0ee 5337 f1ca 7db9
00000020: c7ea 8c38 5380 17b8 5526 2b3a 098b d539
00000030: aa3f f5b8 755b b1b9 3c1f dfb9 0115 803a
00000040: 388a 823a c4a3 003a 2d02 a938 7052 8db9
00000050: 4205 783a b815 423a 7e21 1c3a 1d80 b539
00000060: f871 9eb8 56a6 fc3b 9498 d639 3f3a 653d
00000070: 5755 debd 7047 b7bb de1c 0b3e e28d a33e
00000080: c81e 073f 9d56 ae3e 2b5f 413e 86dc 473e
00000090: bd98 f93e 9fdb 313f fbc8 0c3f f452 373e
000000a0: 5ab9 963d 06e5 3f3e 0537 513e b525 3e3e
000000b0: 5dca aa3d 27cd 8b3c d175 4e3d fecb 6f3d
000000c0: 5f68 da3d d0fa c93d 8fe3 dd37 478f 0cb2
000000d0: d200 0a31 5b00 cbb3 c65c b934 a126 8d38
000000e0: 7912 2533 d49f c6b1 1557 e0b5 e206 8e35
000000f0: 55e5 8433 f200 df34 a460 9b35 0f70 002f
00000100: 2224 2935 e787 f8b6 2e82 b335 c9a6 4f36
00000110: 7548 3c32 16b3 abb7 4d95 8a30 b39d fc33
00000120: d73c 9cb5 2529 6033 de59 05b5 2fea e0b4
00000130: abaa a9aa b9a5 aea3 c64b 3d15 3e4c bdb4
00000140: b5b1 35b5 2a47 8230 8d08 8baf fa83 cab0
00000150: 3c84 13b5 901e 7a29 dfe6 5328 0910 8735
00000160: c70a 5ea9 7f7b 82b6 a5ab 2a1a 29ba bdb0
00000170: 3a88 afb6 72d4 8f36 bd3d dfb4 1522 6b27
00000180: 1313 a4a9 125c 5fac 80d5 4e35 64dd f034
00000190: 34bd 05bb 4c05 d23a 2690 2bbb 62d1 22bb
000001a0: d55c ac3b 40f6 7ebc ff92 8dbc 8ef4 1f3c
000001b0: 7805 00bd 459d 9cba 19e8 26bb 5a95 09bd
000001c0: 78a4 433c 6dfa 723c 760f 83bc 4ba3 1a3d
000001d0: 11d5 603d ffaa 7a3d 06b1 543d 027d 1b3d
000001e0: 36dd f63b fae4 4d3d 925b 2bbd 38b4 84bc
000001f0: 74c3 95bd 500e a9b3 3ca3 77b1 8efc e538
00000200: 8e9c a12b 75d2 d829 7490 6c2f 0a50 62b8
00000210: 0e82 3f35 e179 a0b6 1675 76b6 a005 ed26
00000220: 7560 5d37 72ae 5f34 7e3f 4939 67c1 57b5
00000230: 8cb9 8da6 8e8e 83a6 1e5a 4429 21e3 02b5
00000240: 8c68 9d29 d86f 08b4 8b26 0a2e 4534 4cb6
00000250: e738 862b 3b8d c5b5 95ed 9f38 8637 f6b9
00000260: 306d d73a 601f 58bb f81b 38b9 81da 4e3b
00000270: 0819 953b 91a8 c53b 0c8e 23b9 58c3 4abb
00000280: 71ed 9b39 b626 2439 7050 2238 4f42 2c39
00000290: 7e81 7339 859d e739 1a5a df39 b255 6839
000002a0: 4666 1338 8518 06b9 4432 cd39 4744 bd3a
000002b0: 58b3 5138 7a33 6cba a8ea 31b8 91b2 9639
000002c0: c06c 5336 0e61 1ab9 d76d a138 707e 8338
000002d0: 3c59 8839 608f 0337 c0c4 1db9 c4c6 3438
000002e0: 2c92 b9b7 0aca d439 a5bf 8439 bc6f 92b8
000002f0: 6cb0 5cb9 0be8 8ab9 1b3e 1f3a 0c4c 223a
00000300: 2cdd a039 446d 5338 ad87 2fb9 eb2d 1a3a
00000310: 438f f139 f435 c139 f89f 6139 e919 43b8
00000320: 989a 3a39 a0c0 0636 12ef beb8 65fe 4738
00000330: 6cf2 2238 78d1 2839 5001 a536 2c23 c3b8
00000340: 12f3 df37 9972 65b7 b6b6 8339 185c 2439
00000350: d408 35b8 a095 08b9 92f4 2bb9 1d1e c539
00000360: 49e3 c839 9012 4739 cfcc 0238 ae33 d9b8
00000370: 65d6 be39 e57a 9539 cc11 6f39 68a5 0b39
00000380: 704b f1b7 4e7d 833b 9e70 063c 0054 e8bb
00000390: 02ba e1bb 7801 7abc 5a6c 2d3c b474 e2bc
000003a0: e68b 78bc d5d6 22ba d98b 2dbc d7b6 a23d
000003b0: d7b6 2ebe ddb2 3cbd e037 ae39 ec0e 49ba
000003c0: 5561 d23d 0519 26be a8c9 74bd 4006 4fbc
000003d0: f52f f9ba 9905 1e3d 48f3 f5bb e97c 82bc
000003e0: 7996 83bb 8d3b ca3b 17b1 57ab 17b1 57ab
000003f0: aa4d 5324 cd75 8499 0000 0000 17b1 57ab
0.00046170707 3.9962106e-06 -0.00023717173 0.00012297212 0.00010121984 0.0004183463 1.2632139e-05 -0.00024203562
6.719451e-05 -3.6120717e-05 0.0006528844 0.00040730115 -0.00011694369 -0.00033828212 -0.00042557146 0.0009771885
0.0009959405 0.00049072155 8.058953e-05 -0.00026955036 0.00094612327 0.0007403749 0.00059559185 0.00034618462
-7.5552554e-05 0.0077102585 0.0004093094 0.05596375 -0.10856121 -0.005593233 0.1358523 0.31944185
0.52781343 0.34050456 0.1888396 0.19517717 0.48749343 0.6947574 0.5499417 0.17902738
0.07359572 0.1873971 0.20431145 0.18569072 0.08339379 0.017065598 0.050405327 0.05854415
0.106644385 0.09862292 2.6451218e-05 -8.18165e-09 2.008211e-09 -9.452989e-08 3.4526437e-07 6.730599e-05
3.8433857e-08 -5.780729e-09 -1.6714645e-06 1.0581828e-06 6.188444e-08 4.1537675e-07 1.1576526e-06 1.1681343e-10
6.3009986e-07 -7.406797e-06 1.3374427e-06 3.0942485e-06 1.0959515e-08 -2.0468182e-05 1.0083255e-09 1.176335e-07
-1.1640612e-06 5.2191485e-08 -4.9677135e-07 -4.1893642e-07 -3.0138855e-13 -1.8935304e-17 3.822802e-26 -3.5259467e-07
-6.768635e-07 9.478971e-10 -2.5290028e-10 -1.4734944e-09 -5.4954194e-07 5.553766e-14 1.1762915e-14 1.0062951e-06
-4.930325e-14 -3.8886787e-06 3.529383e-23 -1.380447e-09 -5.2312653e-06 4.286464e-06 -4.1581907e-07 3.2631277e-15
-7.286372e-14 -3.1741315e-12 7.7051664e-07 4.4864566e-07 -0.0020406963 0.0016023307 -0.0026178448 -0.002484404
0.00526009 -0.01556164 -0.017282007 0.009762896 -0.031255215 -0.0011948725 -0.002546793 -0.0335897
0.011941068 0.014830214 -0.015998583 0.037753385 0.054890696 0.06119823 0.051926635 0.037961014
0.0075336946 0.050267197 -0.041835375 -0.016199216 -0.0731267 -7.872279e-08 -3.6036019e-09 0.00010966613
1.1483191e-12 9.6288354e-14 2.1515395e-10 -5.395714e-05 7.13423e-07 -4.78256e-06 -3.672501e-06 1.6446703e-15
1.3195085e-05 2.0831956e-07 0.00019192506 -8.037518e-07 -9.834133e-16 -9.128591e-16 4.3598907e-14 -4.875929e-07
6.9903366e-14 -1.2706676e-07 3.14118e-11 -3.0428794e-06 9.537066e-13 -1.4718747e-06 7.625964e-05 -0.00046962145
0.0016435739 -0.0032977685 -0.00017558027 0.0031563344 0.004550103 0.0060320576 -0.00015597808 -0.0030939188
0.0002974081 0.0001565468 3.8698723e-05 0.000164279 0.00023222525 0.00044177115 0.00042601005 0.00022157168
3.514278e-05 -0.0001278837 0.00039138098 0.0014439904 4.999651e-05 -0.0009010356 -4.241863e-05 0.00028743272
3.150475e-06 -0.0001472274 7.6975375e-05 6.2701176e-05 0.00026006426 7.841591e-06 -0.00015045982 4.310046e-05
-2.2121785e-05 0.00040586322 0.00025319788 -6.982635e-05 -0.00021046557 -0.00026494297 0.0006074623 0.00061911414
0.00030682364 5.040808e-05 -0.00016739844 0.0005881476 0.0004607384 0.00036852027 0.00021517265 -4.6515754e-05
0.00017795933 2.0079679e-06 -9.104436e-05 4.768222e-05 3.8849583e-05 0.00016099762 4.917536e-06 -9.304876e-05
2.669686e-05 -1.36761455e-05 0.00025122397 0.00015674566 -4.3161985e-05 -0.0001302571 -0.0001639894 0.00037597204
0.00038316313 0.00018985034 3.1185158e-05 -0.000103569924 0.0003639936 0.00028511058 0.00022799446 0.00013317692
-2.8764567e-05 0.00401274 0.008205561 -0.0070900917 -0.006888629 -0.015259139 0.010584915 -0.027643539
-0.015170073 -0.0006211822 -0.010592424 0.0794503 -0.17061935 -0.046069015 0.00033229496 -0.0007669765
0.10272471 -0.16220482 -0.059762627 -0.012635767 -0.0019011485 0.038579557 -0.007505808 -0.015928702
-0.0040157405 0.00617165 -7.6629106e-13 -7.6629106e-13 4.5819116e-17 -1.369606e-23 0.0 -7.6629106e-13

momentum_buffer f4 [20]
00000000: 2663 5b3b 1e92 8534 ed7a 29bc 54a1 dbb9
00000010: 9a03 4ebb 5e13 193a 0b29 f6ba 9218 603b
00000020: 15ed 6ebb f450 89b9 e019 85b7 7865 5ab9
00000030: 12ff f53a 34cb bf3b 086c 1b3b 9df3 af36
00000040: ddd5 c53b 39cc 1dbb 1cc3 e7b9 e09c 18bb
0.0033475845 2.4879495e-07 -0.010344249 -0.00041891134 -0.0031435252 0.0005839373 -0.0018780542 0.0034194333
-0.003645723 -0.0002619099 -1.5866884e-05 -0.000208279 0.0018768033 0.005853081 0.0023715515 5.2437667e-06
0.0060374574 -0.0024078025 -0.0004420512 -0.0023286864

momentum_buffer f4 [50, 320]
00000000: f626 33bb a30e ebbb ff6d 26ba dce7 123b
00000010: ccaf a9bb 1826 17bb 5982 dfba 989e e039
00000020: a883 80ba 51ec a9ba 48d8 a7b7 65d7 373a
00000030: 7ea8 ef38 c943 c9ba 1f7a 05bb 694b 85b9
00000040: ae17 d990 afe9 ae30 0000 0000 0000 0000
00000050: f98d 5c16 0f7a 4897 f49e 25aa 0000 0000
00000060: 98ae 9b19 8676 fd8d 56b7 58ae 0000 0000
00000070: 0000 0000 b9bb e225 0000 0000 0000 0000
00000080: dfc4 4c3d 7ffe 553d bb41 863d ba1a d93b
00000090: 4952 be3d 831b b73d e7d8 b73d f266 c1b8
000000a0: a91e d83c a307 83b7 110e 0eba c8c6 1c3c
000000b0: 8241 b73c 0cd4 0e3d 341a f63c 0f6a 293c
000000c0: a95a a2ad ecc2 86ab 7495 1eb7 8dcf fd2f
000000d0: 66ae b339 2923 1abb 7e5e 50bb e5c3 39ba
000000e0: 2b74 2fbc c050 6ebc 23a9 d2ba 1700 cdb6
000000f0: 1727 93bc d836 d2bc 9a42 60bc 8943 c9ba
00000100: 4b3e 013e f478 083e 3069 713d 028b c63c
00000110: 7610 13bd 6145 02bd 6e53 b6bb 2bd0 bebb
00000120: 345b d6b9 4bed 61b9 228c b33b 1475 933c
00000130: ea98 533c 49a1 8f3b 7caa c2b9 5026 8cb9
00000140: 628f a6bb f376 7734 b843 23b8 7afd 5c31
00000150: 9a8d 3db5 640e 64b9 5abd 64b9 852d 05bc
00000160: dbb6 93b7 0673 703b 62de b73c ad4c eb3c
00000170: 6a18 333a c34a f1ba ef71 31bc 93e9 bcbb
00000180: 4910 d3ba 1907 02b7 30c5 8434 0000 0000
00000190: 602b d0b7 6927 942d 2546 85b6 6ea2 3836
000001a0: bca2 0129 7b63 7b37 0886 8aba 32ea 8db5
000001b0: ab3f 9d30 6bdb 28b7 a899 fcb6 9c0e ee34
000001c0: ccb9 15bb d155 2ab4 6e3c 53b8 4a21 b439
000001d0: de56 b3b9 dfe8 a73b 1ed1 1ab8 8195 1cb9
000001e0: 9de1 563a e1a5 3d3b de02 5eb7 d4ca 2638
000001f0: a431 f7ba 73fc 4b33 f27e 75af 9515 72b5
00000200: 3698 41ba 95a1 833a 1dc4 25bb bd94 f7ba
00000210: e046 c2b9 fc36 1638 12c2 a4ba 6ffb 80bb
00000220: ae25 9eb8 e25c c6b9 abcc 03bb 9ca6 20bb
00000230: 6b48 f83a 6178 af38 dfb9 2fb9 93a1 21bb
00000240: dabf 8e3b df64 b23b 0a97 2b3a 7498 85ba
00000250: 80e3 7b3a 4266 8b3b 6902 803a 3dd7 5b3a
00000260: a062 4dba d1b6 1eba ca36 52b7 4f92 76ba
00000270: 6e1f 7bb9 24f4 2bb9 a2fe 93b9 baab 4cb9
00000280: cfde 4200 7c7c 3a30 0000 0000 0000 0000
00000290: 0000 0000 d4b4 d596 d4b4 d596 0000 0000
000002a0: 0000 0000 2390 0000 f527 0332 0000 0000
000002b0: 0000 0000 0000 0000 0000 0000 0000 0000
000002c0: 00ef 4799 ad4f 98a5 00d6 8bb6 0000 0000
000002d0: 1873 b537 cc41 0f39 1505 4439 b1d7 1db8
000002e0: 118d caba f895 d1ba b02a f738 a342 95b9
000002f0: 1b9e 91ba 0242 04b9 b943 ccb7 b524 96b7
00000300: a15f c0ba 0075 b8a6 eda7 3338 0000 0000
00000310: 1825 1738 27e7 1231 a0f6 3ab8 0000 0000
00000320: 6aa4 f0b4 0f5d 07b6 37d6 a9b8 f17f 0738
00000330: 554c d23a 64ed 6833 6eff a3b6 0000 0000
00000340: dcaf 90b9 65b6 a437 6cac 60b3 b199 833b
00000350: 41d6 e034 e9b1 ba37 d500 1eb6 f80e d6b6
00000360: b3b9 05bb ca48 f2b8 1880 0db6 7d37 793b
00000370: 0791 2938 6332 2c3c 99e8 3d3c 8f86 7db8
00000380: 4f8e 71bc 183c e7ba 859c 98bc 0cb7 29bd
00000390: 52c2 fbbc bcbc 89bc 4000 0cbb eab5 babc
000003a0: e0ea 93b8 0d09 69b7 2290 90bc 8ef3 21bc
000003b0: c6b4 3bbc 4ee6 74b9 e601 3aba 3bda 98ba
000003c0: 0000 0000 0000 0000 0000 0000 0000 0000
000003d0: 0000 0000 2740 0c98 2027 ee95 0000 0000
000003e0: 0000 0000 128a 0718 903c 2c33 0000 0000
000003f0: 0000 0000 0000 0000 0000 0000 0000 0000
-0.0027336455 -0.0071733757 -0.0006348788 0.002241603 -0.0051784273 -0.0023063477 -0.0017052396 0.0004284277
-0.0009804862 -0.0012964105 -2.0008665e-05 0.0007012992 0.00011427792 -0.0015355285 -0.002036698 -0.00025423922
-8.562789e-29 1.2726583e-09 0.0 0.0 1.7816257e-25 -6.4777545e-25 -1.4710092e-13 0.0
1.6097142e-23 -1.5620862e-30 -4.927555e-11 0.0 0.0 3.9331956e-16 0.0 0.0
0.04999244 0.05224466 0.06555506 0.0066255005 0.092930384 0.08940794 0.08976918 -9.222132e-05
0.026381807 -1.5619973e-05 -0.0005418966 0.0095688775 0.022370104 0.034870192 0.030041791 0.010340228
-1.8457529e-11 -9.575374e-13 -9.452331e-06 4.6167906e-10 0.00034271477 -0.0023519492 -0.0031794603 -0.00070863805
-0.010708849 -0.0145456195 -0.0016072135 -6.1094865e-06 -0.017962975 -0.025660917 -0.013687754 -0.001535521
0.12621419 0.1332739 0.058938205 0.024236206 -0.03590437 -0.031804446 -0.005564145 -0.0058231554
-0.00040885212 -0.0002154607 0.0054793516 0.018000163 0.0129148755 0.0043832404 -0.00037129584 -0.00026731426
-0.0050830105 2.3046941e-07 -3.8925296e-05 3.2158298e-09 -7.0614044e-07 -0.00021749135 -0.00021814313 -0.0081285285
-1.7608914e-05 0.0036689653 0.022444908 0.028723085 0.0006831946 -0.0018409122 -0.010830387 -0.005765149
-0.0016102876 -7.750256e-06 2.473039e-07 0.0 -2.481573e-05 1.6843154e-11 -3.971875e-06 2.7512683e-06
2.8784904e-14 1.4983928e-05 -0.0010568509 -1.0573478e-06 1.1441349e-09 -1.0064668e-05 -7.528073e-06 4.4341584e-07
-0.002284634 -1.5863704e-07 -5.03626e-05 0.00034357078 -0.00034206262 0.005124196 -3.6911217e-05 -0.00014933014
0.0008197071 0.0028937983 -1.3232899e-05 3.9766383e-05 -0.0018859399 4.7494222e-08 -2.232772e-10 -9.018343e-07
-0.0007385047 0.0010042662 -0.0025293895 -0.0018888932 -0.0003705537 3.5813995e-05 -0.0012570044 -0.003936223
-7.5410455e-05 -0.00037834706 -0.0020111005 -0.002451337 0.0018942481 8.3670726e-05 -0.00016758543 -0.0024662956
0.0043563666 0.0054441537 0.0006545639 -0.0010192529 0.000960879 0.0042541334 0.0009766343 0.000838626
-0.00078348257 -0.00060544634 -1.2529732e-05 -0.0009405957 -0.00023948934 -0.0001639878 -0.0002822774 -0.00019518929
6.141071e-39 6.784331e-10 0.0 0.0 0.0 -3.4526125e-25 -3.4526125e-25 0.0
0.0 5.1707e-41 7.634289e-09 0.0 0.0 0.0 0.0 0.0
-1.03363245e-23 -2.6421787e-16 -4.1674357e-06 0.0 2.1630476e-05 0.00013662054 0.0001869391 -3.7632595e-05
-0.0015453418 -0.0015990129 0.00011785829 -0.00028469143 -0.0011109741 -0.00012613091 -2.435023e-05 -1.7898486e-05
-0.0014676937 -1.2799278e-15 4.283332e-05 0.0 3.603575e-05 2.1377191e-09 -4.4575543e-05 0.0
-4.482311e-07 -2.0170735e-06 -8.0984486e-05 3.2305663e-05 0.0016044477 5.4232615e-08 -4.8875145e-06 0.0
-0.00027596846 1.9635258e-05 -5.231088e-08 0.004016124 4.1879142e-07 2.2255774e-05 -2.354432e-06 -6.3794396e-06
-0.0020404875 -0.00011553017 -2.1085198e-06 0.0038027458 4.0427807e-05 0.01051006 0.0115911 -6.0445218e-05
-0.014743402 -0.0017641811 -0.018629322 -0.041434333 -0.030732308 -0.016813628 -0.0021362454 -0.022791822
-7.053255e-05 -1.38899895e-05 -0.017646853 -0.009884728 -0.011456674 -0.00023355449 -0.000709562 -0.0011661717
0.0 0.0 0.0 0.0 0.0 -1.8126965e-24 -9.618916e-26 0.0
0.0 1.7518049e-24 4.0101952e-08 0.0 0.0 0.0 0.0 0.0

momentum_buffer f4 [50]
00000000: 4164 3c3a e88d 8037 ed9b acba e860 a63a
00000010: 31d6 02ba ecdf 843a 61fd 623b e302 7e3c
00000020: 0494 d73b c4ad 133c 528b 83bb 052a 7f3a
00000030: 5a94 643a 25a3 56bb 42e6 7abb 2ee7 5035
00000040: 1987 c2ba 0896 bc39 ed02 b3bb c72c 97ba
00000050: e99e 1ebb 10eb f736 185e 9438 2ad3 b4b7
00000060: 2696 d3bb b421 f6ba d9b8 0e3a 5eb8 4f3a
00000070: 5162 31bb 66e1 5bb5 1cf3 14b9 fc1a 92ba
00000080: 1751 0339 f5ad 2bba 020a d9b9 27a7 82b4
00000090: 1411 14bb 2f06 3e3c 5e2f e635 8eea 9b3a
000000a0: 0d9b a6bb 1e02 94ba 30cd 2fba ce70 3b3b
000000b0: e4ed 88b9 3ef1 9a3a 79be 873a 3015 ff39
000000c0: 7dfb 94ba 2342 52bb
0.000718657 1.532487e-05 -0.0013169028 0.0012693675 -0.00049910235 0.0010137535 0.003463589 0.015503618
0.006578924 0.009013597 -0.004014411 0.00097337394 0.0008719616 -0.003275105 -0.0038284217 7.782245e-07
-0.0014841288 0.00035969936 -0.0054629953 -0.001153373 -0.0024203605 7.3885385e-06 7.074716e-05 -2.1556003e-05
-0.006457108 -0.0018778355 0.00054444146 0.0007923896 -0.0027066658 -8.1911855e-07 -0.00014204945 -0.0011146958
0.00012523342 -0.0006549054 -0.00041396922 -2.4336006e-07 -0.0022593187 0.011598154 1.7150121e-06 0.0011895464
-0.0050844015 -0.0011292135 -0.00067062955 0.0028601172 -0.00026117184 0.0011821163 0.0010356448 0.00048653176
-0.0011366453 -0.0032082878
