quick-start/notebooks_gpu/logs/log_20240523-13_35/model_epoch_0.bin (torch, 180126 bytes, 16 tensors)

conv1.weight f4 [10, 1, 5, 5]
00000000: 9cbe 46be c7b5 a3bd 3e62 51be c57c 023e
00000010: bdc2 583d 56ab 1e3d 8655 713d 34d8 d23c
00000020: e860 dfbd 0bfb 603d 06af f5bd ce68 0abd
00000030: b8b9 c5bd 3fac 01be 0f2f 27bc 1b5a 56be
00000040: 6d12 3abe 0759 17be 55da 2fbe 194d 37be
00000050: e22c 533c 7d93 8ebc 5834 6bbe 907e 71be
00000060: 9617 14bc ae3c 1fbd 1993 1fbe 8705 933c
00000070: 92cc 85bd 4503 66be 9d87 0fbe 0712 03be
00000080: 97b2 2cbc f126 fb3c 591e 4ebe 3308 9abd
00000090: 66ba 883d 0a2e 00be ab5c 51bd 85a5 97bd
000000a0: e19e 1a3d 70d5 8abe 0d35 afbd 80d9 64bc
000000b0: 755a edbc 28df b6bd f2ba 55be 4c4d dabd
000000c0: 8da8 1abd 86bb 15bd 7581 40bc b2bf 83bd
000000d0: 2b08 51be dc02 9e3c 7a9e e2bc 15a2 0dbe
000000e0: 212e 54be 57de 103d d9e6 563c c044 f7bd
000000f0: 3430 6d3d 55e7 cbbd c6af ba3c 4d56 0fbe
00000100: bbf6 29be 7ec6 24be 59e7 e8bd c0a7 943d
00000110: 2323 8abe ed29 d33d 378d 1dbe 8f13 d5bd
00000120: eef3 8d3d 95d9 bebd 95eb 34be 1bb1 dabc
00000130: 0ab7 1cbd 3123 89be 8935 17bc 07f3 e13c
00000140: 9fc5 133e 8f9e fbbd 9236 e8bc 9247 2ebe
00000150: 2a86 e3bd c364 803d dbcc 43bd 4450 a0bd
00000160: a9e5 afbd 7377 553d c276 2f3e 7429 febd
00000170: e5ac 54be 9edf c3bd 33aa 153d c299 99bd
00000180: 5f51 64be 8f05 9fbd 76ca 29be a4d8 823e
00000190: 9c32 22bd c098 203e 47e2 0ebd fb37 bb3d
000001a0: 55f3 60be fb50 423d e74e eb3d 4ab6 63bd
000001b0: dc29 fe3d 69ca 73be 5b28 58bd 62be c0bc
000001c0: c19b ef3d d68f 34bd 5a4a 91be 2989 c53d
000001d0: f9d0 ae3d dcef ddbd 6a8c 58be 9c04 34be
000001e0: adcc 87be 7ec1 47be f1ef 7ebe d6c5 57bd
000001f0: 915d dd3d 8272 5d3d 3cc3 8b3d 3c05 ed3d
00000200: cada 6fbd 0872 e03d facc 24be ef25 92bd
00000210: e40d d0bd 3e73 413d 2e73 083e 4db8 fbbd
00000220: 2c7c 083e a304 78bc 295e 1e3c b702 493e
00000230: 2993 e7bd 7d55 ad3d c027 213d ff14 3fbd
00000240: 21a5 4bbd d1cb 9dbe 76b4 87be 093d 46be
00000250: 893f 78be dca2 efbd 91aa a9bd 8453 593d
00000260: 99a7 4abe 5c04 9abe 641e a2bc 37b8 a03c
00000270: 69d4 2abe 00ac 63bd db84 bbbd 763b 43bd
00000280: be88 58be 1a82 65be 7bcd d3bd 06d6 01be
00000290: 7862 94be ce67 8fbd ac48 2dbd ad50 03be
000002a0: 83a0 31be 9714 dbbb 1118 23be d6d1 66be
000002b0: e072 80bd 558f 62bc d68a 78be 2c3b 68bd
000002c0: 25f7 16be f63a 62be 3190 01bc e81d 8ebe
000002d0: dc57 503d 4e8b 093e 60f7 8a3b 7536 70bd
000002e0: a93e 673c b7a1 e9bc 3438 9bbb 56bc 86bd
000002f0: d8aa 8abd 7816 17be 0d51 46be 6b9f d9bd
00000300: d03f dbbc 9112 6dbd 92bc 713d 5489 5abe
00000310: b9fe e43c cdb0 84be d023 18be e5c5 12be
00000320: 4a0d f53d 7345 1e3c 281d 17be 529d 68bd
00000330: f4b3 48be 0bd3 b93d 9ea4 33bd 49c3 343d
00000340: f1b1 4d3d a981 8c3c 118b 9d3d 2832 04be
00000350: e37f 023e 742f a13d 2470 4c3e b34c 4c3d
00000360: 5465 b5bd 9798 1abe 6a78 023e bb46 8fbd
00000370: 7f96 183d cf16 1cbd bec4 34bd 28b7 a9be
00000380: 3cfa 43be 2197 c0bd 9bf6 0fbe 5e5a cc3c
00000390: 08db 19be c918 02be 9279 11be 6c98 73be
000003a0: 2f37 b0bd 3b8b 59be 1a12 80be 7c6f 08bd
000003b0: 0c9b 283e dcba 7e3c de7b 1fbe 4cce 15be
000003c0: 32c4 023e 48d4 e5bd 6736 a8bc 73b0 073b
000003d0: 3bf0 89bc 0c94 6fbd 372c 703e 7d2b 913d
000003e0: 72fd 2a3e f0bf 1a3c
-0.19408649 -0.07993656 -0.20447633 0.12742908 0.052920092 0.038737617 0.058919452 0.02573786
-0.10907155 0.054926913 -0.11996274 -0.033791356 -0.09654564 -0.12663363 -0.010204091 -0.2093281
-0.18171091 -0.14780055 -0.17173131 -0.17900504 0.012889119 -0.017404312 -0.22969186 -0.23583436
-0.009038826 -0.038876228 -0.15583457 0.017946972 -0.06533159 -0.22462185 -0.14016576 -0.12799846
-0.010540626 0.030658217 -0.20128764 -0.07521095 0.06676178 -0.12517563 -0.051113766 -0.07404617
0.037749175 -0.27115965 -0.085550405 -0.013967872 -0.028973797 -0.089292824 -0.20872095 -0.106592745
-0.0377584 -0.03655579 -0.011749615 -0.06433047 -0.20413272 0.019288473 -0.027663458 -0.1383136
-0.20720722 0.03536829 0.013116562 -0.1207366 0.0579073 -0.099562325 0.022788893 -0.13997765
-0.16598026 -0.16091344 -0.11372251 0.07258558 -0.26979932 0.10310731 -0.153859 -0.10404121
0.069312915 -0.09318844 -0.17667992 -0.026695779 -0.038260497 -0.2678466 -0.009229072 0.027581705
0.14430855 -0.12286102 -0.028346334 -0.1701949 -0.11109574 0.06269219 -0.047802787 -0.078278095
-0.08588726 0.05211587 0.17135146 -0.1241025 -0.20769079 -0.09564136 0.036539268 -0.0750003
-0.22296666 -0.07764732 -0.16581139 0.2555591 -0.039599046 0.1568327 -0.034883764 0.09141537
-0.21967824 0.04744051 0.11489659 -0.055593766 0.12410328 -0.23807682 -0.05277286 -0.023528282
0.116996296 -0.044082485 -0.28377038 0.09645302 0.08535952 -0.10836765 -0.21147314 -0.17579883
-0.26523343 -0.19507405 -0.24896218 -0.052678905 0.10808862 0.05406428 0.068243474 0.11573264
-0.058558263 0.1095925 -0.16093817 -0.071361415 -0.101588994 0.047229044 0.13325188 -0.12291012
0.13328618 -0.015137824 0.009666004 0.19629942 -0.113073654 0.08463571 0.03934455 -0.046650883
-0.049718026 -0.30819562 -0.26504868 -0.1935922 -0.24242987 -0.11700985 -0.08284486 0.053058162
-0.19790496 -0.3008145 -0.019789882 0.01961909 -0.1668259 -0.055583954 -0.091561995 -0.04766413
-0.21145913 -0.22412911 -0.10341927 -0.126793 -0.28981376 -0.07002221 -0.042305633 -0.12823744
-0.17346387 -0.006685804 -0.1592715 -0.22540984 -0.06271911 -0.013828118 -0.24271712 -0.056697056
-0.14742716 -0.22092804 -0.007907913 -0.27757192 0.05086504 0.13432047 0.004240915 -0.058645684
0.01411406 -0.028519494 -0.0047369245 -0.06578891 -0.06770867 -0.14754665 -0.19366856 -0.1062611
-0.026763827 -0.057879034 0.059017725 -0.21341449 0.027953492 -0.25916138 -0.14857411 -0.14333303
0.11965425 0.009660113 -0.14757216 -0.056790657 -0.19599897 0.090734564 -0.043858163 0.04413155
0.050218526 0.01715167 0.076925404 -0.12909758 0.12744097 0.07870379 0.19964653 0.049877834
-0.088572174 -0.15097271 0.12741247 -0.06995913 0.0372529 -0.03810769 -0.04413294 -0.3314755
-0.19138426 -0.094038256 -0.14058916 0.024945434 -0.1502496 -0.12704767 -0.14206532 -0.23788613
-0.086042754 -0.21244518 -0.2501381 -0.033309445 0.16465396 0.01554748 -0.15574595 -0.14629477
0.12770155 -0.1122213 -0.020533754 0.0020704537 -0.016838184 -0.058490798 0.23454367 0.07088373
0.16698244 0.0094451755

conv1.bias f4 [10]
00000000: ef54 49be 8dab c3b9 8062 133e 374d 8b3d
00000010: 8e52 3c3e 3959 b0bd 7c8f 2bbe 20a0 d2bd
00000020: e46a f43d fb53 9d3d
-0.19661306 -0.00037321114 0.14393044 0.06801837 0.18390867 -0.08610768 -0.16753954 -0.10284448
0.1193445 0.07682034

conv2.weight f4 [20, 10, 5, 5]
00000000: 1ee7 6a3d 8cb7 863d 33e6 633c 3e82 8c3d
00000010: 6be6 53bd e513 8e3c fb2b fcbb 04b4 fc3c
00000020: 14c9 05bd 69c8 583d e71c 8a3d 590d f4bc
00000030: 66e1 8d3a 9605 8dbc c023 9d3d b38d b8bc
00000040: a57a 363d b825 9c3d 0115 633d 693b 8b3c
00000050: a37e 0cbd d6b6 89bc fbd2 f33c ed1c 5bbb
00000060: 3d3b 3f3c 77bc 75bd 08d0 7dbb c36d 19bc
00000070: 70bb 773d 8b03 58bb af9f 68bd 9e98 813d
00000080: 19bf 2dbd b403 19bd 8dc0 98bc 58a2 2bbd
00000090: 4670 8e3c 6224 bdbc c891 9dbc 03be 2f3c
000000a0: 3cd9 4e3d f7ce d13c 5f9a 96bc eef8 f43c
000000b0: 3daa b1bc 566b 68bd 0fb9 56bd d42a 70bb
000000c0: f828 57bd 9316 18bd b700 1a3d 05a7 bf3c
000000d0: ca01 58bd 416b 633d 44f6 85bb cae4 c9bc
000000e0: e61c dd3c c225 6cbd c959 933c fec3 96bb
000000f0: a56e 7cbc eca8 3dbc d589 3ebd 87e8 58bc
00000100: 6962 5d3d 1938 48bd 99f9 4c3d 8849 e7bc
00000110: 73d8 813c 8b31 823d 826d ff3b dad4 d63a
00000120: 9020 55bd 2383 adbb 2222 24bd b8ad 693b
00000130: 4cfc b53d e92c b03d 99e3 603d a378 793b
00000140: 8f69 883d 6ad8 c83d e2cb 093d b54a 993d
00000150: 8460 513c 2c15 793d 7e82 823d 1744 9a3b
00000160: 0310 093c 4f04 eabc 471e 0e3d 179d 523d
00000170: 61a8 ccbc ddaa 08bd 1b82 25ba cacd 28bd
00000180: b35d 193a aeb4 6e3d 2f43 243d cf13 8d3c
00000190: f4d4 cdbc 4f96 b4ba 3c15 9c3c 8622 edbd
000001a0: 4898 f9bd 7bbc 9d3d 60de b6ba b92e a5bd
000001b0: 6650 8fbd 19e0 303b 9896 a63d 044f 1abc
000001c0: 71fc 87bd 6a05 82bd a635 0f3d 499e 6d3d
000001d0: a1bf 4abd c613 89bc a38f 8ebc ecc3 d5bd
000001e0: 9dfb ec3c 9c19 d7bb 4826 3a3d 9231 9d3d
000001f0: daaf fabc 12f4 9a3c 32e8 023e 03e9 20bd
00000200: 7cd2 d2bd 5b13 8ebd c5d6 b5bb 0276 c4bc
00000210: ea69 0dbd 9c33 a5bc 39cf 60bd 0011 70bc
00000220: d60d bd3b fb17 4dbc 2e0b b53c 1434 033c
00000230: acf3 99bd c75a 19bd e6d0 713c f0f5 e33c
00000240: ca83 3f3d 592e 48be 931d 84bd 2da6 4e3d
00000250: 30a2 393d 07cb 15bc 394e 63bd 541d 2cbd
00000260: f893 84bd 5fff 5bbb fc69 a23d 25d9 96bc
00000270: be71 9abd ceaa 5ebd f271 013d b738 823d
00000280: e5dc 81bd 3b6b 5bbb 33c3 0fbc c288 333d
00000290: faaa 183b b503 0fbc 5a39 a1bd a341 d8bb
000002a0: d12a 61bd 191f 8bbd 5a64 59bc eb93 68bd
000002b0: b2c3 ce3c ae92 263c e088 85bd 016c 143d
000002c0: 67f3 f33c 5f45 17bd 746c 4fbd be79 543d
000002d0: f9ff 063d 19ce 85bd 0edf 40b9 c127 443b
000002e0: c244 483c 79e0 3cbd 63ae 95bb cc7e 173c
000002f0: 099b 273c 75e2 9d3d fc08 63bd 4186 02bd
00000300: c3fe 91bb 205f d83c 4192 ecbb 3d6f 34bd
00000310: 04e6 6739 51a5 0b3d b935 863d 5390 00bc
00000320: 5a1a c4bc 7a3b eebc 78f9 ecbd f2c3 a9bd
00000330: 3cf7 733d 392f 063d 66d3 8d3c ce05 32bd
00000340: 442b d8bd e45a 5c3d b28d 8e3d cf98 273d
00000350: 7053 ccbd b125 c3bd 0b77 e93d 25b0 883d
00000360: be64 6b3b 94d0 d0bd 3432 e5bb 558e cf3d
00000370: 75c3 9c3c 81d3 81bd e2ac 22bd feb0 653d
00000380: 9dd9 363d fe67 793d f570 e1bd d988 a0bd
00000390: 9b0b c239 148c afbd 560d 9a3d 044a 8cbd
000003a0: 457f 41bd 4996 edbd d173 22be b902 133c
000003b0: 518b c9bd c6fd 8ebd 168c abbd 2fe0 5dbd
000003c0: 69d2 b6bc ec26 65bd a5f0 01bd fe34 2cbd
000003d0: 3a1c 58bd edf7 2abd f648 713d 17e6 da3d
000003e0: 50b2 703d fcec e13d 7f26 f0bc 7e5b 8cbc
000003f0: 615b 31bd 53b7 993c 86aa 1e3d ed3b 99bd
0.057349317 0.065779775 0.013909864 0.06860779 -0.051733416 0.01734347 -0.0076956726 0.030847557
-0.032662466 0.0529255 0.06743794 -0.02979152 0.001082462 -0.017214578 0.076728344 -0.022528505
0.044550557 0.07624382 0.055439953 0.016996102 -0.034300458 -0.016810816 0.02976369 -0.003343399
0.011671838 -0.059994187 -0.0038728733 -0.009364548 0.06048149 -0.0032961096 -0.05679291 0.063279375
-0.042418573 -0.037357047 -0.018646503 -0.04190287 0.01738752 -0.023088638 -0.019234553 0.010726455
0.05050014 0.025611384 -0.018384157 0.029903855 -0.021687621 -0.05674299 -0.05242258 -0.0036646621
-0.052529305 -0.037130903 0.037598338 0.02339507 -0.05273608 0.055522207 -0.004088195 -0.024645228
0.026991319 -0.057653196 0.017987149 -0.004601001 -0.015407239 -0.011575919 -0.046518166 -0.013239033
0.05404893 -0.048881624 0.050042722 -0.028233305 0.015850281 0.06357106 0.007795037 0.0016390339
-0.052033007 -0.0052951737 -0.040071614 0.0035656523 0.088860124 0.08602316 0.054904554 0.003806629
0.06660759 0.09806903 0.033641703 0.07484952 0.012779359 0.060811207 0.06372546 0.004707824
0.008365634 -0.028566508 0.034696843 0.051419344 -0.024982633 -0.033366073 -0.0006313638 -0.04121188
0.0005850449 0.05827778 0.040103134 0.01722136 -0.025125958 -0.0013777706 0.019053094 -0.115788504
-0.121872485 0.077019654 -0.0013951771 -0.08065552 -0.06997757 0.0026989041 0.08134192 -0.009418253
-0.06639946 -0.06348689 0.034963273 0.05801228 -0.049499158 -0.016733062 -0.017402476 -0.1043776
0.028928572 -0.006564332 0.045446664 0.076754704 -0.03060143 0.01891521 0.12783888 -0.039284717
-0.10294053 -0.069372855 -0.005549284 -0.023982052 -0.034524836 -0.02016621 -0.054885123 -0.014652491
0.0057694716 -0.012517924 0.022100057 0.008008022 -0.0751718 -0.037440088 0.014759278 0.027827233
0.046756543 -0.1954893 -0.06450953 0.050451446 0.04532069 -0.009142644 -0.05549452 -0.042020157
-0.06473535 -0.003356896 0.07930371 -0.01841409 -0.07541226 -0.05436211 0.031602807 0.06358474
-0.063409604 -0.0033480662 -0.008774566 0.043831594 0.002329527 -0.008728911 -0.07872267 -0.0065996214
-0.054972474 -0.06793041 -0.013268555 -0.05678169 0.0252398 0.010166807 -0.065202475 0.036235813
0.02977915 -0.03693139 -0.05064054 0.051873915 0.03295896 -0.06533451 -0.00018393641 0.0029930922
0.012223424 -0.04611251 -0.0045679077 0.009246539 0.010229834 0.07709209 -0.05542849 -0.031866316
-0.004455419 0.026412547 -0.0072195833 -0.044051398 0.00022115564 0.034093205 0.065532155 -0.00784691
-0.023938347 -0.029081095 -0.1157102 -0.08289327 0.059561953 0.03275988 0.017312717 -0.043462567
-0.10555127 0.053797618 0.0696062 0.040917214 -0.09976852 -0.095286734 0.11399659 0.06674222
0.0035918201 -0.10196033 -0.00699451 0.101345696 0.01913617 -0.06339169 -0.039715655 0.056076996
0.044641126 0.06089019 -0.11007873 -0.078386016 0.0003701121 -0.0857164 0.07522075 -0.06850055
-0.047240514 -0.1160093 -0.15864493 0.008972817 -0.098410256 -0.06981997 -0.08376329 -0.054168876
-0.022317128 -0.055945322 -0.031723637 -0.042042725 -0.052761294 -0.041740347 0.05890747 0.106884174
0.058763802 0.11031529 -0.029315231 -0.01713347 -0.043300036 0.018764174 0.038736843 -0.07482133

conv2.bias f4 [20]
00000000: e419 703d a8e3 003c 9872 04bd 81fe 313d
00000010: 8d12 523c 6fc3 4d3d f487 213d 9403 953c
00000020: 6abf 0c3d 4703 683d 5115 5cbd 8263 4a3d
00000030: f8ea 76bd c7ea 8ebc cc7c 383c 7a11 343d
00000040: a3c0 5a3d efc8 10b9 7084 653d f5c7 703d
0.05861844 0.0078667775 -0.032335848 0.043455604 0.012821806 0.050235208 0.039436296 0.018190183
0.034362234 0.05664375 -0.053731266 0.049411304 -0.060282677 -0.017445935 0.011260223 0.04396198
0.05340637 -0.00013807764 0.056034505 0.058784444

fc1.weight f4 [50, 320]
00000000: 2197 1f3d fce4 85bd 25b3 1a3d af0f 8d3d
00000010: 099b 253d b09d 003e 11be 0abc 1010 24bd
00000020: 6d18 cf3c ad24 1dbd 363d c3bb 4937 e6bc
00000030: f434 78bd c5c9 94bd b67f a83b eb9f 873d
00000040: 0508 61bd cb0a a4bd bf27 27bc ab2f 603c
00000050: 4c2c b5bd ca9d 22bd 32ef 13bd ec08 58bc
00000060: ca92 b2bc be71 393d 3375 413d 9f61 d1bc
00000070: 6de6 5ebd 89cc 53bd 96af d73a aa8f 243d
00000080: ad57 bcbb db7a 95bc 649e a13c 0380 e1bc
00000090: 4679 f93c 43cf dbbc d5e5 50bb d983 bebc
000000a0: 4fba 873c df43 5bbd f0d6 f9bc af88 d23c
000000b0: e013 a83c 5f71 983b f7f7 f13c 6605 7bbc
000000c0: 78b1 7ebd e4f0 86bd 6fb2 23bd ffad 81bd
000000d0: 7ecc 9ebd edbc 323c 5b2e 6abd e30f 5ebc
000000e0: bbd7 ec3c 7cdd 0e3c a239 733c 8b20 94bc
000000f0: 9722 8fbd f2cc c1bc 28c8 81bd d15c 89bc
00000100: 3583 87bc 0342 33bb 033c 2dbd 36aa 65bd
00000110: c1d8 073d e7a9 6fbd 2623 0abd bc88 323c
00000120: dc0a 343d 187a ab3d 478b 633d e9c7 36bc
00000130: 3df8 983c 338f 053d 2558 40bc 500b 01bd
00000140: 2aec dc3c a19f 2c3b ba50 6fbd 6898 5cbd
00000150: 5ff2 e03c 3948 ff3c 029e 14bd c715 363d
00000160: 6d18 25bd 23c6 b83b ff09 fcbc 5ddd cdbc
00000170: 47c9 f73b c692 a93b 3763 0dbc 9b99 00bc
00000180: a53b 6e3d d32f 1b3d 5139 4c3c 7ad9 8abd
00000190: 7977 91bd c7dd 743b bfdc 0f3d 0e92 0cbd
000001a0: 7dab 0a3c e744 68bd 28f7 5f3b 7aa1 8cbd
000001b0: ce40 f13b 94dc 2ebd 1380 463c 4b47 94bc
000001c0: c444 c5bc ef76 45ba da9e d5bd 355b ac3c
000001d0: 1d1b 98bc 6e11 5bbb 6f16 7abd d541 b9bb
000001e0: 0019 d93c 6a10 1abd 4740 63bd 4444 44bd
000001f0: a891 bcbd b52c b8bd 8d6d cabc 62ec 0f3d
00000200: ac97 65bd 0d98 703c dfc2 02bd ede7 14bb
00000210: 62e2 aebc b233 43bc 5ec0 6cbd bd29 9bbd
00000220: aeb4 8ebd b482 bfbc ef23 5cbd 975b 203c
00000230: ae67 263c 9587 343c daa2 b5bc 9add 4dbd
00000240: e166 47bd 7eae 53bd 49d8 6abd bf20 3ebd
00000250: 6ecd 8d3b e390 80bc 1405 a2bc c388 15bd
00000260: fc6b 7abd 73c3 8cbd 265a db3c 01a0 95bd
00000270: ba36 1cbd 8eb8 e3bc bbf3 59bd 5616 353d
00000280: 6000 cf3b c7a5 bbba 9452 df3c 324a 93bc
00000290: eff1 0dbd 2b78 833d 0c37 2abd d5d4 893c
000002a0: ce00 31bd 6a7c afbc c02c 76bd 610f 80bd
000002b0: a8d6 333d 7b05 f4bb f176 653c e897 8abd
000002c0: 692f c23d b677 a53d 89d9 3639 e337 323d
000002d0: e95a 143d a483 b6bc b0a0 91bd fe37 4cbc
000002e0: ec06 71bd 294c 603d a310 7a3d 7227 c8bc
000002f0: 8839 5bbd 5401 86bd 4fd7 133c 7589 99ba
00000300: 2619 a8bd a12c cfbd 0885 603c 0359 8fbc
00000310: 18f8 64bd 4b99 96bc bc54 65bc ec5c 84bb
00000320: d3e5 a1bc e11d 88bd f840 81bc caf8 263d
00000330: 555e 9dbd 9fa1 a13c 0571 24bb 3af5 133d
00000340: 7dc0 b6bc 1735 43bd ac1b 6e3d 84ea 0dbb
00000350: f537 94bd df92 07bb 2089 dd3c 881c 01bc
00000360: 806a a1bd 379e 2ebd fc93 d6bd d2eb 07bd
00000370: d5d2 53bd 5697 93bd 3c62 123e d97e b73d
00000380: ba8e 973c 40b8 28bd 679c 94b7 9d64 0c3d
00000390: 72a1 2c3d 9c2b 73bc 89da 7abc 9180 2a3c
000003a0: 5704 2e3d 030b 4abd cd04 f8bc 178f 033d
000003b0: 54e5 743b 2316 583d e9d4 293c 98d5 8e3c
000003c0: e752 093d f022 8dbc 4512 0a3d 7f50 273c
000003d0: 374d 55bd f0b9 8b3a 9062 5dbd 5e9a 023c
000003e0: 3f33 ff3b 7c9e 343c 0fd6 c1bc 6856 10bc
000003f0: 9529 edbc 5690 223d f275 4abd c01c 0f3d
0.038962487 -0.06537816 0.0377685 0.06887757 0.040431056 0.12560153 -0.008468167 -0.04005438
0.025280202 -0.038365055 -0.0059582246 -0.028102534 -0.060597375 -0.07265047 0.0051421775 0.06622299
-0.05493929 -0.08009871 -0.010202347 0.01368324 -0.088463396 -0.03970126 -0.036116786 -0.013185721
-0.02179851 0.04527449 0.04723091 -0.025559245 -0.05441897 -0.05170873 0.0016455527 0.04017607
-0.0057477565 -0.018247059 0.019728847 -0.027526861 0.030453335 -0.026832229 -0.0031875272 -0.02325623
0.016568331 -0.053531524 -0.030497998 0.025699941 0.02051729 0.0046521868 0.029537184 -0.015321111
-0.062180966 -0.06588915 -0.03996509 -0.06332015 -0.077538475 0.010909301 -0.057173114 -0.013553592
0.028911462 0.008719798 0.014845284 -0.018081924 -0.06989019 -0.023657296 -0.06337005 -0.016767891
-0.016542057 -0.0027352578 -0.04229356 -0.05607053 0.033165697 -0.05851164 -0.033724926 0.010896858
0.04395567 0.08372897 0.055552747 -0.011156061 0.018673057 0.03260727 -0.011739765 -0.03150493
0.02696808 0.0026340263 -0.058426596 -0.053856283 0.027459322 0.031162368 -0.0362835 0.044454362
-0.040306497 0.005638854 -0.030766485 -0.025129968 0.007561836 0.0051749675 -0.008629612 -0.007849122
0.05816235 0.037887406 0.012464837 -0.067797616 -0.07102866 0.0037363635 0.03512263 -0.034318976
0.008463738 -0.056706335 0.0034174416 -0.06866737 0.0073624616 -0.04269083 0.012115496 -0.018100401
-0.024080642 -0.0007532676 -0.10430689 0.021039585 -0.018567616 -0.0033427137 -0.06105655 -0.0056535997
0.026501179 -0.03761331 -0.05548122 -0.047916666 -0.09207469 -0.08992902 -0.024710441 0.03513754
-0.05605285 0.014684689 -0.031924125 -0.0022721246 -0.021348182 -0.011914181 -0.057800643 -0.0757632
-0.06968056 -0.023377754 -0.053745206 0.009787462 0.010156555 0.011018653 -0.02217238 -0.050260164
-0.048682097 -0.05168008 -0.05733517 -0.046417948 0.0043274676 -0.015694087 -0.019777812 -0.03650738
-0.06113814 -0.068732165 0.026776385 -0.07305909 -0.03813813 -0.027797963 -0.053210955 0.044210754
0.0063171834 -0.0014316373 0.027261056 -0.017979715 -0.034654554 0.064194046 -0.041556403 0.016825119
-0.043213658 -0.02142163 -0.06010127 -0.06252933 0.043905884 -0.0074469424 0.014005409 -0.06767255
0.09481699 0.08079474 0.0001743791 0.04351033 0.03621951 -0.022279568 -0.07110727 -0.012464521
-0.05884449 0.054760132 0.061051022 -0.024432871 -0.053521663 -0.06543222 0.009023502 -0.0011713939
-0.08207922 -0.10115934 0.013703592 -0.017498499 -0.055900663 -0.018383643 -0.013997253 -0.0040393975
-0.019762909 -0.06646324 -0.01577805 0.040764607 -0.07684008 0.019730387 -0.002509178 0.03612254
-0.022308582 -0.047658052 0.05813186 -0.0021654675 -0.072372355 -0.0020686907 0.027042925 -0.007880338
-0.078816414 -0.042631354 -0.104774445 -0.03318388 -0.051714737 -0.072065994 0.14295286 0.08959741
0.018500675 -0.04119134 -1.7715805e-05 0.03427564 0.042146154 -0.01484194 -0.015310892 0.010406629
0.042484608 -0.049326908 -0.030275727 0.032118883 0.0037368136 0.052755486 0.010365703 0.017435834
0.033526327 -0.017228574 0.03370883 0.010212063 -0.05207559 0.0010660272 -0.054049075 0.007971374
0.0077880914 0.011024114 -0.023661641 -0.008809663 -0.028950492 0.03968843 -0.049428888 0.034939528

fc1.bias f4 [50]
00000000: b6de 08bd 954d 02bd 254c 783b ffe2 d63c
00000010: 045b 973b 1dba 4dbb c316 f4bc 8242 17bd
00000020: 2528 01bc 6875 18bd 51fe 37bd 1f5e 903c
00000030: 98fe 4cbd 14d6 12bd 48aa 9dbb 2992 f73c
00000040: 6214 623d 6bc7 b5bb 50c2 163d 08eb 113d
00000050: 4782 3fbd be6a 31bd 8c01 03bd ed2a bb3c
00000060: 49d3 52bd 7745 4bbd e943 67bc 3d8c 89bd
00000070: f832 bf3c d0c1 5d3c 49cc 513c a057 a03d
00000080: 0f84 47bd acee 2f3d 138c 59bd 398b 2a3d
00000090: 7752 0c3d ea01 133d 0330 58bd a50c 2fbb
000000a0: aa98 f4bc 9360 1f3c f9a1 cb3c cf5a 2abb
000000b0: 8eb8 1d3d 8aa3 c73c 9e5f 4f3d 080b 103c
000000c0: e8cd 38bd fbf0 15bd
-0.03341552 -0.03181227 0.0037887183 0.026231287 0.004619004 -0.003139145 -0.02979601 -0.03692866
-0.007883106 -0.037221342 -0.04492027 0.017623005 -0.050047487 -0.035848692 -0.004811559 0.030221062
0.05519522 -0.005547454 0.036806405 0.035624534 -0.0467551 -0.043314688 -0.031983897 0.022847617
-0.05147103 -0.049626794 -0.014115312 -0.067162015 0.023339733 0.013534978 0.012805053 0.07829213
-0.048709925 0.042952225 -0.0531121 0.04163668 0.034258332 0.035890497 -0.052780163 -0.0026710418
-0.029857952 0.009727615 0.024857508 -0.0025994068 0.038506083 0.024369974 0.050628297 0.008791693
-0.045118243 -0.03660677

fc2.weight f4 [10, 50]
00000000: 37df abbd cdb3 0abd bc52 7f3d e220 2cbe
00000010: 2043 0abe 73e6 ec3d 5c12 923d cc4b 173c
00000020: b4e6 c73b cd2f c13b 74f5 f1bd b9fc 2d3c
00000030: d4e8 a0bc 0559 acbd de5d 84bb e3a5 f63c
00000040: 743f 183d 4e99 9ebd 71f7 48be 713f 81bd
00000050: 732d bf3c 03bf ea3d 7eae 05bb 8f26 b7bb
00000060: 8294 a7bd 6c71 063e 40f7 2f3b f33d 613d
00000070: 1103 d8bd c3f3 83bd b03b 15bb 6512 f23d
00000080: 91f6 983d 99cb 013e c6a0 193e fa15 9f3d
00000090: f177 b6bd 4644 9c3d d2e0 833d 3792 c6bd
000000a0: 5785 8b3b d2eb 603e 683d 203e 1a18 2d3e
000000b0: 00a4 f3bd d714 703e 53a8 d0bd 774e 13be
000000c0: 8ae5 213d 1283 98bd 92b3 3b3c 9b90 633d
000000d0: 5e70 afbd 2db9 00bd 94ae 0bbc 0a80 823c
000000e0: 2fa8 4cbc b396 0f3e f01b b8bd 5a9f 49bd
000000f0: a562 6b3e 016c 8f3d 5df4 873d bf0d f7bc
00000100: 033d 143e 6aa1 fb3d 5d86 843c 19e3 b7bd
00000110: dbd5 d2bc 17e4 203d 1eed fcbd 4309 1fbd
00000120: f07c 573d 32c2 cebd 74c2 293e ed42 2d3b
00000130: 5ae8 45bd a0eb c33a af4e 573d bd75 d9bd
00000140: c7e2 c9bc ac81 82be 3f83 943d 683a 75bd
00000150: 131a 92bd cef2 bf3d 01a6 02be 9ff4 da3c
00000160: 79c6 513c 132f 21be 753e b13d 1aa5 83bd
00000170: a475 d0bd f12f 8b3d 021c da3d ace7 063e
00000180: 2823 debd 128a fd3c 10cc ef3d b961 14bd
00000190: f49e b3bd 11c3 97b9 c14e c83d 4251 003c
000001a0: a211 003e b1f5 aabd 5566 fabb e1b0 193e
000001b0: 7862 14bb 8843 7c3d 4837 65bd ac7c 8cba
000001c0: 2f0c 36bd eedb 523d ddcc 90bd a63b 813c
000001d0: 46ee 073e 160b c6bd 552d 42bd f7aa a43c
000001e0: 931e 85bd 834c 95bd a0a9 3b3d 7524 243e
000001f0: f656 4f3e 12b4 78bd fb68 abbc c021 413c
00000200: ae77 57bd 9191 e53d 930a 7b3d 1e41 26be
00000210: 4b2f 54bd af8a 9c3c eb9f 473d 89ba 90bb
00000220: a564 a2bc 2155 003d 8db4 42bd bd89 19bd
00000230: a294 afbd 8d86 263e 00e4 3c3d 978a 973d
00000240: 53d7 79bd 9834 e9bc 28aa ee3c c6ef 49bd
00000250: 93b4 6e3d c2b4 d43c ca3e 613e 275a f23a
00000260: 303c 82bc c7d5 9cbd 25d4 fe3d 93c0 0ebd
00000270: da20 c93c 99d7 92bd 12dc ab3d cc80 d83d
00000280: 97e3 d2bd c844 b9ba 7918 ac3d 9af0 463e
00000290: 9255 153c e6be 353d b8de 1b3e 9df6 c3bd
000002a0: b72e bb3d 44eb a53d f710 06bd f250 2a3d
000002b0: 6451 02bc 0569 ca3d 7a14 7fbc 2d37 013e
000002c0: f6c6 483d 3497 bc3c 83c8 253d ab5d 4abd
000002d0: 4409 573d 55f5 77bd c6cf 8a3d f9fa 893c
000002e0: f1b6 b13d fa24 d73d 4326 4ebe d797 bf3d
000002f0: f58a 10be 4d4a 403d cb56 a5bd ee20 673d
00000300: 727c 13bd c5c6 e83c 7687 d53d 22a2 06bd
00000310: d168 333c 49d5 953d 0899 b13d 6160 da3c
00000320: 38fe 2e3d 5cff 88bc c924 20bd 0d1d 0cbe
00000330: 0512 cdbd 4293 a3bd 0b63 803d ea98 093e
00000340: a0fc 5fbd eebc d6bc 17f2 a53d 652c e4bd
00000350: 7842 80bd 79dd 23bd ee84 913d 2e58 50bb
00000360: 30c1 9cbd 9a0e 813d d892 e43d 85f4 cabd
00000370: 6f0f 313d 1d03 15be 6b46 063e e4dc 08bd
00000380: 606e 1c3d 7714 883d b17f 6d3d 0f8a c73d
00000390: 8c12 2cbd 781d f5bc 498f 65bd 7ca3 adbd
000003a0: 163b eb3d d4be 1abc d54a cd3d 2b8b 48bb
000003b0: c0a3 273e 6b9b 983d c530 abbc 574f 92bd
000003c0: f8ed 94ba 873d 2fbd b12a 9bbd 7d6d 0e3d
000003d0: fb3b 5dbd d426 c53d 6579 31bd 84e7 c3bd
000003e0: 1aa6 4cbc 634b 81bd 8539 fb3d a17a e9bd
000003f0: ae88 82bd b255 86bd 03a9 993d 960e 693d
-0.08392184 -0.033862878 0.06233476 -0.16809419 -0.13502169 0.11567392 0.07132408 0.00923438
0.0061005 0.005895591 -0.118143946 0.010619336 -0.019642271 -0.08415417 -0.00403951 0.030108398
0.03716989 -0.07744084 -0.19625641 -0.063109286 0.023337102 0.11462214 -0.0020398195 -0.0055893133
-0.081826225 0.13129205 0.0026850253 0.05499072 -0.1054746 -0.06442978 -0.0022771172 0.11819915
0.07468904 0.12675323 0.15002736 0.077678636 -0.08909596 0.076302096 0.064393654 -0.09695857
0.0042578387 0.21964958 0.15648425 0.16903725 -0.11896515 0.2344545 -0.10188355 -0.143854
0.039525546 -0.07446875 0.011456387 0.05555783 -0.08566354 -0.031426597 -0.008525509 0.015930194
-0.01249127 0.14022331 -0.08989704 -0.049224235 0.22986849 0.07003022 0.066384055 -0.030157922
0.14476399 0.12286647 0.01617735 -0.08978862 -0.02573674 0.039280023 -0.12349914 -0.038827192
0.052609384 -0.100956336 0.16578084 0.0026437596 -0.04831729 0.0014947541 0.052565273 -0.1061816
-0.024644269 -0.25489557 0.07251596 -0.059870154 -0.071338795 0.09372483 -0.12758638 0.026727973
0.012803667 -0.15740614 0.08654491 -0.06427975 -0.10178688 0.067962535 0.10649873 0.13174313
-0.10846549 0.030949626 0.11708844 -0.036226008 -0.08770552 -0.000289463 0.09780646 0.007831873
0.12506726 -0.08347643 -0.0076415935 0.1500888 -0.00226417 0.06158784 -0.055960923 -0.0010718307
-0.044445213 0.051479273 -0.070703246 0.015775513 0.13274488 -0.09670083 -0.047406513 0.020101054
-0.06499972 -0.07289984 0.045816064 0.16029532 0.20248017 -0.060718603 -0.020924082 0.011787832
-0.05260437 0.11209405 0.06128938 -0.16235778 -0.051802915 0.019109098 0.048736494 -0.004416768
-0.019823382 0.031331185 -0.047535468 -0.037484873 -0.08573271 0.16262265 0.046115875 0.07399481
-0.060996365 -0.028467461 0.029133871 -0.04930093 0.058277678 0.025965098 0.21996608 0.0018490002
-0.01589784 -0.07657962 0.12442807 -0.03485162 0.024551798 -0.07170028 0.083915845 0.10571441
-0.102973156 -0.0014134878 0.08403105 0.1942772 0.00911464 0.044371508 0.15221679 -0.09568522
0.091397695 0.08101514 -0.032731023 0.0415811 -0.007953975 0.09883312 -0.015568847 0.12618704
0.04901787 0.023021318 0.040474426 -0.049405735 0.05249907 -0.0605367 0.06777911 0.016843306
0.086774714 0.105050996 -0.20131783 0.09355133 -0.14115508 0.04694586 -0.08073195 0.05642789
-0.036007352 0.028415093 0.10426228 -0.032869466 0.010950283 0.073160715 0.086717665 0.026657285
0.04272291 -0.016723327 -0.03909758 -0.13682957 -0.100132026 -0.079870716 0.06268891 0.13437238
-0.05468428 -0.026213136 0.081028156 -0.1114128 -0.06262678 -0.040006135 0.071054325 -0.003179084
-0.07654035 0.06301613 0.11160821 -0.0990992 0.04322761 -0.14551969 0.131128 -0.033413783
0.0381912 0.06644528 0.057983104 0.097431295 -0.042009875 -0.029921278 -0.05604485 -0.08478448
0.11485879 -0.009444911 0.10024039 -0.0030600529 0.1637106 0.074515186 -0.020897279 -0.07144039
-0.0011362424 -0.042783286 -0.07576502 0.034772385 -0.05401228 0.096265465 -0.04332866 -0.095656425
-0.012490774 -0.06313207 0.1226683 -0.11400343 -0.06373726 -0.06559314 0.075029396 0.056898676

fc2.bias f4 [10]
00000000: a6ce 00be 283d edbc ed01 b93d 57f0 3f3d
00000010: fc33 0abd 0a1c c1bc d132 f93c 9bbd f43d
00000020: 350c 183d 5ba0 933d
-0.1257883 -0.028959826 0.090335704 0.046860065 -0.033740982 -0.02357294 0.030419739 0.11950227
0.037121017 0.0720832

momentum_buffer f4 [10, 1, 5, 5]
00000000: c28c 8e39 c2ac 113b 785d 82bb 0242 9abc
00000010: 3d49 a8bd c2f2 453b 740a 353b f5df 3d3b
00000020: fd28 41bc f742 24bd a08f cf3a 4809 a7b8
00000030: d93f 9ab8 7e26 30b9 c908 4b3b 587d 0fb8
00000040: 85b0 87b1 abdb 9bb7 ce86 1a34 dc0f aa3b
00000050: 1206 843c ed2c e63a 917e 8a36 a63d 22b8
00000060: 467c 18bc 863e f433 cb66 af35 0b42 003a
00000070: 9f24 5b38 d015 602c a03c b432 c622 1038
00000080: ec68 1039 4bd3 703a 988d 4423 5aa2 54b8
00000090: ddd0 a33a e19e 0034 6ab3 8033 c626 4b28
000000a0: b92d f4b9 cbbd 13b5 5eda 9322 0000 0000
000000b0: 3afe ee29 2d44 2b39 17b3 4a2c 0000 0000
000000c0: eef7 0200 b572 243a 4fe1 013a e755 9437
000000d0: 732c 4db7 92a7 8639 dc01 d9b8 8ef8 71b9
000000e0: 5189 8c38 62ce b6b9 4bc5 1aba ec52 9c39
000000f0: f218 853a cacc 1d39 2711 6fb9 a057 3f38
00000100: 0206 e73a 94db b639 b15c b6b7 3243 71ba
00000110: 7e60 5db8 fc8f 103b edef 8a36 e8bf 1139
00000120: 8434 1e3a 78e7 43b9 f4f5 7539 6068 d53d
00000130: daf8 c83d fef7 133d 5c38 093d 5904 a43d
00000140: 88a0 733e 370c 003e b4ad 4e3d e7d3 6e3d
00000150: 7032 ba3d 4896 4e3e fa99 443d 1d03 983c
00000160: a359 2f3d 3419 803d 2060 f53d 7716 b13c
00000170: f7e7 a53b 3877 4d3c c972 6a3e cf07 8e3d
00000180: 1c0e 493c 1017 79bb 5086 dd3d a79e c33e
00000190: 62ad c43e 28e1 ea3e 9cce af3e ab23 913e
000001a0: 02de 0b3e a762 c03e 5674 c53e c776 ac3e
000001b0: a0c7 853e 25af 3a3e 6bf3 533e d832 1b3e
000001c0: aaee 063e d512 073e d198 7b3d bb62 0d3d
000001d0: dc0f c43c 4077 d33c ea3e a23c ea40 47bc
000001e0: b880 9fbc 6919 a73b 8074 f23b 405f 383c
000001f0: 7fd9 03bd 86c6 c0be 8259 d2be 040d e7be
00000200: 0c2e edbe d643 f3be 3e75 39be cec6 70be
00000210: 8c20 a6be 0b9e acbe 1469 63be 40df ebbd
00000220: 4c1c 50be bc5a 3cbe 3815 dbbd cc23 80bd
00000230: 65ad ebbd 73e1 b8bd b01c 9dbd 04c9 99bc
00000240: 28a7 083c 324d 7abc 7e7d 9b3b 001b 493c
00000250: ade5 53bc eab3 1ebd 0245 acbb 89d8 91bc
00000260: f6c0 c136 6462 c92d 8299 032f 88a1 24ba
00000270: c622 cf34 d201 0000 0000 0000 ae6b 7027
00000280: 14f0 92b7 0000 0000 0000 0000 0000 0000
00000290: fa2a e607 bc1f 301d 0000 0000 0000 0000
000002a0: 0000 0000 346e f709 406e c521 f708 0000
000002b0: a333 2901 a333 2902 2d40 1490 5cdf 7fbb
000002c0: 6196 beba e00f be37 3831 7738 db84 95b7
000002d0: 42fe 91bb fa6a 85bb 941c 4eb9 b6cd f3b7
000002e0: 6b25 20bb 9073 17bb 956d 0ebb 059f 4bb9
000002f0: 86a5 21b9 bb28 d73a 92a0 b037 6f76 45b8
00000300: e322 f0b6 27fd 0eb8 e2fb e53b d09d 9d34
00000310: 6215 903b 5869 10af 980a d0ae 650c 89b9
00000320: acd1 743e f58f 703d 66ef b33c 01f3 e7bc
00000330: 3e00 b03c b8d5 113c 8db3 7dbd 7a24 07bd
00000340: 93c1 2dbd 0c00 6cbc 18df 1abe 1198 13be
00000350: 86c3 fdbd 5df9 74bd 5e90 39bd aa89 27bc
00000360: b826 543c 34a8 58bc 3e25 443d 8017 983a
00000370: 8f64 273d 71d9 ba3d 948f 0a3e 6989 cf3c
00000380: 1108 a9bc 881e 71bd c839 20bc cbd1 633c
00000390: 8048 a43c 296a 7d3c f7f2 2cbc 66e8 083c
000003a0: ac63 1f3c 70da 553b 3a95 8f3c a78a 63bb
000003b0: 645b c53c b59d 463d 8c0c 763d 909a e93c
000003c0: 5aac 02be 0605 97bd 230c 40bd 3643 64bd
000003d0: d292 d1bd b1f1 9dbe 7f2d b1be 5cdd a4be
000003e0: 585f abbe 4263 92be
0.00027189223 0.0022228216 -0.0039784275 -0.018830303 -0.08217094 0.003020451 0.0027624639 0.00289726
-0.0117895575 -0.040102925 0.001583565 -7.964909e-05 -7.355185e-05 -0.00016799007 0.0030980578 -3.4210592e-05
-3.949085e-09 -1.857973e-05 1.439141e-07 0.005189879 0.016116176 0.0017560996 4.1274548e-06 -3.8681224e-05
-0.009306973 1.13735084e-07 1.3068433e-06 0.00048926537 5.2247775e-05 3.1844423e-12 2.0982327e-08 3.436466e-05
0.00013771997 0.00091867585 1.0655165e-17 -5.069594e-05 0.0012498159 1.1978729e-07 5.9931e-08 1.1277171e-14
-0.00046573373 -5.503795e-07 4.0075635e-18 0.0 1.06134245e-13 0.00016333228 2.8805341e-12 0.0
2.72611e-40 0.0006273196 0.0004954533 1.7682976e-05 -1.2229301e-05 0.0002568332 -0.00010347713 -0.00023076145
6.7012974e-05 -0.00034867512 -0.0005904033 0.0002981642 0.0010154529 0.00015048977 -0.00022799206 4.5619556e-05
0.0017625692 0.00034877344 -2.1739253e-05 -0.00092034333 -5.278037e-05 0.0022058478 4.1406515e-06 0.00013899768
0.0006035047 -0.00018682878 0.00023456645 0.104202986 0.0981309 0.036125176 0.033501014 0.08008642
0.23791707 0.1250466 0.050458625 0.058307555 0.090916514 0.20174515 0.047998406 0.018556172
0.042810094 0.06254807 0.11981225 0.021617157 0.0050630528 0.012540631 0.2289535 0.06935083
0.01227143 -0.003800813 0.10816634 0.3820698 0.3841353 0.45874906 0.34337318 0.28347525
0.13658908 0.37575266 0.3856532 0.3368437 0.26128864 0.18230875 0.20698325 0.15156114
0.1317698 0.13190778 0.061425034 0.034517985 0.023933344 0.025813699 0.01980539 -0.012161473
-0.019470558 0.0050994647 0.007399142 0.011253178 -0.032189842 -0.3765146 -0.41083914 -0.45127118
-0.46324193 -0.47512692 -0.1811113 -0.23513338 -0.32446706 -0.33714327 -0.22208053 -0.11517191
-0.20323294 -0.18393987 -0.106974065 -0.06256828 -0.11507682 -0.09027376 -0.07671487 -0.01877261
0.008340634 -0.015277194 0.0047451844 0.012274504 -0.012933177 -0.0387458 -0.00525725 -0.017803447
5.774312e-06 2.2894749e-11 1.1968918e-10 -0.00062801735 3.8582056e-07 6.53e-43 0.0 3.3365064e-15
-1.7516351e-05 0.0 0.0 0.0 3.4631813e-34 2.3309812e-21 0.0 0.0
0.0 5.956672e-33 1.3378422e-18 3.216e-42 3.1077445e-38 1.2430978e-37 -2.9237293e-29 -0.0039043045
-0.0014540666 2.2657157e-05 5.8935228e-05 -1.782405e-05 -0.0044553587 -0.0040715905 -0.00019656337 -2.9063649e-05
-0.0024436365 -0.0023109652 -0.0021732796 -0.00019418828 -0.00015415819 0.0016415337 2.1055606e-05 -4.707876e-05
-7.1566187e-06 -3.4091205e-05 0.007018552 2.9358353e-07 0.0043970803 -1.313415e-10 -9.460627e-11 -0.0002613991
0.23908108 0.058731038 0.02196474 -0.028314115 0.02148449 0.008901052 -0.06193881 -0.03299377
-0.042420935 -0.014404308 -0.15124166 -0.14413477 -0.12390809 -0.059808124 -0.045303695 -0.010225693
0.012948684 -0.0132236965 0.04788708 0.0011603683 0.040867385 0.09123505 0.13531333 0.025334077
-0.02063373 -0.058867007 -0.009779401 0.013904999 0.020054102 0.015467205 -0.010555974 0.008356189
0.0097283535 0.003263142 0.017527211 -0.0034720094 0.02409143 0.048490245 0.06007056 0.028516084
-0.1276106 -0.07374005 -0.046886574 -0.05572816 -0.10233082 -0.30848458 -0.34605023 -0.32200134
-0.3347118 -0.28591353

momentum_buffer f4 [10]
00000000: c4e2 58b9 0500 3438 e683 5eba c031 103b
00000010: 3087 073a 85b9 1dbb 6af3 4ab9 ec12 4e38
00000020: 5ecf 28bb 1038 abbb
-0.00020683842 4.2915362e-05 -0.00084882823 0.002200231 0.0005169986 -0.0024066877 -0.000193549 4.913185e-05
-0.0025758366 -0.005225189

momentum_buffer f4 [20, 10, 5, 5]
00000000: 85d1 783b 9565 69bb 7755 b53a 5a7e 6c3a
00000010: 395f 1d3b 5f43 20bb e331 9e3a 0baa 963b
00000020: 1886 e33a 4edb 603b a687 04ba a854 2d39
00000030: 5965 31bb 6cd7 cd39 69dc 0dbc 81ed 95bb
00000040: 3962 fc3a eed1 d6bb eb3c 17bc 6a98 93bc
00000050: 267e 92ba a483 d238 a7a7 6a3c aa47 f83b
00000060: 8ab6 d53b 9418 23b9 956b a0b9 c803 9e38
00000070: 66c6 8639 8ea3 78b5 1471 81b8 8538 2739
00000080: c870 973a 9a3e f437 3504 f432 9157 ef38
00000090: 43a2 5838 5e3c 2d38 29d9 c1ae 415d 82b4
000000a0: 8b40 5337 c026 01b4 e318 7bb8 84ed 0bb9
000000b0: f176 c0af 64ae d7b8 99c8 e02f 2869 51b8
000000c0: 286d 1235 59ad 8137 729a 35b8 d559 fd39
000000d0: 94ca bdb7 2aee 99b9 f831 a7b7 7a15 7038
000000e0: ead1 cc38 5835 f73a ba52 6538 f3e8 b138
000000f0: 2cd0 4239 b39b 68b9 96e4 26b9 20c2 4c3a
00000100: 296e b238 fc6b 31b8 805e 8237 5c11 42b8
00000110: 3023 dbb6 5da1 1638 72fd 0ab8 e55b fdb8
00000120: 82e6 91b8 9b23 14ba 09ea dbb8 6c1c 4cba
00000130: cf36 f1bb b1a2 debc c7e6 313c e213 ba3b
00000140: ced5 33bc a080 c4bc 1649 23bd fab2 b83c
00000150: 0441 053b 86d4 57bd ea87 86bc 7dc3 f63c
00000160: 5553 3e3d f5dd 703c eb15 8abd 3046 5abc
00000170: af91 433d 16e9 e23c ea4b f53b 04c0 edbc
00000180: b05e 47ba 6eeb a53c 1469 03bc f291 78bc
00000190: 583f 1ebc a10d 05bd f63a 01bd e042 3ebb
000001a0: 7883 8039 9749 e2bc 2ca0 e7bc 6eed 0ebb
000001b0: 8a47 993c d39c d7bc 5eb0 65bc 894f 993b
000001c0: 48d8 633c 32e2 efbc 62ee 0fbd d880 a5bb
000001d0: a492 363c 4e88 ddbc ce97 14bc 6e4c 8fbc
000001e0: 7b60 703c f229 31bc 01a9 56bc e8a5 663c
000001f0: f5c4 b63b 967f 0dbd 179e 173c a802 ee3b
00000200: 2449 6c3c e661 513c f2ce b0bc 04c0 0cbc
00000210: 82d9 d6bb cb4d a03b 5668 ee3b 8a1c 89bb
00000220: 080f 9cbb 080d 14bc 0c3f 5dbc d30b 9ebd
00000230: b8bf b7b9 1e81 b73b 9880 8fbb 803b adbb
00000240: 9e8b 99bc e963 5e3a 1b7b 0d3c 2750 953d
00000250: 96f3 aa3d 629e ae3d 2cac 1138 47af 00b5
00000260: 5274 9436 a15e ab33 9f9f daac 4348 c8ae
00000270: 59b7 ae33 935c a2b8 e5dd 3fb2 fcd5 b02b
00000280: e498 cd37 3eb1 2db0 90bc b539 3849 92b0
00000290: ba57 f7ad 409a 08ae 0c58 9636 ed59 f036
000002a0: 2e0a 1b32 8acd 7b2c 62fa e42e a095 ee32
000002b0: 7c0e a530 a286 adb1 314b 6537 6e8d 56b9
000002c0: 041c 043a cab0 01b9 5c29 1a3a d0fc 9bb4
000002d0: 9e5a ff37 2e9f 25b9 d6b2 3bba 354c 6fb6
000002e0: 3c03 58b8 9fa4 ae38 daa4 b93b 2a35 dc3a
000002f0: 44f4 bfb7 caea 2336 6a66 de36 d630 c939
00000300: c1d8 bf37 fbfc 5ab9 b0f6 1b39 646c 0e37
00000310: 2131 52b6 ba51 0337 0c6b 6539 4032 dc39
00000320: 83e0 11bd cd7b b5bc 40ef 4aba 067a afbb
00000330: 1815 363c 602a c43a ee29 82bc d904 dfbc
00000340: cf76 b8bc 100a b4ba 3dcc b3bc e65f af3b
00000350: 1128 a5bb f84a 25bd 09f5 aebd 82f8 603c
00000360: 87f8 9a3c 0cb6 a0ba bdb5 c1bc 784f 543c
00000370: faae ed3b af2b 6b3c 00be d5bb b998 6a3c
00000380: ccfd 2d3d 3e99 643c 40fe 15bb ae5f 33bc
00000390: f8e0 a1bc 177d ffbc a40d 973c 8849 9c3b
000003a0: 6e27 653b 6ffd 38bc ac92 c8bc 7c79 80bc
000003b0: ac7c 4fbc b037 87bb ff92 573c 173a d83c
000003c0: 42ae e7bc ff5b 83bc 16c3 92bb 24df 893c
000003d0: 84ef 143d b024 b53a 1488 84bc d8f9 3bbc
000003e0: 9669 22bc b19e dcbc 0421 26bc a735 1fbc
000003f0: ce48 643c a07a 05b9 dfab b1b9 edbc 74bc
0.003796668 -0.0035613526 0.0013834675 0.00090215134 0.0024013056 -0.0024454219 0.0012069311 0.0045979074
0.0017358689 0.0034310403 -0.00050556136 0.00016530103 -0.0027068465 0.0003926115 -0.008658507 -0.004575432
0.0019255347 -0.0065557873 -0.009230833 -0.018017013 -0.0011176511 0.000100381 0.014322198 0.0075769024
0.0065220045 -0.00015554047 -0.00030597733 7.5347314e-05 0.0002570629 -9.26252e-07 -6.172262e-05 0.00015947416
0.0011553997 2.9116218e-05 2.8407252e-08 0.000114127186 5.164953e-05 4.1302636e-05 -8.815199e-11 -2.4282238e-07
1.2591608e-05 -1.2028158e-07 -5.986624e-05 -0.00013344554 -3.500911e-10 -0.00010284482 4.0887896e-10 -4.9927417e-05
5.454808e-07 1.545872e-05 -4.32976e-05 0.0004832285 -2.2624889e-05 -0.0002935988 -1.993122e-05 5.724046e-05
9.7665776e-05 0.0018860502 5.46749e-05 8.483408e-05 0.00018578832 -0.00022183247 -0.00015916149 0.00078109093
8.50822e-05 -4.2300657e-05 1.5541213e-05 -4.626937e-05 -6.530805e-06 3.5913068e-05 -3.3137803e-05 -0.00012081097
-6.957074e-05 -0.00056510576 -0.00010486326 -0.00077862176 -0.00736127 -0.027177187 0.010858244 0.0056786397
-0.010976268 -0.023987114 -0.039864622 0.02254628 0.0020332942 -0.052692913 -0.01642223 0.030122513
0.04646619 0.014701356 -0.06742462 -0.013322398 0.047746357 0.027699035 0.0074858563 -0.029022224
-0.0007605357 0.020253863 -0.008020658 -0.015171515 -0.009658657 -0.0324837 -0.03155037 -0.002903156
0.00024512014 -0.027622981 -0.028274618 -0.0021809 0.01871087 -0.026319897 -0.0140191 0.004678671
0.013906546 -0.029282663 -0.03513945 -0.0050507598 0.01114336 -0.027042534 -0.009069396 -0.0174925
0.01467144 -0.010813223 -0.013101817 0.014077641 0.0055776783 -0.034545504 0.009254 0.0072635002
0.014421735 0.012779688 -0.021583054 -0.008590702 -0.0065566907 0.004892086 0.0072756214 -0.0041843103
-0.004762534 -0.00903631 -0.013503801 -0.07717099 -0.00035047322 0.0056001088 -0.0043793432 -0.005286634
-0.018743332 0.00084835157 0.008635308 0.072906785 0.083472416 0.08526303 3.473104e-05 -4.793878e-07
4.424285e-06 7.980021e-08 -6.213654e-12 -9.107783e-11 8.135857e-08 -7.742005e-05 -1.1168116e-08 1.2564945e-12
2.45091e-05 -6.318891e-10 0.000346635 -1.0643708e-09 -2.8119607e-11 -3.105982e-11 4.4805984e-06 7.163026e-06
9.024502e-09 3.5783342e-12 1.04127165e-10 2.7774888e-08 1.2009447e-09 -5.0502686e-09 1.36669705e-05 -0.00020461317
0.0005039575 -0.00012368258 0.0005880797 -2.9054945e-07 3.0440566e-05 -0.00015794925 -0.00071601325 -3.5658134e-06
-5.1501425e-05 8.3276296e-05 0.005665404 0.0016800512 -2.288272e-05 2.4425558e-06 6.628038e-06 0.00038374093
2.2869908e-05 -0.00020884343 0.0001487385 8.489096e-06 -3.1321035e-06 7.827237e-06 0.0002187902 0.0004199911
-0.0356145 -0.02215376 -0.00077413395 -0.0053551225 0.011113428 0.0014966242 -0.015889134 -0.027223991
-0.02251759 -0.0013735909 -0.021947974 0.005352008 -0.0050401767 -0.0403547 -0.085428305 0.013731124
0.018917335 -0.0012261285 -0.02364623 0.0129584 0.007253525 0.014353677 -0.006522894 0.0143186385
0.042478368 0.013952551 -0.002288714 -0.010948105 -0.019760594 -0.031187577 0.018439122 0.004769508
0.003496613 -0.011290892 -0.024484001 -0.015682928 -0.012664001 -0.0041265115 0.013157605 0.026394887
-0.028281335 -0.016035078 -0.0044788225 0.016830035 0.036361232 0.0013820138 -0.016178168 -0.011473142
-0.009912869 -0.026931139 -0.0101397075 -0.009717382 0.013933374 -0.0001272955 -0.00033888125 -0.014937622

momentum_buffer f4 [20]
00000000: b023 92b8 d583 e33a 0499 753a e179 533b
00000010: 436e d5ba dceb 2c38 ed87 1938 5b3f 7d39
00000020: 0000 0000 ed2e fa39 3b1c 16b9 8cf9 0abb
00000030: 9632 a93a 1c33 4bb8 9616 adba 39ea 043a
00000040: e2e5 9d39 d23d 8137 dfbe 56ba 4086 a43a
-6.96847e-05 0.0017358015 0.00093688094 0.003226869 -0.0016283471 4.1227657e-05 3.6604633e-05 0.00024151562
0.0 0.00047718678 -0.00014315631 -0.002120587 0.0012908753 -4.844657e-05 -0.0013205584 0.0005070302
0.0003011665 1.5406786e-05 -0.0008191894 0.0012552217

momentum_buffer f4 [50, 320]
00000000: 54a9 c7bc ed9e 98bc 76ac c33a 4fc5 eaba
00000010: 7935 68bc 6bf7 73bc 7ee5 46bd eedf 64bc
00000020: 05ad 10bc bbfa 0ebc 9cb1 bebc 69c0 44bc
00000030: e3ed 813a 604d 2dbc 85cd 9dbc 1044 e3bc
00000040: f67e 4cbb a46f 4cba 79c4 5836 9f2c 7b35
00000050: 265d fa37 2f7c 9730 3dcb 23bd 471f b7b7
00000060: 7b0d e3bd 05a2 4abe 9515 05be b863 34bb
00000070: b4c7 28be a837 ffbd f881 92ba c5b0 a5bd
00000080: e0ec ddba 0812 f4aa 0000 0000 0000 0000
00000090: ee57 13b5 d79b a1ab 0000 0000 0000 0000
000000a0: 0f2e 9e33 92fa cb2c 0000 0000 0000 0000
000000b0: 881c 44bb a57a d12b 0000 0000 0000 0000
000000c0: 6317 d0bc 10cf c1ba 5ebe 5b2c 1d6a fc36
000000d0: 91ea 8b3a 7e9d eb3b bb91 ad3b 72b5 3cb9
000000e0: fd6e debd 4f74 48bc acc1 eeb7 23f1 aab7
000000f0: 9adb 4fbd a3c1 3fb4 6060 032c b1ab 8eb8
00000100: 91e9 e1bd 69cb 84bd d10d 19bd b844 f93b
00000110: 140e 19be d7d5 10be 8df3 ddbc 093c 403c
00000120: b556 01be 44d0 1cbe 58d8 8fbd 59f1 79bb
00000130: 3611 bdbd 153b 3ebd 2f25 be39 53de 93bd
00000140: 93d5 0eab 6a55 0000 a706 0200 0000 0000
00000150: b1a1 79a9 6285 251f 9bf6 90b0 6e77 6423
00000160: a408 6aad c0e0 2cb4 39ca 97b6 b570 262f
00000170: fc68 9bac 5f6e 6e35 af91 6235 1f99 e3a6
00000180: 6a21 e5ad 38d0 311e 0000 0000 0000 0000
00000190: f7bc eab3 e097 0f36 0000 0000 0000 0000
000001a0: c6cf ac24 62d2 5536 0000 0000 0000 0000
000001b0: 7cd5 8e35 6a22 8896 0000 0000 0000 0000
000001c0: 1a3c b3bc aacc 88a1 0000 0000 0000 0000
000001d0: 61bf 14bc 4fc9 232a 2ff3 321c 0000 0000
000001e0: d2f2 d738 ca86 fb34 c3e9 a41a 0000 0000
000001f0: 90a0 95b6 337e 3c36 238f 1d20 0000 0000
00000200: 0000 0000 0000 0000 0000 0000 0000 0000
00000210: 0000 0000 0000 0000 0000 0000 0000 0000
00000220: 0000 0000 0000 0000 0000 0000 0000 0000
00000230: 0000 0000 0000 0000 0000 0000 0000 0000
00000240: 42a5 49bb 979b 85a1 0000 0000 0000 0000
00000250: abc2 1532 0000 0000 0000 0000 0000 0000
00000260: 6efe 4128 0000 0000 0000 0000 0000 0000
00000270: bc71 2128 9b46 3d93 0000 0000 0000 0000
00000280: 0ee2 10b9 06cf a2ba add2 a0a4 1f8f 5ca5
00000290: 542f e037 bb07 b5bb b26d 39b3 c009 18ba
000002a0: 6877 a8b9 a367 3bb9 441b 29ba 399a b42d
000002b0: 056f 3139 f492 0eb7 178e e336 9357 4e2b
000002c0: 5b2d 02bc 9a77 d1bb 071f 90bb 44f1 12ba
000002d0: 407c 2dbd bd3c b4bc 3ea5 16bb 5efc 0abd
000002e0: c032 99bd 5ea5 bebd 3bfe 3abd e1fe af3a
000002f0: 0810 c4bc 1709 15bd 40f9 5637 5118 babb
00000300: 04ba e4b7 8b92 93b9 8230 4ab9 0000 0000
00000310: 8cbd 3eba d6c4 94bc 9966 74bd 3624 44ac
00000320: 02bd 08bd 116e 83bd da0a 9fb9 0600 b023
00000330: cceb 00bd 7afd fd36 c802 7136 fb64 22b8
00000340: 1a76 bebb aea5 873b ce68 dbbb dea7 0bbd
00000350: d8ef bfbb 2786 aa3b 7c77 14bd 1d12 e9bc
00000360: 86c6 dfb7 698d 76b9 88c9 daba 0e7b e83c
00000370: 1515 d2b9 fff8 9abb e00f e6bc 630c 9dbc
00000380: 257f 9f39 071f 5939 089c d238 87d4 b1a6
00000390: bac0 04be e0e0 9fb6 63fc 8636 acaf ce39
000003a0: 52c6 c1bd 5cc6 1dbc 14d7 d236 86a4 5dbb
000003b0: e63c 1c3b 3b99 9337 6c77 efbb 5101 0dbd
000003c0: 05a0 fe39 9495 a6ba 7e08 5db9 68b4 972e
000003d0: 6bf4 133b d792 1c32 3900 931a 6752 e722
000003e0: bd50 fa37 7a7c d8ae 8be6 74b2 ed2a 6523
000003f0: 0685 3c33 f49e 8430 38c6 efa4 0000 0000
-0.024372734 -0.01863047 0.0014928717 -0.0017911586 -0.014172905 -0.014890532 -0.048558705 -0.013969405
-0.008830314 -0.008726771 -0.02327805 -0.012008765 0.0009912815 -0.01057753 -0.019263038 -0.027742416
-0.0031203604 -0.0007798618 3.230087e-06 9.356972e-07 2.9845698e-05 1.1021991e-09 -0.039988745 -2.1829865e-05
-0.110865556 -0.19788368 -0.12996514 -0.0027525257 -0.1648243 -0.124617875 -0.001117765 -0.08090357
-0.0016931556 -4.3355619e-13 0.0 0.0 -5.488972e-07 -1.1482992e-12 0.0 0.0
7.365826e-08 5.797426e-12 0.0 0.0 -0.0029924233 1.4884384e-12 0.0 0.0
-0.025401777 -0.0014786441 3.1227447e-12 7.5225385e-06 0.0010674765 0.0071904054 0.0052969134 -0.00017996671
-0.10861013 -0.012234761 -2.8461996e-05 -2.0377867e-05 -0.050746538 -1.7858706e-07 1.8669719e-12 -6.803068e-05
-0.110308774 -0.0648411 -0.037366692 0.007607069 -0.14946777 -0.14144073 -0.027093673 0.0117330635
-0.12630732 -0.15313822 -0.07023686 -0.003813824 -0.09231798 -0.046443064 0.00036267328 -0.07220139
-5.074493e-13 3.0641e-41 1.86057e-40 0.0 -5.542935e-14 3.505044e-20 -1.0547468e-09 1.2385195e-17
-1.3303279e-11 -1.6100512e-07 -4.5236925e-06 1.5137654e-10 -4.4170206e-12 8.882252e-07 8.440356e-07 -1.5792793e-15
-2.6049125e-11 9.413361e-21 0.0 0.0 -1.09308466e-07 2.1397063e-06 0.0 0.0
7.494509e-17 3.1861932e-06 0.0 0.0 1.0641957e-06 -2.1993703e-25 0.0 0.0
-0.021879245 -9.269893e-19 0.0 0.0 -0.009078831 1.4547151e-13 5.9209567e-22 0.0
0.00010297228 4.6850465e-07 6.820647e-23 0.0 -4.459238e-06 2.808764e-06 1.3345777e-19 0.0
0.0 0.0 0.0 0.0 0.0 0.0 0.0 0.0
0.0 0.0 0.0 0.0 0.0 0.0 0.0 0.0
-0.0030768667 -9.053615e-19 0.0 0.0 8.717204e-09 0.0 0.0 0.0
1.0768823e-14 0.0 0.0 0.0 8.9619576e-15 -2.3889965e-27 0.0 0.0
-0.00013817122 -0.0012421317 -6.974584e-17 -1.913045e-16 2.672492e-05 -0.005524603 -4.3173436e-08 -0.00057997927
-0.00032132422 -0.00017872317 -0.0006450901 2.053212e-11 0.00016921393 -8.498075e-06 6.7816686e-06 7.3307435e-13
-0.007945384 -0.0063924314 -0.00439823 -0.00056054094 -0.042354822 -0.022001619 -0.0022986676 -0.033932082
-0.07480383 -0.09308885 -0.04565261 0.00134274 -0.023933426 -0.036385622 1.2813427e-05 -0.0056791683
-2.7266338e-05 -0.00028147208 -0.00019282292 0.0 -0.00072761695 -0.018160265 -0.059668157 -2.7873376e-12
-0.033383377 -0.06417478 -0.00030334928 1.9081968e-17 -0.031474873 7.569496e-06 3.5913417e-06 -3.8717855e-05
-0.0058124186 0.0041396236 -0.0066958433 -0.034095638 -0.005857449 0.0052039805 -0.03624676 -0.02845102
-2.6676116e-05 -0.00023513068 -0.0016692141 0.02837899 -0.0004007003 -0.0047293897 -0.028083742 -0.019170946
0.00030421573 0.00020706291 0.000100426434 -1.2339448e-15 -0.12964144 -4.764748e-06 4.022893e-06 0.00039422268
-0.09461655 -0.009629812 6.283526e-06 -0.0033819987 0.002384001 1.7595119e-05 -0.0073079374 -0.034425084
0.0004856588 -0.0012709373 -0.00021079366 6.8987316e-11 0.0022576104 9.113783e-09 6.0798135e-23 6.2699922e-18
2.9839919e-05 -9.844654e-11 -1.4255089e-08 1.2423205e-17 4.3893145e-08 9.649441e-10 -1.03985523e-16 0.0

momentum_buffer f4 [50]
00000000: 430a 90bb 7e4e 10b8 8daa d5ba 5050 0e3a
00000010: 9c24 703a 93ba 913a a653 90ba 4e69 a1b9
00000020: 31d8 9dba e639 99b9 1231 133b db40 f8ba
00000030: 72f2 063a cf6a 5fba 02ea 86b7 6e02 bdb7
00000040: 5eec 35bb f067 42bb 5d16 21bb 8fa2 cdb7
00000050: 8e08 b538 702a 40b8 fab4 fc38 ed00 32bb
00000060: 1c0f 4abb ba9f c739 a806 5839 d439 afb8
00000070: da47 49b9 cea8 08bb 6ebe 5e3b 50d2 743b
00000080: fb70 b1b7 d262 c03a c7b5 38b7 14c9 cfb7
00000090: 1495 5eb9 29a9 bcb9 5b0f 1ebb e975 0bbb
000000a0: a8df 6eb8 7111 45ba d6c2 a33b ad24 5eba
000000b0: 5dc8 243a d16e 3a3a 8492 18b9 54f9 22b9
000000c0: e4b0 45b7 ae4f 243a
-0.0043957545 -3.4405377e-05 -0.0016301438 0.00054288376 0.00091607287 0.0011118226 -0.0011011257 -0.0003078677
-0.001204258 -0.00029225572 0.0022459668 -0.0018940227 0.00051478215 -0.00085226906 -1.6083013e-05 -2.2531687e-05
-0.0027759294 -0.0029664002 -0.002457998 -2.4513602e-05 8.632346e-05 -4.581589e-05 0.00012050006 -0.0027161196
-0.003083176 0.00038075243 0.00020601845 -8.3554216e-05 -0.0001919562 -0.0020852569 0.0033988017 0.0037356801
-2.1152655e-05 0.0014677888 -1.1009578e-05 -2.4769957e-05 -0.00021227106 -0.00035984188 -0.002411804 -0.0021279997
-5.6951918e-05 -0.00075175526 0.0049975915 -0.0008474093 0.000628596 0.000711185 -0.00014550431 -0.00015542406
-1.1783301e-05 0.0006267977
