quick-start/notebooks_gpu/logs/log_20240523-13_35/model_epoch_2.bin (torch, 180126 bytes, 16 tensors)

conv1.weight f4 [10, 1, 5, 5]
-0.21775398 -0.094029166 -0.21424775 0.11745263 0.06578762 0.041313414 0.045072958 0.015088807
-0.08734693 0.13714573 -0.12744972 -0.036207914 -0.11520724 -0.13852255 0.03867 -0.2099142
-0.18195061 -0.1490257 -0.17106628 -0.1818376 -0.0049489634 -0.0112532955 -0.22234556 -0.231823
-0.037708797 -0.038125373 -0.15571564 0.017132968 -0.06642768 -0.22461474 -0.14013742 -0.1277353
-0.011040782 0.030055756 -0.20133626 -0.077383995 0.06630487 -0.12520635 -0.051019613 -0.07404403
0.033467233 -0.27108195 -0.08554915 -0.013964955 -0.028943028 -0.088547565 -0.20871513 -0.10659147
-0.037728027 -0.036944438 -0.0091043925 -0.0644886 -0.20601745 0.018825946 -0.02665372 -0.13852815
-0.20720561 0.031337447 0.009989376 -0.12052406 0.056528676 -0.10143606 0.013640491 -0.14079243
-0.16310887 -0.1600825 -0.11594042 0.05244029 -0.27139664 0.1070385 -0.15375298 -0.10716862
0.03617343 -0.09947508 -0.17796922 -0.014705586 -0.15393764 -0.29924047 -0.026086265 -0.06374471
0.15255608 -0.120884806 -0.08602161 -0.16180818 -0.07669171 0.032027986 -0.10600578 -0.15631784
-0.0796984 0.0054625254 0.20559351 -0.117860354 -0.21638145 -0.009433792 -0.0033800188 -0.088658564
-0.23189282 -0.14556612 -0.17482884 0.24703574 -0.048561085 0.15151115 -0.041567538 0.11592874
-0.27107918 0.054981463 0.13335316 -0.061686672 0.13565326 -0.2929111 -0.0354799 0.013283124
0.091541074 -0.09473397 -0.31815404 0.09049169 0.069089845 -0.16401163 -0.29063857 -0.15866688
-0.3027809 -0.2719478 -0.26276305 0.03464693 0.14679787 0.0077095693 0.07327971 0.053283144
0.06827857 0.09943518 -0.053447794 0.020294823 -0.059183467 0.017139422 0.09211325 -0.11179524
0.1506401 0.016058 0.015307673 0.17185843 -0.23106351 0.066909246 0.07288631 0.039518394
-0.030624023 -0.37172464 -0.33030966 -0.28407568 -0.2635838 -0.12060068 -0.08557447 0.039277494
-0.19844227 -0.30079627 -0.020111842 0.022219928 -0.16681464 -0.055588868 -0.091561995 -0.047481585
-0.21140702 -0.2241289 -0.10341927 -0.126793 -0.28981376 -0.06999534 -0.042305633 -0.12823744
-0.17346387 -0.0073247068 -0.1592694 -0.22550316 -0.06274665 -0.013879801 -0.24273211 -0.12772228
-0.15906274 -0.21935172 -0.0044388655 -0.28573683 0.059922256 0.19347748 0.036561776 -0.070597015
-0.013838051 0.017670643 0.045037705 -0.019024564 -0.06875551 -0.15548396 -0.18105635 -0.09546919
-0.0115666455 -0.057509758 0.04722792 -0.22349356 0.015100601 -0.25588334 -0.1385946 -0.13674386
0.061207425 0.0094514005 -0.06736303 -0.089500405 -0.25734174 0.08121536 -0.13241968 0.082185194
0.012706562 0.069303386 0.06912001 -0.10079519 0.15548418 0.090010345 0.12440336 0.020379204
-0.08275242 -0.105133645 0.076657176 -0.07768694 0.0409121 -0.104695596 -0.1214729 -0.34727737
-0.21349142 -0.17349537 -0.12154627 0.0339869 -0.0642568 0.05585273 -0.20607772 -0.30038908
-0.16405177 -0.23372671 -0.23816006 0.020340333 0.15413655 0.014924696 -0.121513546 -0.26991612
0.15492009 -0.14107947 -0.014533885 0.044527266 -0.05274375 -0.04954419 0.2587383 0.041180477
0.121863395 0.018281052
00000000: e6fa 5ebe 5d92 c0bd c363 5bbe 018b f03d
00000010: a9bb 863d 4138 293d 6c9e 383d 0b37 773c
00000020: f2e2 b2bd ee6f 0c3e 2e82 02be c04e 14bd
00000030: c6f1 ebbd dbd8 0dbe 6f64 1e3d bff3 56be
00000040: 4351 3abe 319a 18be 002c 2fbe a333 3abe
00000050: ea2a a2bb be5f 38bc 8eae 63be 0263 6dbe
00000060: 8a74 1abd 5a29 1cbd ec73 1fbe 705a 8c3c
00000070: 3c0b 88bd 6801 66be 2f80 0fbe 0bcd 02be
00000080: 65e4 34bc 7d37 f63c 182b 4ebe 807b 9ebd
00000090: d9ca 873d 1836 00be f1f9 50bd 65a4 97bd
000000a0: f014 093d 41cb 8abe 6534 afbd 44cd 64bc
000000b0: ee19 edbc 6d58 b5bd 6bb9 55be a14c dabd
000000c0: b488 1abd 0d53 17bd 972a 15bc 9912 84bd
000000d0: 3df6 52be df38 9a3c e758 dabc 53da 0dbe
000000e0: b52d 54be b25b 003d 7baa 233c 52d5 f6bd
000000f0: 9d8a 673d b6bd cfbd 5e7c 5f3c e42b 10be
00000100: 0306 27be abec 23be 2c72 edbd a1cb 563d
00000110: 80f4 8abe 0037 db3d 6c71 1dbe 397b dbbd
00000120: 972a 143d 97b9 cbbd 903d 36be b3ef 70bc
00000130: d4a1 1dbe 0c36 99be ddb2 d5bc 968c 82bd
00000140: a937 1c3e 7492 f7bd 192c b0bd 0bb1 25be
00000150: 8b10 9dbd c72f 033d 8f19 d9bd c911 20be
00000160: ea38 a3bd fcfe b23b 1b87 523e c560 f1bd
00000170: 1993 5dbe 3190 1abc 4e83 5dbb 9f92 b5bd
00000180: 5075 6dbe 490f 15be 5506 33be f0f6 7c3e
00000190: fde7 46bd bd25 1b3e b942 2abd 0c6c ed3d
000001a0: e4ca 8abe 3e34 613d bb8d 083e 2aab 7cbd
000001b0: b0e8 0a3e 72f8 95be 5f53 11bd 76a1 593c
000001c0: e379 bb3d e203 c2bd 16e5 a2be b553 b93d
000001d0: fa7e 8d3d aaf2 27be 94ce 94be 9279 22be
000001e0: 1906 9bbe be3c 8bbe e188 86be f0e9 0d3d
000001f0: 2e52 163e 8ea0 fc3b ac13 963d 6d3f 5a3d
00000200: a3d5 8b3d aca4 cb3d 13ec 5abd 5441 a63c
00000210: 5d6a 72bd f967 8c3c dfa5 bc3d e7f4 e4bd
00000220: 6641 1a3e 118c 833c 09cd 7a3c a8fb 2f3e
00000230: ea9b 6cbe b707 893d 6b45 953d 0ade 213d
00000240: 3bdf fabc b152 bebe 591e a9be 5e72 91be
00000250: 75f4 86be 7dfd f6bd ab41 afbd 70e1 203d
00000260: 7334 4bbe f801 9abe 97c1 a4bc 9106 b63c
00000270: 75d1 2abe 27b1 63bd db84 bbbd 0d7c 42bd
00000280: 157b 58be 0c82 65be 7bcd d3bd 06d6 01be
00000290: 7862 94be b859 8fbd ac48 2dbd ad50 03be
000002a0: 83a0 31be 1804 f0bb 8517 23be 4dea 66be
000002b0: 5181 80bd 1b68 63bc c48e 78be a1c9 02be
000002c0: 58e1 22be bd9d 60be e773 91bb 194c 92be
000002d0: 0a71 753d f61e 463e cdc1 153d 2b95 90bd
000002e0: feb8 62bc 06c2 903c 7579 383d 67d9 9bbc
000002f0: b0cf 8cbd 3037 1fbe d666 39be 5a85 c3bd
00000300: 0782 3dbc 5a8f 6bbd 1072 413d 7fdb 64be
00000310: 8368 773c 2403 83be beeb 0dbe 9506 0cbe
00000320: a3b4 7a3d 0cda 1a3c a1f5 89bd fd4b b7bd
00000330: 4cc2 83be 3d54 a63d 0699 07be b650 a83d
00000340: 2f2f 503c efee 8d3d cb8e 8d3d b56d cebd
00000350: 3f37 1f3e 5857 b83d 30c7 fe3d 4af2 a63c
00000360: 1a7a a9bd 4f50 d7bd 70fe 9c3d 551a 9fbd
00000370: 7293 273d a56a d6bd c9c6 f8bd 57ce b1be
00000380: 7f9d 5abe c5a8 31be 40ed f8bd d935 0b3d
00000390: 1299 83bd d5c5 643d 0a06 53be 99cc 99be
000003a0: 30fd 27be 0e56 6fbe 3be0 73be c5a0 a63c
000003b0: f9d5 1d3e b686 743c 18dc f8bd 7232 8abe
000003c0: 5fa3 1e3e 2377 10be 881f 6ebc 3962 363d
000003d0: d509 58bd d9ee 4abd 5979 843e dcac 283d
000003e0: 8493 f93d 25c2 953c

conv1.bias f4 [10]
-0.19685383 -0.00047582394 0.14000402 0.06422285 0.18097082 -0.08552917 -0.16774446 -0.10346236
0.10541204 0.06459395
00000000: 0d94 49be 0278 f9b9 375d 0f3e 4587 833d
00000010: 6a50 393e eb29 afbd 34c5 2bbe 13e4 d3bd
00000020: 45e2 d73d d549 843d

conv2.weight f4 [20, 10, 5, 5]
0.037567012 0.117381684 0.05264754 0.05322514 -0.07338093 0.0024274574 0.014914435 0.054988418
-0.033330813 0.04844599 0.06896861 -0.046852168 0.016142393 0.010930657 0.09434522 -0.0044221445
-0.0024002297 0.042877845 0.09023428 0.04116291 -0.029553628 0.028628085 0.10791689 0.028855363
0.036865786 -0.06012133 -0.0034667382 -0.008851566 0.060756132 -0.0030822647 -0.057004496 0.06300519
-0.042834535 -0.03758437 -0.018900892 -0.04231983 0.017505297 -0.022761503 -0.019221576 0.010991169
0.050313793 0.02572687 -0.018593254 0.029772086 -0.02136888 -0.056780525 -0.05248617 -0.0038641735
-0.052651368 -0.037467066 0.03993778 0.025291795 -0.052836858 0.057613816 -0.0051593264 -0.025999311
0.029705793 -0.05699242 0.017625952 -0.00487997 -0.015747769 -0.012177123 -0.043703515 -0.0133924605
0.053441115 -0.052573744 0.049695767 -0.0320517 0.014935057 0.06311209 0.006087969 -0.00054351223
-0.054402303 -0.0050005834 -0.040009763 0.028452871 0.09344507 0.04201553 0.011993955 -0.01113781
0.05363219 0.06305076 0.07296105 0.081937104 -0.017817704 0.11325666 0.070557445 0.013620984
0.015478019 0.014795688 0.046126746 0.054673363 -0.0034520738 -0.02730189 -0.023713328 -0.08531191
-0.042712938 0.05491321 0.017219093 0.009583737 0.016791588 0.030378556 0.013158756 -0.11684719
-0.13450034 0.067191064 0.046560653 -0.01967689 -0.08719005 0.07021232 0.07961296 0.011853028
-0.100675374 -0.081845306 0.055732157 0.09891673 -0.028419515 -0.041557766 -0.046466272 -0.03867681
-0.015411384 -0.006893899 0.018801017 0.039199803 0.027041279 -0.002796175 0.102133386 -0.031440172
-0.16659226 -0.15841664 0.02075605 -0.08507013 -0.03712562 -0.066898294 -0.040666714 0.015761543
-0.0636714 -0.019671723 -0.0123366695 0.013972485 -0.10074555 -0.04286178 0.056883495 0.002651021
0.026374055 -0.23906164 -0.062114287 0.04636094 0.01615744 -0.0718279 -0.05557188 -0.041693285
-0.06452304 -0.003253286 0.07975768 -0.017714966 -0.074668355 -0.054386575 0.031812306 0.06374564
-0.0635175 -0.0036647911 -0.008986155 0.04378285 0.002159688 -0.008917595 -0.07913866 -0.0064214966
-0.055201117 -0.067661084 -0.013708147 -0.056865975 0.02491478 0.010302387 -0.065411225 0.023095094
0.024508491 -0.051562615 -0.060859725 0.05791185 0.014718987 -0.06982982 0.00451393 -0.00086091185
0.020222578 -0.07098986 -0.022741085 -0.00092038594 0.009154051 0.077254385 -0.06043656 -0.03105232
-0.006602762 0.01980066 -0.012140053 -0.03997929 0.004532044 0.03726647 0.07583336 0.020940505
-0.0406457 8.447045e-05 -0.023514606 -0.07582785 0.038704064 0.052417684 0.06786057 -0.015121225
-0.1376429 0.02439546 0.07029654 0.058638703 -0.0011695032 -0.08144855 0.06752574 0.08277585
0.06815857 -0.11611869 0.021474648 0.057494856 0.016009139 -0.084069 -0.093896784 0.053103622
0.038907334 0.08387081 -0.104245044 -0.09282406 -0.008831001 -0.11776162 0.06250471 -0.08233033
-0.035237223 -0.13456315 -0.20841114 0.08428604 -0.032081798 -0.07924179 -0.07504476 -0.033559665
-0.07374914 -0.079670094 -0.07098846 -0.053812545 0.0015663902 -0.08290287 0.11817703 0.101688765
0.05353609 0.10686036 -0.06824176 -0.0073893503 -0.06880129 0.05220368 0.061330587 -0.09732064
00000000: dedf 193d cf65 f03d f2a4 573d 9b02 5a3d
00000010: be48 96bd fa15 1f3b ad5b 743c 893b 613d
00000020: e485 08bd 4d6f 463d 6a3f 8d3d 0fe8 3fbd
00000030: 0d3d 843c 8016 333c 1138 c13d a3e7 90bb
00000040: 2c4d 1dbb aea0 2f3d c0cc b83d 719a 283d
00000050: 731a f2bc 7285 ea3c 8803 dd3d 1562 ec3c
00000060: 9400 173d c941 76bd 3732 63bb 2906 11bc
00000070: 6cdb 783d d2ff 49bb 8c7d 69bd dd08 813d
00000080: 4473 2fbd 11f2 19bd 0bd6 9abc 8f57 2dbd
00000090: 4567 8f3c 5576 babc 9176 9dbc 4e14 343c
000000a0: d615 4e3d 28c1 d23c e150 98bc 97e4 f33c
000000b0: ca0d afbc b292 68bd bdfb 56bd 133e 7dbb
000000c0: f6a8 57bd 1177 19bd cc95 233d bd30 cf3c
000000d0: 766b 58bd 77fc 6b3d 910f a9bb 82fc d4bc
000000e0: 9059 f33c e270 69bd 4d64 903c 28e8 9fbb
000000f0: 7701 81bc 8e82 47bc 7502 33bd 0d6c 5bbc
00000100: 12e5 5a3d 9157 57bd ca8d 4b3d a548 03bd
00000110: 2bb2 743c e940 813d 967d c73b 7d7a 0eba
00000120: f3d4 5ebd efdb a3bb 47e1 23bd ff15 e93c
00000130: 2160 bf3d 7a18 2c3d 4b82 443c 5c7b 36bc
00000140: 6dad 5b3d c220 813d 9a6c 953d a4ce a73d
00000150: 6ff6 91bc 1cf3 e73d 6c80 903d 8c2a 5f3c
00000160: 8497 7d3c 9d69 723c 66ef 3c3d 2df1 5f3d
00000170: 303c 62bb 37a8 dfbc 7442 c2bc 03b8 aebd
00000180: c3f3 2ebd adec 603d 0e0f 8d3c 1b05 1d3c
00000190: 838e 893c 73dc f83c d397 573c 944d efbd
000001a0: 75ba 09be 789b 893d 62b6 3e3d 6e31 a1bc
000001b0: b290 b2bd 7acb 8f3d 1f0c a33d 3433 423c
000001c0: e42e cebd 839e a7bd 6747 643d db94 ca3d
000001d0: 0bd0 e8bc 7a38 2abd 6b53 3ebd 936b 1ebd
000001e0: 0880 7cbc 37e6 e1bb 9704 9a3c f98f 203d
000001f0: ac85 dd3c 0840 37bb 4f2b d13d 69c7 00bd
00000200: 2997 2abe f937 22be 9708 aa3c 4039 aebd
00000210: 0911 18bd f901 89bd 2492 26bd 5a1e 813c
00000220: 2766 82bd 9826 a1bc be1f 4abc daec 643c
00000230: af53 cebd d58f 2fbd abfe 683d c0bc 2d3b
00000240: 670e d83c 93cc 74be 8d6b 7ebd f8e4 3d3d
00000250: 9c5c 843c 821a 93bd 579f 63bd 94c6 2abd
00000260: a824 84bd 1535 55bb ff57 a33d fa1e 91bc
00000270: b9eb 98bd 75c4 5ebd 9f4d 023d 138d 823d
00000280: 7715 82bd fe2c 70bb aa3a 13bc a555 333d
00000290: 8d89 0d3b 1b1b 12bc 7313 a2bd 6b6b d2bb
000002a0: 911a 62bd e591 8abd 2398 60bc 4cec 68bd
000002b0: 151a cc3c 58cb 283c 52f6 85bd ec31 bd3c
000002c0: 08c6 c83c 5233 53bd 0c48 79bd fa34 6d3d
000002d0: e827 713c f002 8fbd 97e9 933b d1ae 61ba
000002e0: d2a9 a53c 2263 91bd 834b babc 0e46 71ba
000002f0: dffa 153c 8c37 9e3d 548c 77bd 6f61 febc
00000300: fb5b d8bb fe34 a23c 13e7 46bc 53c1 23bd
00000310: 8a81 943b baa4 183d 854e 9b3d 6c8b ab3c
00000320: 1b7c 26bd ba25 b138 b4a1 c0bc a24b 9bbd
00000330: 2788 1e3d edb3 563d 7cfa 8a3d 04bf 77bc
00000340: 43f2 0cbe fdd8 c73c a2f7 8f3d 232f 703d
00000350: 044a 99ba 7fce a6bd ef4a 8a3d 6386 a93d
00000360: b896 8b3d a3cf edbd 9aeb af3c ba7f 6b3d
00000370: 9925 833c 5e2c acbd f54c c0bd 2f83 593d
00000380: 4c5d 1f3d 76c4 ab3d 6d7e d5bd 8a1a bebd
00000390: e7af 10bc 012d f1bd 7802 803d ce9c a8bd
000003a0: e854 10bd ecca 09be bb69 55be 299e ac3d
000003b0: 3468 03bd 8549 a2bd 11b1 99bd dc75 09bd
000003c0: ca09 97bd 132a a3bd 6662 91bd 8b6a 5cbd
000003d0: 554f cd3a fbc8 a9bd cc06 f23d 3342 d03d
000003e0: a948 5b3d 9bd9 da3d 56c2 8bbd 5d22 f2bb
000003f0: b1e7 8cbd 87d3 553d c835 7b3d 0b50 c7bd

conv2.bias f4 [20]
0.058208082 0.010816919 -0.031007346 0.042958666 0.010077838 0.05135609 0.039581757 0.020590527
0.03434508 0.057893217 -0.05425734 0.052233018 -0.059101596 -0.015210288 0.012836927 0.044714827
0.054094955 0.00022282494 0.054775503 0.057160012
00000000: 996b 6e3d 7239 313c 1e03 febc 6df5 2f3d
00000010: 841d 253c c35a 523d 7b20 223d 77ad a83c
00000020: 6dad 0c3d 7021 6d3d f23c 5ebd 4af2 553d
00000030: 8414 72bd 9234 79bc f951 523c e526 373d
00000040: ac92 5d3d 1da6 6939 475c 603d 9e20 6a3d

fc1.weight f4 [50, 320]
0.044092588 -0.08191102 0.024802662 0.07797234 0.080444634 0.11682824 0.010391108 -0.063738614
0.005351357 -0.067863375 -0.009966397 -0.048180416 -0.02435219 -0.09039667 -0.002464918 0.051691107
-0.058874108 -0.078710705 0.008871426 0.023963438 -0.13060485 -0.03449994 -0.07197597 -0.063428715
-0.06532275 -0.014678846 0.026954586 0.012288487 -0.051491186 -0.026972031 0.0070523648 0.04172703
-0.039117754 -0.03144234 0.023215132 -0.027179383 0.018223172 -0.028882436 -0.0063266642 -0.0224748
-0.0009893554 -0.060008045 -0.028272001 0.0237318 0.017286444 -0.006370263 0.02700048 -0.016075967
-0.0690755 -0.06844529 -0.031292975 0.016372051 -0.07904261 0.00720908 -0.035968963 0.059789862
0.034151323 0.014695539 0.05729743 0.038844343 -0.034421258 -0.0120475935 -0.051637247 0.0057967617
0.022855718 -0.00061883754 -0.04783829 -0.062889986 0.014349338 -0.073162265 0.017318489 0.040522132
0.06619306 -0.011404438 0.051299475 -0.02871255 0.018078035 0.01309658 0.027000932 -0.019399783
0.028485782 0.0041655404 -0.05818651 -0.054280594 0.0161249 0.03180067 -0.039627768 0.042130537
-0.046688437 -0.0035217796 -0.02984067 -0.027996173 -0.002464399 0.0059356373 -0.014385042 -0.012409924
0.05599107 0.03784719 0.012464837 -0.067797616 -0.068327844 0.002279563 0.036384135 -0.034318976
0.0064537027 -0.05752869 0.0048726154 -0.06866737 -0.0039048237 -0.04570021 0.012382048 -0.018097108
-0.008583706 -0.008819592 -0.104739256 0.021044873 -0.00019240909 -0.027010385 -0.06821626 -0.008370997
0.027871775 -0.010473689 -0.058645956 -0.049637668 -0.10355608 -0.09919745 -0.021821583 0.034862604
-0.05605285 0.014684689 -0.031924125 -0.0022721246 -0.021348182 -0.011914181 -0.057800643 -0.0757632
-0.06968056 -0.023377754 -0.053745206 0.009787462 0.010156555 0.011018653 -0.02217238 -0.050260164
-0.052383758 -0.050922092 -0.05727255 -0.046428714 0.0010235324 -0.016210591 -0.020042103 -0.036771055
-0.067996174 -0.06919014 0.026412247 -0.07348628 -0.039674368 -0.032690156 -0.053213224 0.044210754
0.03237957 0.04042249 0.03967772 -0.021462917 0.023308473 0.06409361 -0.03641749 0.05451159
-0.02981287 0.0049661486 -0.04102832 -0.05635945 0.049308855 0.00088972313 0.0018544011 -0.09033077
0.16120982 0.048301063 0.01736513 0.04645264 0.07103797 -0.0022237408 -0.09086832 -0.018956423
-0.075187385 0.06596339 0.057751935 -0.050490916 -0.025521668 -0.04577944 0.009152063 0.05419008
-0.09073454 -0.09070274 0.02272105 -0.017388796 -0.055922717 -0.026625931 -0.042627893 -0.008470984
-0.04252947 -0.028704269 0.06558693 0.005906248 -0.09734444 0.0039023208 -0.012555958 0.10131346
-0.031150674 -0.06888624 0.066010684 0.016962199 -0.08520826 -0.00069133437 0.007705278 -0.0018644389
-0.12721151 -0.08849474 -0.1397597 -0.031315494 -0.042818457 -0.1030814 0.10015861 0.08872424
0.07490438 -0.017960986 -0.0010371647 0.024471732 -0.037875593 -0.044174023 -0.03303952 -0.009556657
0.046866916 0.008879931 -0.012717197 0.012425115 -0.08326334 0.01791848 -0.021802602 -0.01906748
-0.022794921 -0.024986073 0.022789072 0.0122391945 -0.084051035 -0.024255864 -0.068768576 -9.277726e-05
-0.014384244 0.023268918 0.011664604 -0.02297129 -0.038889118 0.031093081 -0.061473567 0.037408117
00000000: 6e9a 343d f7c0 a7bd f42e cb3c f6af 9f3d
00000010: 28c0 a43d a543 ef3d 773f 2a3c 6489 82bd
00000020: 705a af3b f4fb 8abd 194a 23bc d458 45bd
00000030: 3e7e c7bc e421 b9bd 768a 21bb 0eba 533d
00000040: fa25 71bd 1433 a1bd 7559 113c f94e c43c
00000050: 47bd 05be cf4f 0dbd 2368 93bd eae6 81bd
00000060: efc7 85bd 8b7f 70bc ddcf dc3c a655 493c
00000070: 6ce8 52bd 73f4 dcbc 8617 e73b f6e9 2a3d
00000080: f039 20bd afc9 00bd a92d be3c 4ca7 debc
00000090: c348 953c dc9a ecbc e84f cfbb 121d b8bc
000000a0: 42ad 81ba ffca 75bd af9a e7bc 3169 c23c
000000b0: 4d9c 8d3c a4bd d0bb 1c30 dd3c bfb1 83bc
000000c0: 7577 8dbd 0b2d 8cbd 102d 00bd ae1e 863c
000000d0: 18e1 a1bd 253a ec3b 3154 13bd 37e6 743d
000000e0: 42e2 0b3d 8fc5 703c b6b0 6a3d 3f1b 1f3d
000000f0: 4efd 0cbd 4563 45bc 9481 53bd c3f2 bd3b
00000100: ea3b bb3c 7c39 22ba 15f2 43bd 77cc 80bd
00000110: 7c19 6b3c 19d6 95bd 81df 8d3c 89fa 253d
00000120: 3a90 873d aed9 3abc 661f 523d 9536 ebbc
00000130: 6318 943c 0a93 563c 0f31 dd3c 4bec 9ebc
00000140: 045b e93c 167f 883b fa54 6ebd 5455 5ebd
00000150: 5e18 843c 6b41 023d ba50 22bd 1291 2c3d
00000160: 603c 3fbd a8cd 66bb 6c74 f4bc 3b58 e5bc
00000170: c181 21bb bc7f c23b 3daf 6bbc fe52 4bbc
00000180: e456 653d a805 1b3d 5139 4c3c 7ad9 8abd
00000190: 78ef 8bbd b964 153b 8807 153d 0e92 0cbd
000001a0: 9579 d33b 34a3 6bbd 76aa 9f3b 7aa1 8cbd
000001b0: 12e8 7fbb 2530 3bbd 13de 4a3c 6340 94bc
000001c0: aca2 0cbc 0d80 10bc 8981 d6bd 4c66 ac3c
000001d0: 6cc1 49b9 e244 ddbc f7b4 8bbd 8226 09bc
000001e0: 5953 e43c d699 2bbc be36 70bd de50 4bbd
000001f0: 3615 d4bd 0828 cbbd 2dc3 b2bc 17cc 0e3d
00000200: ac97 65bd 0d98 703c dfc2 02bd ede7 14bb
00000210: 62e2 aebc b233 43bc 5ec0 6cbd bd29 9bbd
00000220: aeb4 8ebd b482 bfbc ef23 5cbd 975b 203c
00000230: ae67 263c 9587 343c daa2 b5bc 9add 4dbd
00000240: 5a90 56bd af93 50bd 9f96 6abd 092c 3ebd
00000250: 0c28 863a 13cc 84bc 562f a4bc 3f9d 16bd
00000260: 9441 8bbd 8fb3 8dbd 7f5e d83c fa7f 96bd
00000270: 9781 22bd 1de6 05bd 1cf6 59bd 5616 353d
00000280: 71a0 043d 0e92 253d 1b85 223d 00d3 afbc
00000290: 69f1 be3c 8343 833d 822a 15bd 8c47 5f3d
000002a0: 1f3a f4bc 13bb a23b 500d 28bd 2bd9 66bd
000002b0: 15f8 493d 4f3c 693a 600f f33a 57ff b8bd
000002c0: 3014 253e 56d7 453d 5141 8e3c 2045 3e3d
000002d0: 5b7c 913d 2ebc 11bb 2b19 babd 804a 9bbc
000002e0: d8fb 99bd d017 873d 4b8d 6c3d 90cf 4ebd
000002f0: d112 d1bc 3983 3bbd 89f2 153c 6bf6 5d3d
00000300: 08d3 b9bd 5cc2 b9bd 7f21 ba3c f372 8ebc
00000310: 380f 65bd a01e dabc 969a 2ebd e2c9 0abc
00000320: 6233 2ebd 3725 ebbc 7152 863d 3389 c13b
00000330: 865c c7bd 14be 7f3b 81b7 4dbc 6e7d cf3d
00000340: b32f ffbc 3b14 8dbd 9c30 873d 4ff4 8a3c
00000350: ab81 aebd aa3a 35ba 8f7c fc3b 3060 f4ba
00000360: bc43 02be bb3c b5bd 2b1d 0fbe ad44 00bd
00000370: 6862 2fbd 571c d3bd f51f cd3d 0eb5 b53d
00000380: 7867 993d eb22 93bc 79f1 87ba f178 c83c
00000390: 7023 1bbd d2ef 34bd 7354 07bd 8693 1cbc
000003a0: 86f7 3f3d 217d 113c ca5b 50bc b692 4b3c
000003b0: f885 aabd c7c9 923c 5f9b b2bc 6733 9cbc
000003c0: 6abc babc 98af ccbc 26b0 ba3c e786 483c
000003d0: f322 acbd 3cb4 c6bc 8ad6 8cbd 6a91 c2b8
000003e0: e4ab 6bbc 759e be3c e51c 3f3c 492e bcbc
000003f0: 324a 1fbd ebb6 fe3c b5cb 7bbd 4139 193d

fc1.bias f4 [50]
-0.029766975 -0.032084417 0.0051404824 0.027731549 0.008144307 -0.0026200137 -0.02962078 -0.037720867
-0.0064981063 -0.03680462 -0.035640746 0.0186451 -0.0489519 -0.036374383 -0.00503557 0.030107351
0.056770187 -0.0023538067 0.043254904 0.036017958 -0.044581093 -0.040435024 -0.029467048 0.02501788
-0.046242934 -0.04846539 -0.012869304 -0.06989029 0.022517327 0.018342827 0.019978432 0.08032999
-0.049351536 0.045859415 -0.052781165 0.039726228 0.033456087 0.03619785 -0.052625313 -0.00014481242
-0.03092446 0.008876131 0.027405262 -0.004227965 0.044499684 0.02299753 0.051723577 0.011151602
-0.045085426 -0.033247307
00000000: dfd9 f3bc f36a 03bd 7e71 a83b 462d e33c
00000010: b36f 053c 89b4 2bbb 47a7 f2bc 3281 1abd
00000020: 11ee d4bb 71c0 16bd 08fc 11bd 9cbd 983c
00000030: ca81 48bd 4efd 14bd 6c01 a5bb b1a3 f63c
00000040: db87 683d 5342 1abb 0e2c 313d 9187 133d
00000050: aa9a 36bd 329f 25bd e164 f1bc 4cf2 cc3c
00000060: 3b69 3dbd a583 46bd c6d9 52bc a422 8fbd
00000070: 4276 b83c b243 963c cfa9 a33c 0d84 a43d
00000080: d624 4abd 15d7 3b3d 1031 58bd f8b7 223d
00000090: 4009 093d 3244 143d a48d 57bd cad8 17b9
000000a0: 4b55 fdbc 316d 113c 0081 e03c be8a 8abb
000000b0: 4d45 363d 5165 bc3c 1adc 533d 35b5 363c
000000c0: 7fab 38bd 542e 08bd

fc2.weight f4 [10, 50]
-0.10803216 -0.030970158 0.06174474 -0.17129782 -0.10588274 0.122894235 0.047968324 0.014914263
-0.00390679 -0.001835377 -0.065537564 0.020789305 -0.024695994 -0.08299639 -0.0047344402 0.026443014
0.080388576 -0.05965783 -0.18542044 -0.05854559 0.011022727 0.100831166 -0.015289192 -0.0043642367
-0.061995693 0.14720121 -0.0032499186 0.03519094 -0.10470346 -0.11037911 -0.034953244 0.0868583
0.07389736 0.09116521 0.12546676 0.057585623 -0.109934285 0.053447634 0.06707328 -0.049186666
0.0049097138 0.21530384 0.15130796 0.11614828 -0.117694035 0.17205158 -0.12238383 -0.13244739
0.03323095 -0.0447521 0.056033082 0.084352836 -0.05325349 -0.03669462 0.040807087 0.00644924
-0.016859835 0.14171793 -0.058156338 -0.049158167 0.22805479 0.05729679 0.058741644 -0.028167946
0.14409679 0.12447166 0.0021066365 -0.1123242 -0.03778054 0.036712497 -0.13173296 -0.074930735
-0.01808456 -0.038555756 0.17254996 -0.00049335527 -0.048305135 0.0008088049 0.050814655 -0.097922854
-0.0046820994 -0.23977432 0.07150805 -0.012846482 -0.08710096 0.09862637 -0.11371745 0.023887748
-0.06411742 -0.14723717 0.09571353 -0.06546504 -0.051721305 0.087505385 0.05808133 0.08630288
-0.11081718 -0.014598146 0.08976781 -0.0066547785 -0.041369047 -0.052639358 0.073442385 0.014051028
0.116953656 -0.05034603 -0.058868527 0.11880141 -0.041765485 0.08119255 0.00080094876 0.0067835758
-0.042927936 0.096987575 -0.07046113 0.011124795 0.14211062 -0.018309748 -0.03463096 0.01574307
-0.067939356 -0.0659464 0.039067708 0.1489834 0.1713933 -0.048098557 -0.009372473 0.021175591
-0.051059406 0.17740665 0.05734055 -0.13535292 -0.05073372 -0.002285435 0.05016855 0.015610538
-0.048832607 0.043697078 -0.070071034 -0.032775965 -0.08790773 0.1657016 0.073029324 0.009892615
-0.035828024 -0.020269431 0.033051148 -0.044843994 0.072553895 0.0020162005 0.16805361 -0.015912237
-0.031655286 -0.06397845 0.11591791 -0.044759218 -0.00085728004 -0.069134295 0.08866094 0.08304876
-0.07507084 -0.051397078 0.07916554 0.15500891 0.0132401 0.043669343 0.14205748 -0.10827523
0.108091995 0.0934726 0.010655443 0.004398258 -0.050469324 0.07257629 0.003218269 0.135313
0.07895603 0.018606277 0.039498415 -0.041097093 0.018641079 -0.07468453 0.06965389 0.0017012651
0.092658944 0.100921236 -0.17711242 0.081815764 -0.13243262 0.055968963 -0.054226626 0.057266492
0.012724742 -0.002613554 0.059375573 -0.038486473 -0.00080484047 0.051782764 0.09521083 -0.019625654
-0.012664299 -0.0011812105 -0.018534593 -0.13264193 -0.10496795 -0.07596949 0.1095898 0.100869544
-0.10969495 -0.030273162 0.068704724 -0.08318801 -0.06332496 -0.045695808 0.07035347 -0.0025277105
-0.08537409 0.049807776 0.10262635 -0.099880144 0.012334223 -0.10736066 0.17141166 -0.033296984
0.045808826 0.04647158 0.05422972 0.07898329 -0.04289332 -0.056836195 -0.05723193 -0.086204745
0.11243661 0.009481808 0.10232719 0.0037943441 0.1578614 0.078271806 -0.04996656 -0.053188995
-0.00062109024 -0.04394129 -0.12679517 0.040363986 -0.04087362 0.10328852 -0.057492856 -0.11630728
-0.004866415 0.017222218 0.09687179 -0.098157346 -0.04679497 -0.05354189 0.06941986 0.046031184
00000000: f73f ddbd 21b5 fdbc 0de8 7c3d b268 2fbe
00000010: 0dd9 d8bd f9af fb3d 6f7a 443d f45a 743c
00000020: 8804 80bb 0891 f0ba 8f38 86bd 554e aa3c
00000030: 414f cabc 03fa a9bd 5d23 9bbb 059f d83c
00000040: c4a2 a43d c55b 74bd dbde 3dbe 80cd 6fbd
00000050: ab98 343c 9280 ce3d 857f 7abc df01 8fbb
00000060: 32ef 7dbd eabb 163e 96fc 54bb 6024 103d
00000070: c56e d6bd 710e e2bd 222b 0fbd c4e2 b13d
00000080: 8057 973d d3b4 ba3d 5c7a 003e e7de 6b3d
00000090: 3a25 e1bd e8eb 5a3d b75d 893d f577 49bd
000000a0: aae1 a03b 9c78 5c3e 79f0 1a3e 26df ed3d
000000b0: 9209 f1bd 4a2e 303e 60a4 fabd 4aa0 07be
000000c0: 2d1d 083d fa4d 37bd f282 653d 2ec1 ac3d
000000d0: 5520 5abd 194d 16bd 5525 273d 2554 d33b
000000e0: a31d 8abc 811e 113e 5735 6ebd 135a 49bd
000000f0: 3287 693e 0ab0 6a3d 149b 703d 77c0 e6bc
00000100: 1c8e 133e ffea fe3d 7f0f 0a3b 3b0a e6bd
00000110: c4bf 1abd d85f 163d 01e5 06be 4975 99bd
00000120: 1226 94bc a4ec 1dbd f0b0 303e 8354 01ba
00000130: 9bdb 45bd fa05 543a 0723 503d c78b c8bd
00000140: 4c6c 99bb 6687 75be d072 923d 0d7a 52bc
00000150: fd61 b2bd 9ffc c93d b2e4 e8bd 3db0 c33c
00000160: fe4f 83bd 57c5 16be 7505 c43d 8912 86bd
00000170: b8d9 53bd 0636 b33d b0e6 6d3d 90bf b03d
00000180: 1ef4 e2bd 102d 6fbc 30d8 b73d 5410 dabb
00000190: 9772 29bd 5e9c 57bd f668 963d 4836 663c
000001a0: 6685 ef3d a437 4ebd 2020 71bd 274e f33d
000001b0: 4912 2bbd 4848 a63d c3f6 513a c248 de3b
000001c0: 34d5 2fbd 6ca1 c63d ed4d 90bd c644 363c
000001d0: 7285 113e 53fe 95bc 32d9 0dbd 9cf7 803c
000001e0: ca23 8bbd e80e 87bd 7605 203d 1b8f 183e
000001f0: ba81 2f3e fe02 45bd 008f 19bc 6f78 ad3c
00000200: ab23 51bd 17aa 353e eddd 6a3d f599 0abe
00000210: 29ce 4fbd 3dc7 15bb 8a7d 4d3d 58c3 7f3c
00000220: b304 48bd b5fb 323d 6781 8fbd 1740 06bd
00000230: f808 b4bd aead 293e 6690 953d a214 223c
00000240: 68c0 12bd 140c a6bc a460 073d 56ae 37bd
00000250: 2397 943d 3b22 043b 3f16 2c3e 615a 82bc
00000260: f9a8 01bd 2207 83bd 5f66 ed3d 7155 37bd
00000270: 17bb 60ba 4896 8dbd de93 b53d 7815 aa3d
00000280: bebe 99bd be85 52bd 8b21 a23d a8ba 1e3e
00000290: 01ed 583c a0de 323d 8477 113e 67bf ddbd
000002a0: 565f dd3d 906e bf3d 2b94 2e3c 431f 903b
000002b0: ecb8 4ebd e1a2 943d 98e9 523b 7e8f 0a3e
000002c0: b3b3 a13d 316c 983c 17c9 213d 6d55 28bd
000002d0: 2db5 983c 34f4 98bd b3a6 8e3d fcfc de3a
000002e0: f9c3 bd3d cbaf ce3d f55c 35be 068f a73d
000002f0: 6b9c 07be b63f 653d bd1c 5ebd 4590 6a3d
00000300: 707b 503c 2948 2bbb cd33 733d fea3 1dbd
00000310: eefb 52ba 2a1a 543d e5fd c23d fbc5 a0bc
00000320: ec7d 4fbc d9d2 9aba dcd5 97bc 49d3 07be
00000330: 70f9 d6bd e495 9bbd 9e70 e03d b194 ce3d
00000340: bfa7 e0bd 6cff f7bc 10b5 8c3d 7a5e aabd
00000350: 84b0 81bd 872b 3bbd 7b15 903d f2a7 25bb
00000360: 9cd8 aebd 3d03 4c3d c42d d23d f68d ccbd
00000370: 7b15 4a3c e8df dbbd 8a86 2f3e 6b62 08bd
00000380: 09a2 3b3d fc58 3e3d fc1f 5e3d fec1 a13d
00000390: e8b0 2fbd 12cd 68bd 076c 6abd 1d8c b0bd
000003a0: 2a45 e63d 9659 1b3c eb90 d13d 88aa 783b
000003b0: 6ba6 213e f84c a03d bca9 4cbd b4dc 59bd
000003c0: a9d0 22ba c8fb 33bd 98d6 01be b554 253d
000003d0: 196b 27bd ee88 d33d a17d 6bbd 8332 eebd
000003e0: 7376 9fbb 9c15 8d3c b864 c63d b806 c9bd
000003f0: 15ac 3fbd be4e 5bbd 002c 8e3d 328b 3c3d

fc2.bias f4 [10]
-0.12132884 0.013116506 0.0798003 0.039696626 -0.04510343 -0.022845011 0.015202045 0.12996061
0.035097443 0.060663357
00000000: 417b f8bd 9de6 563c 576e a33d ee98 223d
00000010: 60be 38bd 7625 bbbc 0012 793c 6514 053e
00000020: 56c2 0f3d 247a 783d

momentum_buffer f4 [10, 1, 5, 5]
-0.0015486339 -0.0013098727 -0.011784479 -0.037135933 0.004742792 0.0001980142 -0.0061930786 -0.012047055
-0.01115795 0.027606446 0.00043715804 -0.003814786 -0.00075726095 -3.776676e-05 0.037718594 -7.80287e-06
0.00014819545 1.6681943e-06 -0.00012153271 0.030784136 -0.00035063876 -5.1759096e-05 -0.00010108377 0.00032977617
0.046905898 -1.3967368e-06 -1.5801105e-06 0.000491212 8.1658945e-06 -1.07338596e-10 5.440464e-14 -4.965653e-06
0.00010543949 0.0022897907 5.1508996e-20 0.00013667457 0.0036433083 1.5485296e-06 7.742694e-07 4.5041252e-15
0.0022839354 2.1006798e-07 -3.8951144e-19 0.0 3.1282074e-15 0.00018684735 1.083589e-18 0.0
9.31286e-40 0.002642164 0.0005118208 -0.00028991044 -0.000290606 -0.0071441103 -0.0011671359 -1.526134e-05
2.6293605e-05 -0.0012179512 3.5295547e-05 -1.3409064e-06 0.003972331 5.9439466e-05 5.546894e-05 2.1289025e-06
0.00016336382 -7.695603e-06 -1.5905543e-06 -0.0005656104 2.86563e-05 -0.0002803769 -2.8769648e-08 1.8666724e-06
0.0019181593 -4.4357832e-05 0.0004510692 -0.010895867 -0.007904913 0.0013551902 0.024031267 0.08389477
-0.004844075 0.008729946 0.0044787116 0.010788326 0.071037315 0.025557797 0.016045945 0.009595458
0.033005033 0.088257685 0.07075355 0.008502271 0.005694608 0.036005776 0.05523497 0.06368981
0.01803501 0.00032957084 -0.041096464 -0.1173795 -0.02261877 0.040010743 0.03289766 0.06313157
0.11748374 0.06736388 0.1216919 0.14048085 0.113343574 0.06161045 0.021683816 0.06413984
0.008889385 0.01421266 0.00061059406 0.027578011 -0.0002822131 0.007176213 0.0003949327 0.027963493
0.0133398445 0.0022536002 -0.029168319 -0.055980086 0.049425524 0.10939698 -0.0074702054 -0.039112173
-0.025550999 -0.018612072 -0.043860637 -0.123978674 -0.077121206 -0.003120657 0.052605607 -0.12868673
-0.10609232 -0.10448119 0.04347182 0.10507292 -0.116942964 -0.11155256 -0.07081034 -0.035977937
0.06927663 -0.024301952 0.007651257 0.020024298 0.01776215 0.07838452 0.00016244929 0.010606031
-3.1770353e-10 -8.235264e-11 -4.7674426e-14 0.004939553 -8.3072547e-07 -9.330054e-20 0.0 -1.4140076e-15
2.515335e-06 0.0 0.0 0.0 0.0 -6.907099e-23 0.0 0.0
0.0 0.0 0.0 0.0 -2.023635e-39 -8.094536e-39 1.3849796e-11 -0.0051268553
-0.005904397 0.0033917592 0.0041326676 0.002583705 -0.011035213 0.004761005 0.006293473 0.00024603133
-0.00042630953 0.0017003973 0.011899598 -0.0015319625 0.003882168 0.0009088246 0.00059952214 -0.0015087008
-0.0013788159 0.0011375529 0.005725421 0.0035879076 -0.00012687643 1.095191e-05 0.0003810763 0.008042529
0.021080837 0.002069924 0.013676126 -0.009391386 -0.050797645 -0.0595775 -0.014656592 0.009390639
-0.033916578 -0.026740324 -0.019467127 -0.0468312 0.0041983873 -0.018885301 -0.018759884 -0.06317138
-0.0638501 -0.01825688 0.016728688 -0.017272223 -0.053859625 -0.04990557 0.00050502736 0.014936929
0.002088852 0.008451922 0.0074936487 0.033033613 0.021012016 0.019062422 0.013591556 0.008475495
0.012565571 0.0093435915 0.0018697387 -0.0011564624 -0.022113916 -0.0074244943 -0.0059201317 0.048081413
0.023256995 -0.027832726 -0.044123434 0.008497089 0.20909044 0.059570838 -0.016867805 0.018951423
0.2006255 0.41778564
00000000: 88fb caba 09b0 abba b013 41bc d91b 18bd
00000010: 6c69 9b3b 08a2 4f39 4fef cabb 0361 45bc
00000020: d6cf 36bc ea26 e23c 5c32 e539 7d01 7abb
00000030: ec82 46ba c067 1eb8 d07e 1a3d 12e9 02b7
00000040: ea64 1b39 b8e6 df35 60df feb8 032f fc3c
00000050: f0d5 b7b9 e817 59b8 f0fc d3b8 cfe5 ac39
00000060: 6620 403d 8377 bbb5 2f14 d4b5 aec4 003a
00000070: 4000 0937 420a ecae 4804 7529 a29e a6b6
00000080: 651f dd38 5010 163b 8e3e 731f 4d50 0f39
00000090: 92c4 6e3b 12d7 cf35 63d7 4f35 3947 a227
000000a0: 14ae 153b 0c8f 6134 4eed e5a0 0000 0000
000000b0: 3e69 6127 74ec 4339 d6e8 9f21 0000 0000
000000c0: 0c24 0a00 2828 2d3b b62b 063a 1fff 97b9
000000d0: 7a5c 98b9 2419 eabb 95fa 98ba 7a05 80b7
000000e0: 1691 dc37 a9a3 9fba 4e0a 1438 31f9 b3b5
000000f0: 542a 823b a44e 7938 52a7 6838 44de 0e36
00000100: a44c 2b39 5d1c 01b7 087b d5b5 7945 14ba
00000110: f062 f037 8dff 92b9 2021 f7b2 608a fa35
00000120: bf6a fb3a dc0c 3ab8 7c7d ec39 9484 32bc
00000130: 9c83 01bc a3a0 b13a 38dd c43c 05d1 ab3d
00000140: 0cbb 9ebb 0c08 0f3c 28c2 923b 85c1 303c
00000150: 037c 913d 965e d13c c972 833c 4536 1d3c
00000160: 4930 073d 72c0 b43d 3de7 903d 1c4d 0b3c
00000170: d699 ba3b cb7a 133d 103e 623d ce6f 823d
00000180: 28be 933c 40ca ac39 c454 28bd aa64 f0bd
00000190: 004b b9bc 4ee2 233d b2bf 063d 204b 813d
000001a0: 519b f03d 13f6 893d 9a39 f93d 36da 0f3e
000001b0: ad20 e83d 3d5b 7c3d 42a2 b13c c05b 833d
000001c0: c8a4 113c 37dc 683c 4610 203a 48eb e13c
000001d0: 00f6 93b9 7026 eb3b f80e cf39 b213 e53c
000001e0: 5d8f 5a3c 23b1 133b 66f2 eebc 604b 65bd
000001f0: 6b72 4a3d 860b e03d a0c8 f4bb 1634 20bd
00000200: 5450 d1bc 5878 98bc 36a7 33bd 88e8 fdbd
00000210: b9f1 9dbd f083 4cbb fa78 573d 74c6 03be
00000220: ee46 d9bd 3cfa d5bd 820f 323d 7930 d73d
00000230: cb7f efbd ab75 e4bd 0305 91bd 9a5d 13bd
00000240: e8e0 8d3d e314 c7bc 65b7 fa3b ff09 a43c
00000250: ee81 913c 1088 a03d 2657 2a39 ebc4 2d3c
00000260: cca8 aeaf 6a18 b5ae dfb4 56a9 f9db a13b
00000270: 05ff 5eb5 b74c dc9f 0000 0000 acc7 cba6
00000280: 20cd 2836 0000 0000 0000 0000 0000 0000
00000290: 0000 0000 df00 a79a 0000 0000 0000 0000
000002a0: 0000 0000 0000 0000 0000 0000 0000 0000
000002b0: 1209 1680 4624 5880 f0a5 732d 2eff a7bb
000002c0: ac79 c1bb 4748 5e3b 546b 873b 6053 293b
000002d0: 0acd 34bc 3402 9c3b 7a39 ce3b c4fd 8039
000002e0: 4c82 dfb9 dedf de3a 88f6 423c 22cc c8ba
000002f0: f96b 7e3b 303e 6e3a 4029 1d3a 99bf c5ba
00000300: 62b9 b4ba f119 953a 509c bb3b 1a23 6b3b
00000310: 220a 05b9 18be 3737 32cb c739 d0c4 033c
00000320: b8b1 ac3c 90a7 073b d411 603c 54de 19bc
00000330: 3111 50bd 8907 74bd 3422 70bc 32db 193c
00000340: 1cec 0abd 860e dbbc 8679 9fbc 13d2 3fbd
00000350: a092 893b 59b5 9abc 54ae 99bc ff5f 81bd
00000360: d7c3 82bd 748f 95bc 9a0a 893c 7a7e 8dbc
00000370: e99b 5cbd c869 4cbd d063 043a 05ba 743c
00000380: 1fe5 083b ee79 0a3c 488d f53b 414e 073d
00000390: 6421 ac3c cc28 9c3c 1eaf 5e3c cddc 0a3c
000003a0: d3df 4d3c dd15 193c 0512 f53a 7094 97ba
000003b0: 3e28 b5bc 2c49 f3bb aafd c1bb 04f1 443d
000003c0: 7485 be3c 7501 e4bc c6ba 34bd 6037 0b3c
000003d0: ce1b 563e 8d00 743d 5a2e 8abc 0440 9b3c
000003e0: c570 4d3e 00e8 d53e

momentum_buffer f4 [10]
0.00014355114 0.00015197297 -0.00017133576 0.00075846707 0.00022884773 0.00031076014 0.00029227196 6.428772e-05
0.0011976827 0.0038689398
00000000: 3786 1639 ef5a 1f39 98a8 33b9 ddd3 463a
00000010: d8f6 6f39 85ed a239 143c 9939 35d2 8638
00000020: 90fb 9c3a 0a8e 7d3b

momentum_buffer f4 [20, 10, 5, 5]
-0.0005989438 -0.002278265 0.001120448 1.2498146e-05 -0.0006426672 0.0005718116 0.0013166638 -0.00011971904
2.465033e-05 -0.001663942 -0.00037125938 0.005687336 0.0009994206 0.00084694085 -0.003003953 -0.0004191787
0.0012973382 -0.00074285443 -0.0057846797 -0.0026789906 0.0004114041 0.0033525976 0.002582862 -0.003906342
-0.0014646825 0.00018494554 -0.000104070125 7.27086e-07 -3.51954e-05 9.998363e-08 -1.0745069e-05 5.1554183e-05
8.469055e-09 -9.768798e-07 4.0819734e-07 0.00012110995 -7.667212e-06 4.456188e-13 3.2942728e-05 -3.1326312e-07
0.00018316011 4.8764956e-05 1.0351782e-08 -1.1494471e-07 -7.29467e-07 5.985694e-08 3.3855113e-11 -1.1678933e-06
1.879604e-05 -5.7067064e-06 0.00032546997 -0.00020528569 -3.1245552e-05 -0.000107077736 -3.816893e-05 -6.8131616e-05
-2.2248816e-05 -4.194083e-05 -5.3043812e-05 -3.3462886e-05 3.9148006e-05 -7.004554e-05 -0.00042189867 0.00017935937
0.00015391217 0.00028846145 2.6854708e-05 -6.552338e-05 -8.66081e-05 -4.176444e-05 -2.3017295e-05 -5.5513876e-05
-5.6949888e-05 7.969114e-06 -1.6329786e-05 0.0026914931 0.010796522 6.4286345e-05 0.0028891754 0.0021369695
0.0028340449 0.003919033 0.005152413 0.0035022208 -0.0032627285 0.0042262594 0.005765689 0.015890691
0.000313394 0.001088329 0.0004461647 0.01566275 0.017180955 0.003574735 -0.00035396626 -0.0018950416
0.0037176989 0.004055028 -0.0016741661 0.0012479641 -0.001463601 -0.006442044 -0.008412488 -0.0047832825
-0.0005226057 -0.008406477 -0.017617384 -0.010705599 -0.0006004182 -0.0062680743 -0.025728099 -0.016655575
-0.002347426 -0.00578673 -0.006138402 -0.013496552 -0.0038178938 0.00043813305 -0.002103947 0.001024341
-0.001853614 0.00034854969 -0.004416302 -0.00069634896 -0.002222539 0.00092043506 0.0027520272 -0.0009186694
0.0009784857 -0.001503478 0.00089148676 0.008186808 0.010913503 0.0011877366 -0.005248753 0.0028994025
0.007775323 0.0018311723 -0.002591821 -0.011514619 -0.002752624 0.003277989 0.006784649 -0.0048336005
-0.022167243 -0.00051594374 0.010972426 0.009628753 -0.0013892287 -0.004186714 -1.4297295e-08 4.20128e-06
1.3597826e-06 1.6956502e-06 -7.056531e-09 -7.934393e-06 -1.9837205e-05 1.7407316e-06 -2.9408623e-06 -5.5609917e-07
9.852442e-06 -4.739532e-08 1.8120947e-08 -2.827678e-07 2.8907947e-11 6.2797884e-10 -2.5050097e-06 2.0603137e-13
1.0499625e-05 -1.803638e-07 1.8931932e-14 1.0038287e-09 4.6794974e-11 -1.0714277e-06 -2.6039297e-06 4.4436187e-05
8.1122314e-05 -0.0005966239 -3.584358e-05 -0.00017481306 -0.00033247072 -0.0001824701 -0.0012035227 -0.00032611683
-0.0006307465 8.258679e-05 0.00021727994 -9.997447e-05 3.7285678e-05 0.00043771998 0.000650555 1.0588123e-05
7.169974e-06 0.00010879355 0.0004081272 -3.43998e-07 4.7502715e-07 8.759295e-05 -0.00011666452 0.0005206734
-0.0042198896 -0.00390933 -0.004580169 -0.0013013781 0.0059801317 0.00019683053 0.0013112775 -0.0019473631
0.0006840907 0.0014435695 0.0022682063 -0.0037173338 -3.6642305e-05 0.0027710411 0.0064946865 0.0008145593
-0.0031530864 0.0035759704 -0.006371009 -0.012924337 0.0025424631 0.0006340764 0.004425532 0.0011222202
-0.000496243 -0.0027822573 -0.0046188817 -0.0039388165 -0.0022833655 -0.005414809 -0.0049115396 -0.002663297
-0.001865666 -0.003408753 -0.008781028 0.0028620057 0.0007094727 0.00027020942 -0.0038813115 -0.01122169
0.0025302435 -0.005303406 -0.0036394282 0.0014249062 0.0040956247 0.011895579 -0.007922085 -0.02127328
-0.025944645 -0.02610484 0.0073485654 0.013335514 0.0031807155 -0.00036169615 -0.00033375507 0.0017912218
00000000: 7002 1dba f24e 15bb ffdb 923a 21af 5137
00000010: aa78 28ba a0e5 153a e893 ac3a ac11 fbb8
00000020: 2ec8 ce37 a118 daba 97a5 c2b9 d55c ba3b
00000030: fefe 823a 3d05 5e3a f8dd 44bb 36c5 dbb9
00000040: 720b aa3a 1ebc 42ba 698d bdbb 0192 2fbb
00000050: b9b1 d739 41b7 5b3b 3c45 293b c600 80bb
00000060: 97fa bfba f1ed 4139 3940 dab8 f82c 4335
00000070: c69e 13b8 95b6 d633 b845 34b7 e23b 5838
00000080: 4c7f 1132 561d 83b5 3726 db34 69fc fd38
00000090: 6da2 00b7 70dc fa2a fc2b 0a38 8e2e a8b4
000000a0: ab0e 4039 f988 4c38 9ed7 3132 86d7 f6b3
000000b0: 97d0 43b5 b38a 8033 78e5 142e 82c0 9cb5
000000c0: 30ac 9d37 3c7c bfb6 d7a3 aa39 f541 57b9
000000d0: a80d 03b8 ec8e e0b8 9417 20b8 e2e1 8eb8
000000e0: f8a2 bab7 a0e9 2fb8 5c7b 5eb8 805a 0cb8
000000f0: da32 2438 6ae5 92b8 4832 ddb9 6a12 3c39
00000100: 7c63 2139 a43c 9739 0c46 e137 9969 89b8
00000110: 5fa1 b5b8 3a2c 2fb8 4415 c1b7 92d7 68b8
00000120: 7add 6eb8 16b3 0537 f3fb 88b7 c363 303b
00000130: e5e3 303c 78d1 8638 5258 3d3b 660c 0c3b
00000140: 62bb 393b 3b6b 803b 93d5 a83b 8485 653b
00000150: 80d3 55bb 6f7c 8a3b 1bee bc3b 322d 823c
00000160: 084f a439 43a6 8e3a 36eb e939 2b4f 803c
00000170: 13bf 8c3c 1a46 6a3b 8c94 b9b9 0b63 f8ba
00000180: a3a4 733b 0ae0 843b b16f dbba ba92 a33a
00000190: 4dd6 bfba c817 d3bb 88d4 09bc 15bd 9cbb
000001a0: 7aff 08ba 52bb 09bc 5552 90bc 8966 2fbc
000001b0: 6265 1dba 6b64 cdbb bcc3 d2bc 4671 88bc
000001c0: 46d7 19bb 9c9e bdbb a624 c9bb a420 5dbc
000001d0: a135 7abb 39b5 e539 60e2 09bb 2e43 863a
000001e0: f7f4 f2ba 8cbd b639 a0b6 90bb 308b 36ba
000001f0: 04a8 11bb 5a49 713a 5b5b 343b dcd2 70ba
00000200: 8840 803a 5a10 c5ba aab2 693a f621 063c
00000210: 8dce 323c d4ad 9b3a bbfd abbb e703 3e3b
00000220: 23c8 fe3b f203 f03a 8adb 29bb d0a7 3cbc
00000230: 5e65 34bb 88d3 563b c351 de3b 2e63 9ebb
00000240: 1498 b5bc 6640 07ba b1c5 333c ebc1 1d3c
00000250: c816 b6ba b430 89bb 2ba0 75b2 b8f8 8c36
00000260: c681 b635 1996 e335 e775 f2b1 f51d 05b7
00000270: 1368 a6b7 15a3 e935 a15b 45b6 d846 15b5
00000280: eb4b 2537 b58f 4bb3 62a8 9b32 4fcf 97b4
00000290: e946 fe2d 159e 2c30 bd1b 28b6 80f8 672a
000002a0: 8c27 3037 06aa 41b4 1086 aa28 15f7 8930
000002b0: 75ce 4d2e facd 8fb5 2cbf 2eb6 fe60 3a38
000002c0: 3620 aa38 c166 1cba c056 16b8 064e 37b9
000002d0: 774f aeb9 7255 3fb9 85bf 9dba a9fa aab9
000002e0: ae58 25ba 7232 ad38 a4d5 6339 63a9 d1b8
000002f0: 3163 1c38 c87d e539 028a 2a3a a4a3 3137
00000300: 9c95 f036 1828 e438 e8f9 d539 baae b8b4
00000310: 3c07 ff34 1bb2 b738 caa9 f4b8 cd7d 083a
00000320: 0047 8abb d619 80bb 3e15 96bb 0193 aaba
00000330: fbf4 c33b 4b64 4e39 2cdf ab3a aa3e ffba
00000340: 8d54 333a 2836 bd3a 30a6 143b 839e 73bb
00000350: 60b0 19b8 5b9a 353b 61d1 d43b 2688 553a
00000360: 03a4 4ebb d45a 6a3b e6c3 d0bb 99c0 53bc
00000370: 749f 263b 2638 263a 0e04 913b 7617 933a
00000380: 4e16 02ba 8856 36bb fd59 97bb 3011 81bb
00000390: 84a4 15bb b66e b1bb fbf0 a0bb b68a 2ebb
000003a0: 5d89 f4ba 6365 5fbb 4dde 0fbc 7d90 3b3b
000003b0: e8fb 393a e5aa 8d39 9a5d 7ebb 2edb 37bc
000003c0: 71d2 253b 32c8 adbb 7983 6ebb ebc3 ba3a
000003d0: 9734 863b ade5 423c a2cb 01bc 4d45 aebc
000003e0: dd89 d4bc d1d9 d5bc 3ccc f03b 337d 5a3c
000003f0: 8d73 503b 09a2 bdb9 d9fb aeb9 6ec7 ea3a

momentum_buffer f4 [20]
-0.00014896228 0.0006289014 0.0016912646 0.00082496996 0.00045880862 -0.0013619887 4.9177484e-05 0.00039040257
-7.834004e-09 -0.00022316058 0.0014626689 -0.0010408768 -0.0029477621 -0.0012718666 -0.001701689 -0.00053695205
-0.0007154888 -1.4565442e-06 -0.00075752224 0.0028484059
00000000: c232 1cb9 dcdc 243a 6cad dd3a cc42 583a
00000010: 408c f039 c284 b2ba ec43 4e38 f2ae cc39
00000020: 5096 06b2 3600 6ab9 06b7 bf3a 086e 88ba
00000030: 3e2f 41bb c3b4 a6ba 350b dfba 3ec2 0cba
00000040: a48f 3bba 7a7e c3b5 7594 46ba 52ac 3a3b

momentum_buffer f4 [50, 320]
-0.013665641 -0.003518832 -0.003148636 -0.00055027235 -0.0016466969 -0.0054290523 -0.009926802 -0.002826736
-0.00038377155 -0.001606721 -0.0048213922 -0.005336637 -0.0018325846 -0.0013675068 -0.0002571876 -0.013527053
-6.7714434e-05 9.0632115e-05 -0.00037511543 0.01960166 1.2327953e-05 0.013644254 -0.0074007986 -0.0067421477
5.1528514e-05 -0.001672572 -0.0237846 -0.0018706111 -0.00033404323 -0.004294918 -0.03644891 -0.021714486
-0.022226164 -0.0021003908 0.00018478783 0.00019935257 0.0008401579 -8.48262e-08 3.8393293e-05 -2.2760167e-07
3.1150732e-06 2.6467182e-22 -2.1081562e-06 -2.2514853e-07 -0.022933641 1.1352307e-12 -3.0908446e-05 -4.0622427e-07
-0.0025963597 -9.5613605e-06 0.0034595078 0.0041987305 1.4800222e-05 1.1773426e-05 -0.0008581464 -0.0009685885
4.4285053e-07 -1.7105838e-05 -0.0029336452 -0.0073984363 2.6240025e-06 -9.572743e-09 1.3127091e-05 -0.00021193309
-0.008248571 -0.021515299 -0.0007894153 -0.0011243848 -0.0074402243 -0.013050538 -0.0066979746 -0.0018977419
-0.030551895 -0.028109137 -0.0070027346 -0.005816616 -0.00671948 -0.00021686639 -2.4123756e-07 -0.0017001599
3.6748686e-05 8.74619e-40 0.0 5.3453e-41 2.5665386e-05 -1.5235444e-06 4.710978e-09 -7.128874e-05
4.4842928e-08 -0.0006236867 -0.00024976823 -2.5507821e-05 -3.3766777e-05 1.8672672e-05 9.163206e-08 2.540931e-08
-3.7414928e-05 -5.4318045e-38 0.0 0.0 -8.2966216e-07 8.8852e-41 0.0 0.0
-3.9157076e-08 -1.3357464e-35 0.0 0.0 -2.6490927e-06 -4.3531684e-24 1.1849595e-17 0.0
-5.4483357e-06 1.737019e-05 -3.4542222e-06 0.0 -0.0005893633 -5.822062e-07 7.485772e-23 0.0
-0.00022793913 -0.00011858718 -2.2142481e-14 -3.8171235e-21 -3.034556e-05 8.913528e-09 7.3417984e-17 -7.5695464e-23
0.0 0.0 0.0 0.0 0.0 0.0 0.0 0.0
0.0 0.0 0.0 0.0 0.0 0.0 0.0 0.0
-0.0017280311 8e-45 0.0 0.0 -1e-45 0.0 0.0 0.0
5.536583e-25 3.064885e-34 0.0 0.0 -3.1594657e-11 -3.2281122e-27 0.0 0.0
-1.8184166e-05 -0.0014842722 -1.1236934e-05 0.0001721278 -0.007212154 -0.05590503 -0.0038451224 -0.0077492287
-0.051935237 -0.09201091 -0.059284806 -0.0039888285 -0.020037252 -0.008691642 1.3282912e-05 -0.0018504366
-0.0003021098 -0.012819433 -0.0611066 -0.016603073 -0.004699429 -0.014604387 -0.006759971 -0.017526772
-0.010325732 -0.040744983 -0.043659616 2.6885864e-05 -0.0066926684 -0.018336942 -0.024507957 -0.019063871
-2.0295682e-05 -0.004551742 -8.85061e-07 9.775251e-06 -7.552167e-05 -0.0059892223 -8.8801755e-07 -0.0016043658
-4.818293e-05 -0.052362636 -0.04572981 -0.014229144 -0.000418784 -0.024832591 -0.0015844255 -0.027566401
-0.0027749098 7.392945e-05 0.009995738 0.00025913306 -0.0020668814 0.0015076351 0.047254164 -0.005692911
0.0018721845 -2.7027469e-05 -0.00040278118 -0.005809291 9.751527e-08 -0.0007418673 -0.0075115846 -0.011600867
-0.010696312 -0.0082478905 -0.0024361613 -1.5127247e-05 -0.009105206 -0.01489162 2.474831e-08 -0.0010260144
-0.014521769 -0.031727087 -0.0071982676 -0.0015863709 -7.316076e-05 1.2020652e-05 -5.2822343e-06 -0.003289213
0.0010076575 0.008205572 0.0013053551 0.00040985583 0.00029214483 0.007921874 0.00042158473 -2.915857e-05
-2.6909527e-05 -0.021155689 -0.033850994 7.4040445e-06 -0.017633094 -0.03148897 4.8183542e-06 -1.0653193e-06
00000000: dae5 5fbc 349c 66bb 5959 4ebb 2740 10ba
00000010: fbd5 d7ba 31e6 b1bb 06a4 22bc c340 39bb
00000020: f234 c9b9 9c98 d2ba c5fc 9dbb f5de aebb
00000030: 5633 f0ba ea3d b3ba 23d7 86b9 93a0 5dbc
00000040: e901 8eb8 bf11 be38 24ab c4b9 a993 a03c
00000050: 28d4 4e37 268c 5f3c 6682 f2bb 3ced dcbb
00000060: 5220 5838 343a dbba ecd7 c2bc 4b2f f5ba
00000070: 8622 afb9 62bc 8cbb 744b 15bd 94e2 b1bc
00000080: a513 b6bc b6a6 09bb 9bc3 4139 4c09 5139
00000090: 0b3e 5c3a b229 b6b3 7c08 2138 ac62 74b4
000000a0: 8d0c 5136 fbfb 9f1b d979 0db6 5bc0 71b4
000000b0: 55df bbbc ffc4 9f2b b1a3 01b8 0a17 dab4
000000c0: b027 2abb bb69 20b7 e9b8 623b 8195 893b
000000d0: 784e 7837 7b86 4537 3bf5 60ba e0e8 7dba
000000e0: eac0 ed34 827e 8fb7 6642 40bb 956e f2bb
000000f0: 0518 3036 5e75 24b2 6d3c 5c37 5b3a 5eb9
00000100: 0425 07bc da40 b0bc c4f0 4eba 1860 93ba
00000110: 20cd f3bb ecd1 55bc af7a dbbb a7bd f8ba
00000120: f847 fabc 2245 e6bc 3277 e5bb 5099 bebb
00000130: 152f dcbb a166 63b9 7083 81b4 e6d7 deba
00000140: 9a22 1a38 1586 0900 0000 0000 0195 0000
00000150: ff4b d737 967c ccb5 33de a131 da80 95b8
00000160: 5299 4033 e87e 23ba 53f3 82b9 a1f9 d5b7
00000170: cda0 0db8 42a3 9c37 42c7 c433 aa43 da32
00000180: f9ed 1cb8 27de 9381 0000 0000 0000 0000
00000190: f3b5 5eb5 aff7 0000 0000 0000 0000 0000
000001a0: a92d 28b3 7a0a 8e85 0000 0000 0000 0000
000001b0: 11c7 31b6 b167 a898 2196 5a23 0000 0000
000001c0: d9d0 b6b6 33b6 9137 16cf 67b6 0000 0000
000001d0: 807f 1aba e848 1cb5 affe b41a 0000 0000
000001e0: f202 6fb9 02b2 f8b8 1671 c7a8 f434 909d
000001f0: 988e feb7 1c22 1932 544a a924 3905 b79a
00000200: 0000 0000 0000 0000 0000 0000 0000 0000
00000210: 0000 0000 0000 0000 0000 0000 0000 0000
00000220: 0000 0000 0000 0000 0000 0000 0000 0000
00000230: 0000 0000 0000 0000 0000 0000 0000 0000
00000240: 1a7f e2ba 0600 0000 0000 0000 0000 0000
00000250: 0100 0080 0000 0000 0000 0000 0000 0000
00000260: 5459 2b17 51b2 cb07 0000 0000 0000 0000
00000270: 6cf4 0aae e5c1 7f93 0000 0000 0000 0000
00000280: 338a 98b7 e98b c2ba 4486 3cb7 347d 3439
00000290: ef53 ecbb acfc 64bd 73fe 7bbb 3eed fdbb
000002a0: 0bba 54bd 3770 bcbd a0d4 72bd b8b4 82bb
000002b0: 2a25 a4bc 6467 0ebc acd9 5e37 598a f2ba
000002c0: 7e64 9eb9 9908 52bc ea4a 7abd 2b03 88bc
000002d0: abfd 99bb 3d47 6fbc bf82 ddbb 4e94 8fbc
000002e0: 422d 29bc 36e4 26bd 6dd4 32bd f488 e137
000002f0: 2c4e dbbb 5b37 96bc e9c4 c8bc d62b 9cbc
00000300: a540 aab7 c826 95bb ee94 6db5 6200 2437
00000310: 6361 9eb8 3d41 c4bb 1a60 6eb5 9549 d2ba
00000320: 0718 4ab8 347a 56bd 2e4f 3bbd 5b21 69bc
00000330: 3d90 dbb9 b86d cbbc 7fac cfba efd2 e1bc
00000340: 43db 35bb 920a 9b38 2ac5 233c 40dc 8739
00000350: 8474 07bb d79b c53a 958d 413d 998b babb
00000360: 1664 f53a 0cb9 e2b7 602c d3b9 dd5b bebb
00000370: 9669 d133 df79 42ba bd23 f6bb 9011 3ebc
00000380: 963f 2fbc 2922 07bc 01a8 1fbb 08cb 7db7
00000390: 002e 15bc fbfb 73bc 1c96 d432 557b 86ba
000003a0: b7ec 6dbc 43f4 01bd 72df ebbb c6ed cfba
000003b0: e26d 99b8 4fac 4937 0c3e b1b6 d68f 57bb
000003c0: 6013 843a aa70 063c 7318 ab3a ebe1 d639
000003d0: 042b 9939 bfca 013c 2508 dd39 8d99 f4b7
000003e0: c5bb e1b7 b24e adbc 57a7 0abd 4270 f836
000003f0: 4773 90bc 94fa 00bd 59ad a136 18fc 8eb5

momentum_buffer f4 [50]
-0.0018076582 3.1690557e-05 -0.0010273631 0.0005822568 -0.0018425174 0.0011858173 -0.0005503794 -0.00045664771
0.002181197 -0.00019828344 0.0017200474 -0.0015396612 0.00026834273 -4.7603477e-05 -3.802766e-21 7.668541e-09
-0.0006582366 -0.0020286012 0.00088021334 -8.2888874e-07 -0.00012016302 0.00037808222 -0.0007729843 -0.0013951765
-0.0010440679 3.31383e-05 0.000430682 -0.0011294027 0.00030608068 -0.004616296 0.0033686473 0.001787181
9.525669e-21 0.00057536346 0.0015906425 -0.00046909542 -0.00036568433 0.00027025983 -0.0025907801 0.00092267105
0.00013502724 -8.553205e-07 0.0037153657 -0.0004223832 0.00031905656 0.00169013 0.000887212 0.0014324103
-0.00026777867 0.0009607713
00000000: f2ee ecba 7aeb 0438 96a8 86ba 98a2 183a
00000010: a080 f1ba 6d6d 9b3a 5647 10ba 386a efb9
00000020: 6af2 0e3b 4eea 4fb9 3773 e13a 75ce c9ba
00000030: 5ab0 8c39 d8a9 47b8 19aa 8f9d 9abe 0332
00000040: 838d 2cba 48f2 04bb 1ebe 663a cd80 5eb5
00000050: 0800 fcb8 5639 c639 19a2 4aba 5bde b6ba
00000060: 1bd9 88ba fbfd 0a38 29cd e139 7708 94ba
00000070: 7479 a039 4c44 97bb 86c4 5c3b d83f ea3a
00000080: 4fef 331e fdd3 163a 1b7d d03a ecf0 f5b9
00000090: 52b9 bfb9 a9b1 8d39 14ca 29bb 68df 713a
000000a0: 1996 0d39 2d99 65b5 7e7d 733b 5073 ddb9
000000b0: 0c47 a739 5a87 dd3a ca93 683a b7bf bb3a
000000c0: a564 8cb9 45dc 7b3a
