quick-start/notebooks_gpu/logs/log_20240523-13_35/model_epoch_1.bin (torch, 180126 bytes, 16 tensors)

conv1.weight f4 [10, 1, 5, 5]
-0.20444748 -0.0851157 -0.18578827 0.1656941 0.057369553 0.03512904 0.046632443 0.025952775
-0.065092236 0.1343361 -0.12391072 -0.0351435 -0.10544562 -0.12677723 0.01202108 -0.21201053
-0.18091954 -0.14808229 -0.17298831 -0.20180972 -0.002965119 -0.013769611 -0.2271224 -0.2309482
-0.033104382 -0.03858963 -0.1558306 0.019066725 -0.06533219 -0.22462039 -0.14014183 -0.12765633
-0.009361829 0.03147484 -0.20132057 -0.07578588 0.068688 -0.12513624 -0.050976582 -0.0740423
0.036722217 -0.2710841 -0.08554922 -0.013964958 -0.028953776 -0.08898256 -0.2087161 -0.10657921
-0.037728157 -0.03662795 -0.01054528 -0.064160384 -0.20534728 0.017114695 -0.027683446 -0.13843158
-0.20712343 0.032778766 0.010731824 -0.12063191 0.060034785 -0.100030765 0.015369975 -0.14115863
-0.1652473 -0.16066353 -0.11549103 0.05804406 -0.2708889 0.109091066 -0.15384583 -0.10599357
0.04619396 -0.098853365 -0.17526454 -0.051119104 -0.13717324 -0.28577897 -0.024129594 -0.01982798
0.15587153 -0.12008662 -0.058412336 -0.16789834 -0.07359287 0.06447178 -0.07791246 -0.13369709
-0.08332314 0.056380425 0.19966461 -0.10764293 -0.2150987 -0.0587425 0.021533128 -0.07174376
-0.21881202 -0.07036045 -0.1922296 0.27630544 -0.030014016 0.19821236 -0.046531174 0.06944501
-0.2696242 0.09111274 0.12974282 -0.10087304 0.12598155 -0.27903137 -0.03098064 -0.072043486
0.089472435 -0.06178826 -0.315493 0.056722365 0.051118236 -0.15515208 -0.2528228 -0.17136061
-0.282974 -0.22492453 -0.2655146 0.00045061158 0.17654261 0.05410906 0.08672438 0.089074545
-0.016943173 0.11153395 -0.092806384 0.0011472681 -0.05792793 0.016982418 0.059871264 -0.11961175
0.18585876 0.018316444 -0.0025762103 0.15700343 -0.20487386 0.053167935 0.07276767 0.025598655
-0.010751718 -0.35611746 -0.3049704 -0.24430187 -0.23777632 -0.09410781 -0.084746584 0.04835553
-0.19791657 -0.3008458 -0.020239584 0.02720857 -0.16662809 -0.055588417 -0.091561995 -0.047546502
-0.21121758 -0.22412905 -0.10341927 -0.126793 -0.28981376 -0.070000365 -0.042305633 -0.12823744
-0.17346387 -0.006811551 -0.15926088 -0.22544941 -0.062764764 -0.013869161 -0.24277437 -0.059662223
-0.13373294 -0.21977721 -0.004044172 -0.2778785 0.10996359 0.20873107 0.020534562 -0.061189838
0.00058678724 0.022982884 0.044811454 -0.040471144 -0.07121595 -0.15636723 -0.17838287 -0.09469288
-0.01741462 -0.054962758 0.056285124 -0.21252316 0.030142577 -0.25655672 -0.14708711 -0.13432366
0.08391154 -0.02746077 -0.11956956 -0.079636626 -0.24118675 0.036539637 -0.14222679 0.05297592
0.0641498 0.054907635 0.055619847 -0.111253925 0.13732776 0.11829356 0.18974976 0.021141078
-0.03392734 -0.0816834 0.11381525 -0.095225796 -0.027773168 -0.062351655 -0.075366065 -0.35615042
-0.21590981 -0.17678618 -0.14665014 0.03942865 -0.09822162 -0.023315988 -0.18910503 -0.27870983
-0.11242685 -0.22215061 -0.25155693 0.01507513 0.20266838 0.029957106 -0.123405695 -0.23265712
0.15552603 -0.119919635 -0.0017033756 0.048682436 -0.03606677 -0.028771307 0.20478468 0.056102473
0.16132873 0.0068794247
00000000: ae5a 51be 2451 aebd 483f 3ebe b7ab 293e
00000010: 56fc 6a3d 78e3 0f3d a901 3f3d ea9a d43c
00000020: 144f 85bd 678f 093e e7c4 fdbd a1f2 0fbd
00000030: e0f3 d7bd e4d1 01be 10f4 443c 4a19 59be
00000040: f942 39be e2a2 17be d923 31be 35a7 4ebe
00000050: 7152 42bb ef99 61bc c692 68be af7d 6cbe
00000060: 7698 07bd 2910 1ebd 0f92 1fbe d231 9c3c
00000070: e2cc 85bd e302 66be 5781 0fbe 57b8 02be
00000080: 5b62 19bc c3eb 003d fb26 4ebe a135 9bbd
00000090: 4bac 8c3d b723 00be d2cc 50bd 7da3 97bd
000000a0: 096a 163d 89cb 8abe 6e34 afbd 47cd 64bc
000000b0: 7830 edbc 7d3c b6bd acb9 55be 3346 dabd
000000c0: d788 1abd 3007 16bd 1cc6 2cbc 8566 83bd
000000d0: 8f46 52be 1e34 8c3c 65c8 e2bc 02c1 0dbe
000000e0: 2a18 54be 0743 063d 88d4 2f3c dd0d f7bd
000000f0: 09e7 753d eedc ccbd 59d2 7b3c e38b 10be
00000100: 9736 29be fb84 24be 9086 ecbd 9cbf 6d3d
00000110: f3b1 8abe 236b df3d c389 1dbe 2813 d9bd
00000120: e135 3d3d a273 cabd 8c78 33be 4462 51bd
00000130: 2477 0cbe 9f51 92be 6dab c5bc 4a6e a2bc
00000140: c99c 1f3e f9ef f5bd c641 6fbd 8bed 2bbe
00000150: dcb7 96bd c809 843d 9190 9fbd e4e7 08be
00000160: 53a5 aabd 29ef 663d e174 4c3e e573 dcbd
00000170: d542 5cbe fa9b 70bd 3e66 b03c 64ee 92bd
00000180: 4210 60be 2419 90bd d6d7 44be e877 8d3e
00000190: f4df f5bc 2ef8 4a3e 7997 3ebd 2f39 8e3d
000001a0: 2f0c 8abe 5199 ba3d 4ddb 043e 8696 cebd
000001b0: 4f01 013e 33dd 8ebe 1ccb fdbc 898b 93bd
000001c0: 533d b73d b015 7dbd 4c88 a1be b655 683d
000001d0: 5b61 513d 30e0 1ebe fd71 81be 2879 2fbe
000001e0: f8e1 90be 9e52 66be 88f1 87be 1040 ec39
000001f0: 96c7 343e 76a1 5d3d 8d9c b13d b76c b63d
00000200: 69cc 8abc e96b e43d 4611 bebd ee5f 963a
00000210: d645 6dbd b61e 8b3c 923b 753d 01f7 f4bd
00000220: c251 3e3e 5e0c 963c a3d5 28bb 82c5 203e
00000230: 74ca 51be 9fc6 593d 3707 953d 45b4 d13c
00000240: f927 30bc 0755 b6be 1525 9cbe 452a 7abe
00000250: a37b 73be 98bb c0bd 9e8f adbd 7310 463d
00000260: a4aa 4abe 7608 9abe 7ccd a5bc 82e4 de3c
00000270: 8ea0 2abe aeb0 63bd db84 bbbd 1fc0 42bd
00000280: 6c49 58be 1682 65be 7bcd d3bd 06d6 01be
00000290: 7862 94be 5a5c 8fbd ac48 2dbd ad50 03be
000002a0: 83a0 31be 6e33 dfbb 4915 23be 36dc 66be
000002b0: d08a 80bd 7a3b 63bc d899 78be 6060 74bd
000002c0: 4af1 08be 470d 61be f984 84bb 1746 8ebe
000002d0: 9734 e13d 99bd 553e 1938 a83c 32a2 7abd
000002e0: a0d2 193a 9a46 bc3c 378c 373d 12c5 25bd
000002f0: abd9 91bd bb1e 20be 00aa 36be 57ee c1bd
00000300: 1ba9 8ebc a120 61bd 3b8b 663d ac9f 59be
00000310: 91ed f63c 675b 83be 019e 16be 248c 09be
00000320: d0d9 ab3d 69f5 e0bc e3e0 f4bd 8718 a3bd
00000330: a9f9 76be 96aa 153d e6a3 11be 47fd 583d
00000340: f860 833d d4e6 603d a3d1 633d 19d9 e3bd
00000350: a69f 0c3e e543 f23d c34d 423e 0e30 ad3c
00000360: 65f7 0abd a049 a7bd f817 e93d be05 c3bd
00000370: 8e84 e3bc 7364 7fbd 8659 9abd 5959 b6be
00000380: 7617 5dbe 7007 35be 742b 16be f07f 213d
00000390: 6b28 c9bd 2c01 bfbc c0a4 41be 0eb3 8ebe
000003a0: 0c40 e6bd 737b 63be 12cc 80be aefd 763c
000003b0: 4d88 4f3e 9b68 f53c 20bc fcbd ab3d 6ebe
000003c0: 3742 1f3e 6d98 f5bd cd43 dfba 3c67 473d
000003d0: c0ba 13bd ceb1 ebbc 13b3 513e b5cb 653d
000003e0: 5c33 253e cc6c e13b

conv1.bias f4 [10]
-0.1967995 -0.0003758322 0.14114559 0.066792324 0.18250892 -0.08517011 -0.16752422 -0.102932826
0.111616984 0.06908643
00000000: cf85 49be 580b c5b9 7888 103e 6aca 883d
00000010: 9ee3 3a3e ab6d aebd 788b 2bbe 72ce d2bd
00000020: 7297 e43d 307d 8d3d

conv2.weight f4 [20, 10, 5, 5]
0.037390865 0.108045466 0.033414718 0.05394982 -0.060600627 0.027458407 -0.009754554 0.052812073
-0.03288437 0.053272918 0.051895224 -0.04065321 0.002436677 -0.0056027463 0.081811026 0.0013866528
0.009714403 0.053410396 0.08803401 0.045382436 -0.027126404 -0.013842128 0.058941785 0.021412184
0.056310598 -0.05988071 -0.003321807 -0.009089238 0.060501236 -0.0031599472 -0.05694954 0.06309826
-0.04271558 -0.03751489 -0.018836375 -0.0422165 0.017559461 -0.022845829 -0.019261893 0.010930163
0.050342247 0.025648735 -0.01849723 0.029889595 -0.021214683 -0.056715455 -0.052537158 -0.0038851998
-0.05232824 -0.03707632 0.03959385 0.023688132 -0.051893145 0.056841142 -0.0044212006 -0.025357941
0.028395627 -0.056897115 0.016751854 -0.0043333084 -0.015856324 -0.010951694 -0.045135662 -0.013115133
0.05417351 -0.051272806 0.049822994 -0.029444177 0.014650518 0.06287448 0.0061911712 0.000921329
-0.053682737 -0.0050117434 -0.039573897 0.006733021 0.09303793 0.063975714 0.028510569 0.0012639981
0.066047296 0.0780405 0.02591181 0.110660255 0.016391918 0.086130425 0.030650409 0.018373536
0.037761793 0.0003876743 0.030038826 0.07638828 -0.024920743 -0.047881976 -0.004861594 -0.064186245
-0.008909706 0.044182304 0.01948513 0.012657331 0.013029547 0.024264688 -0.008784924 -0.12524508
-0.12713304 0.056570996 0.02660188 -0.079974174 -0.0824619 0.06661281 0.07625826 -0.020025903
-0.108603165 -0.1043502 0.018044513 0.07984595 -0.05648567 -0.02614103 -0.064718835 -0.057463165
0.0025990447 0.0030605777 0.04466643 0.066255696 0.04028488 0.033119373 0.14169459 -0.0012536349
-0.14753966 -0.11856994 0.0044721244 -0.07635348 -0.006627147 -0.034745514 -0.03046014 0.006309917
-0.019275991 -0.008790909 0.033464354 0.010416515 -0.0640188 -0.035093747 0.03426786 -0.0052119726
0.05896505 -0.21735902 -0.06225783 0.062215388 0.038525753 -0.030326635 -0.05545347 -0.04185244
-0.06455878 -0.003254261 0.07955646 -0.017996283 -0.07471675 -0.054443937 0.03164461 0.063713655
-0.06343907 -0.0035382556 -0.008880705 0.043785904 0.0021952554 -0.008972912 -0.07883869 -0.0064818435
-0.055209864 -0.06782274 -0.013227105 -0.056843206 0.025032483 0.0103985695 -0.0651736 0.034647334
0.025482405 -0.045687594 -0.055382654 0.054436482 0.020882498 -0.08051651 0.0013860812 0.0010349903
0.015513738 -0.056090627 -0.014878092 0.005362086 0.011117481 0.07588663 -0.054184493 -0.0280501
0.0026663907 0.025372228 -0.008166115 -0.0431757 -0.00025554482 0.03440843 0.07175359 0.013279152
-0.033547927 -0.019545624 -0.08358773 -0.090267345 0.05635934 0.029380571 0.060277276 -0.048095338
-0.11882115 0.027573915 0.05148548 0.074436195 -0.053125557 -0.08416918 0.09490939 0.10227681
0.060027823 -0.11615582 0.0001576435 0.08211341 -0.02426799 -0.07416714 -0.05070729 0.076998554
0.036620904 0.0676183 -0.11851372 -0.086749725 0.014309417 -0.104626276 0.079139225 -0.08410868
-0.036701147 -0.12198293 -0.1938129 0.066755414 -0.03473082 -0.06072224 -0.07990163 -0.044706825
-0.075714186 -0.0428752 -0.042708956 -0.0641925 -0.008805763 -0.018823378 0.088540114 0.099358715
0.06846985 0.10063036 -0.05176178 -0.015104269 -0.051394124 0.023239598 0.049704608 -0.07518628
00000000: 2a27 193d f146 dd3d dfdd 083d 7dfa 5c3d
00000010: 5d38 78bd 74f0 e03c 91d1 1fbc 7951 583d
00000020: c3b1 06bd b434 5a3d 1690 543d fb83 26bd
00000030: a8b0 1f3b 3e97 b7bb 8a8c a73d 59c0 b53a
00000040: 2929 1f3c dcc4 5a3d 2d4b b43d efe2 393d
00000050: 3138 debc 18ca 62bc f16c 713d 9b68 af3c
00000060: f1a5 663d 7a45 75bd acb2 59bb 07eb 14bc
00000070: 25d0 773d 1e17 4fbb ec43 69bd a939 813d
00000080: 88f6 2ebd 37a9 19bd be4e 9abc 35eb 2cbd
00000090: dcd8 8f3c 2d27 bbbc 1ecb 9dbc 6d14 333c
000000a0: ac33 4e3d 4c1d d23c 8187 97bc 06db f43c
000000b0: 6aca adbc 774e 68bd 3431 57bd d69e 7ebb
000000c0: 2356 56bd 57dd 17bd 292d 223d 9d0d c23c
000000d0: e88d 54bd 42d2 683d b8df 90bb 75bb cfbc
000000e0: f29d e83c f30c 69bd 2f3b 893c 6dfe 8dbb
000000f0: 1fe5 81bc bc6e 33bc 2ce0 38bd dbe0 56bc
00000100: 0be5 5d3d 6f03 52bd 3213 4c3d ea34 f1bc
00000110: ba08 703c 56c4 803d 4fdf ca3b 5885 713a
00000120: 6ee2 5bbd 8d39 a4bb 3d18 22bd aca0 dc3b
00000130: ac8a be3d b305 833d ff8e e93c bdac a53a
00000140: ce43 873d b3d3 9f3d 0145 d43c d8a1 e23d
00000150: 5848 863c 2665 b03d 9116 fb3c 1984 963c
00000160: 1cac 1a3d c440 cb39 fc13 f63c 7571 9c3d
00000170: 9626 ccbc e41f 44bd 024e 9fbb 1474 83bd
00000180: 04fa 11bc 81f8 343d 489f 9f3c b260 4f3c
00000190: e279 553c bdc6 c63c a4ee 0fbc 3f40 00be
000001a0: 2a2f 02be fdb6 673d 30ec d93c 80c9 a3bd
000001b0: c9e1 a8bd 4c6c 883d 4a2d 9c3d 5d0d a4bc
000001c0: 566b debd 8fb5 d5bd 16d2 933c 4686 a33d
000001d0: 855d 67bd b725 d6bc 4f8b 84bd 7f5e 6bbd
000001e0: bc54 2a3b f993 483b 26f4 363d 11b1 873d
000001f0: c201 253d 2ea8 073d 6318 113e 0251 a4ba
00000200: a314 17be ccd4 f2bd e68a 923b 375f 9cbd
00000210: 8a28 d9bb 5051 0ebd 8b87 f9bc 6cc3 ce3b
00000220: afe8 9dbc bf07 10bc eb11 093d 08aa 2a3c
00000230: 4a1c 83bd 76be 0fbd 755c 0c3d 32c9 aabb
00000240: 5685 713d 5d93 5ebe 1102 7fbd 90d5 7e3d
00000250: 2ecd 1d3d 906f f8bc 2e23 63bd 776d 2bbd
00000260: 6537 84bd 7145 55bb 7fee a23d f16c 93bc
00000270: 1805 99bd 9b00 5fbd c79d 013d 4e7c 823d
00000280: 58ec 81bd 14e2 67bb 6080 11bc d958 333d
00000290: 46de 0f3b 1f03 13bc 2e76 a1bd a565 d4bb
000002a0: bd23 62bd a6e6 8abd 80b6 58bc 6cd4 68bd
000002b0: ec10 cd3c c35e 2a3c bd79 85bd 5dea 0d3d
000002c0: 7ac0 d03c ea22 3bbd ecd8 62bd caf8 5e3d
000002d0: c611 ab3c d7e5 a4bd 2bad b53a 83a8 873a
000002e0: 552d 7e3c 49bf 65bd 3ec3 73bc 70b4 af3b
000002f0: 1826 363c 736a 9b3d 8ff0 5dbd 53c9 e5bc
00000300: 9dbe 2e3b 6bd9 cf3c 2bcb 05bc 01d9 30bd
00000310: a5fa 85b9 dbef 0c3d 8cf3 923d cd90 593c
00000320: 8d69 09bd 251e a0bc 0b30 abbd 16de b8bd
00000330: 0dd9 663d 86af f03c 4ee5 763d 9eff 44bd
00000340: 8158 f3bd b1e2 e13c 70e2 523d 0172 983d
00000350: 2f9a 59bd e460 acbd db5f c23d 8176 d13d
00000360: bcdf 753d 1ae3 edbd 1b4d 2539 132b a83d
00000370: aacd c6bc f1e4 97bd 73b2 4fbd 6bb1 9d3d
00000380: cdff 153d 777b 8a3d 52b7 f2bd d7a9 b1bd
00000390: 0c72 6a3c 4d46 d6bd bf13 a23d 2c41 acbd
000003a0: f153 16bd 30d2 f9bd e476 46be 10b7 883d
000003b0: e841 0ebd e2b7 78bd 77a3 a3bd 811e 37bd
000003c0: 0a10 9bbd e89d 2fbd 96ef 2ebd 5c77 83bd
000003d0: 0c46 10bc 7c33 9abc 8554 b53d 957c cb3d
000003e0: ec39 8c3d 4a17 ce3d 2904 54bd e577 77bc
000003f0: a582 52bd f860 be3c 0f97 4b3d 44fb 99bd

conv2.bias f4 [20]
0.058546845 0.0093992045 -0.03191912 0.04302314 0.011430749 0.050799318 0.039664388 0.019400356
0.03437269 0.05719675 -0.054295443 0.051211096 -0.059797425 -0.015136539 0.012522142 0.044922955
0.05385671 0.00012638344 0.05521982 0.058161866
00000000: d1ce 6f3d 1fff 193c a0bd 02bd 0839 303d
00000010: 0948 3b3c f212 503d 2077 223d 7fed 9e3c
00000020: 61ca 0c3d 2447 6a3d e664 5ebd bac2 513d
00000030: 25ee 74bd 3fff 77bc ac29 4d3c 2201 383d
00000040: db98 5c3d cc85 0439 2e2e 623d 233b 6e3d

fc1.weight f4 [50, 320]
0.016026454 -0.08913146 0.02240469 0.056874815 0.05772919 0.11385766 -0.022093328 -0.08721715
0.008148051 -0.0645798 -0.01895879 -0.05671022 -0.05133723 -0.08293887 -0.0041706422 0.059650496
-0.038544707 -0.070758216 -0.0008678873 0.03478368 -0.12023009 -0.037473317 -0.06074694 -0.035987962
-0.058367938 -0.010652831 0.036696766 0.031855155 -0.051410284 -0.044177428 0.015675893 0.067674376
-0.021395653 -0.020971872 0.019272126 -0.027909793 0.023735499 -0.028107166 -0.0024060379 -0.022806277
0.0039298534 -0.056480482 -0.030983021 0.02538929 0.0197531 -0.0016990489 0.028277706 -0.015362583
-0.053563286 -0.06957834 -0.0326984 -0.030687194 -0.07674833 0.017434364 -0.051420506 0.015847862
0.034811754 0.020615274 0.026778325 0.006821208 -0.05051045 -0.016559297 -0.0592855 -0.016255116
-0.0064757294 0.02329447 -0.04628045 -0.06777041 0.018969659 -0.07265343 -0.0068935147 0.02939837
0.068806395 -0.0013122287 0.05135751 0.00040090262 0.02759221 0.017172052 0.008830304 -0.023056697
0.027072752 0.0025631534 -0.058564298 -0.054308806 0.018756298 0.030316647 -0.031525947 0.046638414
-0.04546348 0.010483924 -0.02764001 -0.025344212 -0.0008697752 0.003594349 -0.0107887415 -0.009337782
0.05617643 0.037847184 0.012464837 -0.067797616 -0.06924712 0.0034128951 0.03503987 -0.034318976
0.006908146 -0.057710685 0.00292744 -0.06866737 0.0039778184 -0.044463772 0.012214273 -0.018100401
-0.010641533 -0.0054888236 -0.10430745 0.021039585 0.0035524538 -0.019199044 -0.06274511 -0.0063224398
0.02729114 -0.03092756 -0.05439098 -0.048296597 -0.102773175 -0.09848043 -0.021671677 0.03563103
-0.05605285 0.014684689 -0.031924125 -0.0022721246 -0.021348182 -0.011914181 -0.057800643 -0.0757632
-0.06968056 -0.023377754 -0.053745206 0.009787462 0.010156555 0.011018653 -0.02217238 -0.050260164
-0.04818944 -0.05105283 -0.057267714 -0.046428714 -0.00056036003 -0.016271584 -0.02012811 -0.03650738
-0.0678092 -0.06899032 0.026667709 -0.07334221 -0.038373034 -0.033744656 -0.053210955 0.044210754
0.022823421 0.014283541 0.031933397 -0.018978992 0.0050372984 0.056441877 -0.027910683 0.032181144
-0.008518169 -0.011044217 -0.056527656 -0.06401656 0.03615259 0.0120508475 0.012097539 -0.073054075
0.1346675 0.07755375 0.037972115 0.05211627 0.017547034 -0.03617477 -0.0528456 -0.0017890335
-0.070741154 0.048738092 0.05942621 -0.037809253 -0.03822615 -0.051059168 -0.009997855 0.016988296
-0.085677154 -0.10260816 0.0215443 -0.017838733 -0.06306509 -0.024845418 -0.033049222 0.001193717
-0.03303115 -0.03990443 0.048344582 0.017103491 -0.08574643 0.015148653 -0.0032748047 0.07487498
-0.022830958 -0.06566364 0.067805916 0.0043771337 -0.08833642 -0.0061153406 -0.024072625 -0.008747053
-0.1324488 -0.075015314 -0.14732286 -0.028188411 -0.05141912 -0.094917834 0.10177926 0.07667884
0.061389633 -0.025093894 0.003615754 0.03403315 0.011570153 -0.026700597 -0.027479187 0.0021715937
0.0547063 -0.0028784357 -0.016148157 0.015533586 -0.04077602 0.04743428 -0.021093003 -0.001456508
0.0031401587 -0.023280216 0.031207949 0.010391599 -0.07340125 -0.009504127 -0.05557391 0.004729493
-0.0042089936 0.013693978 -0.001635517 -0.020010708 -0.033274163 0.02872502 -0.05849 0.034489874
00000000: e949 833c 8e8a b6bd 0a8a b73c 91f5 683d
00000010: 7175 6c3d 342e e93d 11fd b4bc e89e b2bd
00000020: 677f 053c 6a42 84bd 774f 9bbc fa48 68bd
00000030: fd46 52bd dbdb a9bd e2a9 88bb 1454 743d
00000040: 0ee1 1dbd afe9 90bd ee82 63ba 5579 0e3d
00000050: 323b f6bd 9f7d 19bd c9d1 78bd 1d68 13bd
00000060: 3813 6fbd 3689 2ebc 594f 163d 8d7a 023d
00000070: 9793 52bd 64f3 34bd bb6a 803c dd98 8a3d
00000080: f045 afbc 34cd abbc 94e0 9d3c 14a3 e4bc
00000090: f370 c23c 0041 e6bc 9eae 1dbb 3bd4 babc
000000a0: 00c6 803b 1458 67bd 1bd0 fdbc 33fd cf3c
000000b0: 41d1 a13c 9fb2 deba a6a6 e73c 58b3 7bbc
000000c0: 2d65 5bbd 177f 8ebd c2ee 05bd b663 fbbc
000000d0: 3a2e 9dbd 83d2 8e3c 4f9e 52bd 60d3 813c
000000e0: c596 0e3d 5de1 a83c 385e db3c 7184 df3b
000000f0: 0ce4 4ebd 5da7 87bc 5ad5 72bd 7329 85bc
00000100: 5b32 d4bb 0bd4 be3c 9290 3dbd 36cb 8abd
00000110: 4266 9b3c 52cb 94bd fee2 e1bb dad4 f03c
00000120: 5eea 8c3d 17ff abba 415c 523d 3d30 d239
00000130: 0f09 e23c 67ac 8c3c fbac 103c 66e1 bcbc
00000140: adc7 dd3c 94fa 273b 1ee1 6fbd e972 5ebd
00000150: cfa6 993c 9e5a f83c 5a21 01bd ec07 3f3d
00000160: ea37 3abd c4c4 2b3c 4d6d e2bc aa9e cfbc
00000170: a001 64ba 2b8f 6b3b 43c3 30bc 7ffd 18bc
00000180: 4219 663d a605 1b3d 5139 4c3c 7ad9 8abd
00000190: 6fd1 8dbd e1aa 5f3b f785 0f3d 0e92 0cbd
000001a0: bb5d e23b 0a62 6cbd 4bda 3f3b 7aa1 8cbd
000001b0: 5c58 823b a51f 36bd 601e 483c 4b47 94bc
000001c0: d359 2ebc 97db b3bb 259f d5bd 355b ac3c
000001d0: 49d0 683b 5047 9dbc 8280 80bd 782c cfbb
000001e0: ab91 df3c cb5b fdbc 14c9 5ebd a7d2 45bd
000001f0: be7a d2bd 1cb0 c9bd cd88 b1bc d8f1 113d
00000200: ac97 65bd 0d98 703c dfc2 02bd ede7 14bb
00000210: 62e2 aebc b233 43bc 5ec0 6cbd bd29 9bbd
00000220: aeb4 8ebd b482 bfbc ef23 5cbd 975b 203c
00000230: ae67 263c 9587 343c daa2 b5bc 9add 4dbd
00000240: 4a62 45bd c61c 51bd 8d91 6abd 092c 3ebd
00000250: 20e5 12ba fc4b 85bc b5e3 a4bc c388 15bd
00000260: 8ddf 8abd cc4a 8dbd 3d76 da3c 7134 96bd
00000270: 0b2d 1dbd d637 0abd bbf3 59bd 5616 353d
00000280: 2ff8 ba3c 8305 6a3c 98cc 023d d579 9bbc
00000290: ec0f a53b 992f 673d f2a4 e4bc 60d0 033d
000002a0: ca8f 0bbc cef2 34bc 8b89 67bd 1d1b 83bd
000002b0: bd14 143d eb70 453c c234 463c 609d 95bd
000002c0: 47e6 093e 80d4 9e3d a688 1b3d df77 553d
000002d0: ccbe 8f3c ff2b 14bd a174 58bd 017e eaba
000002e0: bde0 90bd 98a1 473d e668 733d e0dd 1abd
000002f0: 0693 1cbd 6b23 51bd 0bce 23bc 0a2b 8b3c
00000300: 8177 afbd 3a24 d2bd ac7d b03c 8922 92bc
00000310: 4528 81bd 9e88 cbbc 9f5e 07bd 7f76 9c3a
00000320: ac4b 07bd d472 23bd f804 463d 9f1c 8c3c
00000330: d39b afbd 0e32 783c 1b9e 56bb 0e58 993d
00000340: fd07 bbbc a97a 86bd d4dd 8a3d 0f6e 8f3b
00000350: bae9 b4bd 3263 c8bb f433 c5bc cd4f 0fbc
00000360: a9a0 07be a1a1 99bd cedb 16be 62eb e6bc
00000370: db9c 52bd 4864 c2bd a571 d03d cc09 9d3d
00000380: b273 7b3d b691 cdbc 49f6 6c3b 5866 0b3d
00000390: bd90 3d3c 36bb dabc 081c e1bc 4c51 0e3b
000003a0: b713 603d 23a4 3cbb 2449 84bc 9580 7e3c
000003b0: c204 27bd 734a 423d 3ccb acbc 4ce8 beba
000003c0: 1fcb 4d3b 27b6 bebc d0a7 ff3c 8641 2a3c
000003d0: 6553 96bd 33b7 1bbc 78a1 63bd ddf9 9a3b
000003e0: 99eb 89bb b55c 603c d85e d6ba 7fed a3bc
000003f0: 7d4a 08bd bc50 eb3c 3693 6fbd 4145 0d3d

fc1.bias f4 [50]
-0.03121891 -0.032093 0.0044211675 0.026863258 0.0074064513 -0.003310632 -0.029696105 -0.037596896
-0.00687931 -0.0368798 -0.040319048 0.018622767 -0.04882478 -0.03595397 -0.004997343 0.030443635
0.05694496 -0.0032404484 0.042128604 0.03596583 -0.045662202 -0.04184726 -0.030976603 0.025353342
-0.04858337 -0.048794664 -0.013487226 -0.069476545 0.022835927 0.016575646 0.016528387 0.07941556
-0.048856117 0.045501243 -0.052956007 0.04042823 0.034285355 0.03674676 -0.053179234 -0.0013917381
-0.03071281 0.008439679 0.02578955 -0.003995314 0.041895594 0.02378228 0.051265523 0.011255833
-0.044331685 -0.0347062
00000000: cdbe ffbc f373 03bd 71df 903b 5610 dc3c
00000010: d1b1 f23b 30f7 58bb 3f45 f3bc 34ff 19bd
00000020: d66b e1bb 460f 17bd 9625 25bd c68e 983c
00000030: 7efc 47bd 7844 13bd c0c0 a3bb ee64 f93c
00000040: 1e3f 693d b45d 54bb 0b8f 2c3d e850 133d
00000050: 4a08 3bbd 0868 2bbd a5c2 fdbc d0b1 cf3c
00000060: 5bff 46bd eadc 47bd 87f9 5cbc b849 8ebd
00000070: 6912 bb3c a6c9 873c 8a66 873c a0a4 a23d
00000080: 5a1d 48bd 835f 3a3d 66e8 58bd 1298 253d
00000090: cd6e 0c3d c583 163d 78d2 59bd fb6a b6ba
000000a0: 6e99 fbbc 9446 0a3c 9b44 d33c 1feb 82bb
000000b0: b79a 2b3d 0ed3 c23c ccfb 513d 636a 383c
000000c0: 2495 35bd 1728 0ebd

fc2.weight f4 [10, 50]
-0.09727153 -0.038839642 0.041349918 -0.17557703 -0.13301617 0.111168794 0.04924285 0.013880701
0.00998134 0.0011230338 -0.08957547 0.0075287805 -0.010726127 -0.084709674 -0.0053434246 0.024649825
0.07226579 -0.07201547 -0.19665827 -0.05888347 0.013363746 0.082534954 -0.04093375 -0.0019420155
-0.078305796 0.1540422 -0.0059970487 0.043460675 -0.10395746 -0.09958342 -0.05089498 0.05855415
0.07274328 0.14479692 0.13337325 0.067808226 -0.10062258 0.0565568 0.06966745 -0.044232037
-0.00069357455 0.21037193 0.19383387 0.11068895 -0.118578784 0.21368806 -0.11237152 -0.15095082
0.04057014 -0.040808126 0.054136757 0.07305697 -0.05581262 -0.038793642 0.029673062 0.008949741
0.0035464333 0.1515802 -0.063265905 -0.046811573 0.18072852 0.07344035 0.06270934 -0.026524171
0.14431396 0.12581845 0.016306162 -0.10749694 -0.022440577 0.03733145 -0.12999123 -0.061745606
0.0087773325 -0.0638026 0.14141944 -0.0015315567 -0.0418176 -0.003246318 0.05106756 -0.100541145
-0.019164449 -0.2455763 0.07179979 -0.032481845 -0.0797906 0.08555407 -0.12157108 0.027460534
-0.044892088 -0.15405026 0.094195195 -0.064891 -0.07519575 0.042104587 0.072428726 0.096366
-0.10283209 0.047175344 0.098507196 -0.018268429 -0.06153775 -0.03560757 0.09233672 0.01355591
0.13345197 -0.06384164 -0.06303123 0.12109471 -0.020982878 0.06939142 -0.025008352 0.016523477
-0.04153183 0.0853792 -0.07078761 0.013733282 0.13635473 -0.07107597 -0.033442877 0.015666276
-0.06320023 -0.05795989 0.07102136 0.1762828 0.16655755 -0.050046645 -0.027264439 0.015005428
-0.049967546 0.14486074 0.06275014 -0.13269977 -0.050932508 0.028837647 0.04721608 0.01051633
-0.05571185 0.029338138 -0.047909066 -0.028884692 -0.08808878 0.16574839 0.05577258 0.057309773
-0.03917777 -0.011690213 0.03740457 -0.056055628 0.060215656 -0.0060964385 0.16607812 -0.009914771
-0.018667145 -0.056379348 0.12822361 -0.047153737 0.03620436 -0.07187921 0.09159016 0.089435235
-0.07257253 -0.021865241 0.10279743 0.16276528 0.012761541 0.044494998 0.16220476 -0.098294646
0.12467985 0.09184618 -0.009353118 0.04088599 -0.04215879 0.08245064 0.0094621545 0.13368486
0.06318978 0.014979245 0.041247826 -0.005848497 0.020613948 -0.05515272 0.07047602 -0.009968537
0.09310309 0.100202195 -0.18489102 0.10343641 -0.14618643 0.042197958 -0.056828666 0.055410236
-0.0084621385 0.017808143 0.08176008 -0.042349525 0.002978261 0.067224935 0.09949641 0.002864463
0.008670985 -0.010335443 -0.029279714 -0.122691624 -0.11278953 -0.0733967 0.082989834 0.1133328
-0.0812082 -0.02706386 0.07002958 -0.1062002 -0.067646116 -0.041708633 0.07054419 -0.0034194665
-0.07756927 0.051222403 0.10637557 -0.0997402 0.027297245 -0.12184508 0.15831575 -0.016020168
0.0691333 0.054884307 0.058040652 0.097753406 -0.042227983 -0.04025887 -0.053279106 -0.08700106
0.11285418 0.014614998 0.095909975 0.0023507788 0.16674073 0.07243932 -0.035821028 -0.03386802
-0.00071819185 -0.0434247 -0.10846891 0.042028464 -0.044150665 0.08865038 -0.049518105 -0.10282911
-0.016972927 -0.019191995 0.103551105 -0.10914627 -0.050265323 -0.06150659 0.070638016 0.055797372
00000000: 4c36 c7bd 5116 1fbd 885e 293d 77ca 33be
00000010: 6435 08be 77ac e33d dfb2 493d e16b 633c
00000020: c688 233c c332 933a 5873 b7bd fdb3 f63b
00000030: a3bc 2fbc 447c adbd e517 afbb 6eee c93c
00000040: 1600 943d d97c 93bd c960 49be cb2f 71bd
00000050: 9df3 5a3c 1608 a93d 26aa 27bd 3a8b feba
00000060: ca5e a0bd 3dbd 1d3e e482 c4bb d203 323d
00000070: a6e7 d4bd 64f2 cbbd 4177 50bd 7ad6 6f3d
00000080: 6efa 943d a545 143e ff92 083e 0adf 8a3d
00000090: 3613 cebd 1aa8 673d cfad 8e3d a72c 35bd
000000a0: 00d1 35ba bd6b 573e 637c 463e e3b0 e23d
000000b0: 6fd9 f2bd 0bd1 5a3e 0a23 e6bd da92 1abe
000000c0: e02c 263d 6c26 27bd 81be 5d3d e59e 953d
000000d0: c69b 64bd 15e6 1ebd ec14 f33c efa1 123c
000000e0: 476b 683b d737 1b3e 8e91 81bd 7ebd 3fbd
000000f0: e610 393e e567 963d c16d 803d 3849 d9bc
00000100: 0ac7 133e 8dd6 003e 8094 853c 5b27 dcbd
00000110: 4dd5 b7bc dde8 183d 6c1c 05be f6e8 7cbd
00000120: cdce 0f3c f0aa 82bd 42d0 103e 84be c8ba
00000130: ef48 2bbd 2ec0 54bb 382c 513d 84e8 cdbd
00000140: c3fe 9cbc 5b78 7bbe c50b 933d af0b 05bd
00000150: 4169 a3bd f936 af3d 42fa f8bd eaf4 e03c
00000160: c4e0 37bd 5abf 1dbe 69e9 c03d 93e5 84bd
00000170: 3b00 9abd dc75 2c3d 8355 943d 8a5b c53d
00000180: a199 d2bd ef3a 413d 24be c93d aca7 95bc
00000190: 020f 7cbd 3ed9 11bd 091b bd3d 9c19 5e3c
000001a0: a2a7 083e 68bf 82bd 8416 81bd 8100 f83d
000001b0: 49e4 abbc 171d 8e3d 51de ccbc 3e5c 873c
000001c0: 481d 2abd 4adb ae3d 18f9 90bd 8f01 613c
000001d0: 93a0 0b3e 4790 91bd 66fb 08bd 9056 803c
000001e0: 1f6f 81bd 5a67 6dbd a673 913d 7a83 343e
000001f0: 108e 2a3e b6fd 4cbd ac59 dfbc 54d9 753c
00000200: c5aa 4cbd 6056 143e 2583 803d 73e2 07be
00000210: 9b9e 50bd ee3c ec3c a665 413d af4c 2c3c
00000220: 1c32 64bd 8956 f03c 4c3c 44bd 979f ecbc
00000230: e467 b4bd f2b9 293e ca71 643d a7bd 6a3d
00000240: df78 20bd 4f88 3fbc 8935 193d 969a 65bd
00000250: b1a4 763d a2c4 c7bb 6210 2a3e 9071 22bc
00000260: d7eb 98bc 08ee 66bd 0d4d 033e 4724 41bd
00000270: 064b 143d 6835 93bd 9f93 bb3d d229 b73d
00000280: e8a0 94bd bc1e b3bc 7587 d23d f1ab 263e
00000290: c815 513c 6340 363d 0119 263e b44e c9bd
000002a0: 2658 ff3d da19 bc3d d23d 19bc 1178 273d
000002b0: b2ae 2cbd e2db a83d 2707 1b3c afe4 083e
000002c0: a569 813d 826b 753c 7bf3 283d c0a4 bfbb
000002d0: 95de a83c d2e7 61bd bb55 903d 1353 23bc
000002e0: d5ac be3d cf36 cd3d 1254 3dbe 78d6 d33d
000002f0: e5b1 15be c4d7 2c3d 2dc5 68bd d8f5 623d
00000300: c8a4 0abc 62e2 913c d471 a73d b276 2dbd
00000310: ee2e 433b 3aad 893d c6c4 cb3d b7b9 3b3b
00000320: bf10 0e3c fd55 29bc 03dc efbc bf45 fbbd
00000330: 32fe e6bd 0251 96bd 93f6 a93d 071b e83d
00000340: 7c50 a6bd 07b5 ddbc ab6b 8f3d 7e7f d9bd
00000350: 0c8a 8abd acd6 2abd 7979 903d 2119 60bb
00000360: a3dc 9ebd 95ce 513d 6fdb d93d 9744 ccbd
00000370: 799e df3c ea89 f9bd 861d 223e ba3c 83bc
00000380: c295 8d3d 5ece 603d 09bc 6d3d f032 c83d
00000390: 40f7 2cbd 7ce6 24bd 313b 5abd 9d2d b2bd
000003a0: 1820 e73d bf73 6f3c 736c c43d 860f 1a3b
000003b0: 15be 2a3e 115b 943d 12b9 12bd 31b9 0abd
000003c0: 0a45 3cba 19de 31bd f324 debd 0a26 2c3d
000003d0: 54d7 34bd 558e b53d 7fd3 4abd 1298 d2bd
000003e0: cf0a 8bbc 8838 9dbc 9a12 d43d 1488 dfbd
000003f0: 03e3 4dbd 56ee 7bbd aaaa 903d c98b 643d

fc2.bias f4 [10]
-0.12563191 -0.0066816066 0.085918486 0.048295416 -0.03852951 -0.020283619 0.021322196 0.12072125
0.033518404 0.06561076
00000000: a7a5 00be 61f1 dabb 08f6 af3d 6ad1 453d
00000010: 1fd1 1dbd d529 a6bc e3ab ae3c b43c f73d
00000020: 984a 093d ef5e 863d

momentum_buffer f4 [10, 1, 5, 5]
-0.00063358934 -0.009366966 -0.025252633 -0.01626297 -0.10127108 -0.0034097764 -0.0028072447 0.014567185
0.0004565835 -0.072534464 -0.0033811606 0.004539502 0.010866893 0.005803042 -0.043360014 -0.00014500532
-1.6287995e-06 -3.0164307e-05 -0.00061398116 0.0022638242 -0.0034113245 0.00010709465 2.0401643e-05 -0.0006040876
0.0039162645 -5.52159e-07 -1.6234463e-07 0.0024603421 1.224433e-05 -7.474698e-12 -3.180263e-11 -1.3429939e-06
0.00015681887 0.0004806067 9.9953885e-17 2.47165e-06 8.52757e-06 -1.3776979e-06 -6.888119e-07 9.865147e-15
-0.001552269 -3.6229724e-07 -7.1836756e-27 0.0 6.6971045e-15 -0.00013560579 -4.77408e-26 0.0
1.111e-42 -3.3193275e-05 -0.0002879891 -5.0229486e-05 -5.3871187e-05 -0.0012251474 -0.0022299031 -0.00014226002
2.1781149e-07 -6.0019913e-05 -0.00011093269 8.756019e-06 -0.002496952 -1.0596709e-06 7.586421e-05 6.377518e-05
-0.0005703607 -0.00019803652 1.7149367e-09 0.00034137804 4.9627546e-05 -0.0022658221 -1.0855277e-07 -0.00016350459
-4.6251575e-05 -0.00022326701 -0.0001576287 -0.04064603 0.030129287 0.01799278 0.0049910843 0.046893876
-0.033075787 -8.640811e-06 0.0062861536 0.0038694846 0.026994186 -0.044037383 -0.017336722 0.0060263015
0.04312009 0.06897153 -0.037950337 -0.0013393671 -0.00026251242 0.027703006 0.20688032 -0.007943271
0.030611426 0.03822326 0.1282379 0.305075 0.40288177 0.38583186 0.3978231 0.2702191
0.12587322 0.29606038 0.30352867 0.18765326 0.06438525 0.025710788 0.21410625 0.10776543
0.026654745 -0.00078791566 -0.0057046316 0.03575166 0.0056477766 -0.046013646 -0.0732772 -0.09269752
-0.034482863 -0.008659641 -0.035381902 -0.17896116 0.025939796 -0.40754688 -0.42597154 -0.3815367
-0.25570753 -0.2827797 -0.31066412 -0.38336936 -0.26780713 -0.28001708 -0.19685099 -0.18544102
-0.23791766 -0.12730706 -0.08443396 -0.11245835 -0.09208977 -0.004114624 0.010450764 0.049099267
0.0699913 -0.00833288 -0.007149405 -0.007598739 0.046045914 0.025368208 0.0009155462 0.0054899286
5.766786e-05 -1.8249072e-12 -5.0488745e-12 -0.00037677336 4.673748e-07 3e-45 0.0 1.6238163e-15
-8.2042254e-07 0.0 0.0 0.0 4.4024588e-36 -9.388359e-14 0.0 0.0
0.0 7.572229e-35 1.4e-44 1.78e-43 9.545425e-38 3.81817e-37 -3.529267e-14 0.13801198
0.119191065 0.027454171 0.00041413592 0.00072574394 0.14682662 0.09803058 0.005684511 0.0066034505
0.006336507 0.09221623 0.020370776 -0.0021590379 0.0057197018 0.004831709 0.00789481 -0.0038341496
0.0029394138 0.003440865 0.0006738445 0.00076198636 -0.0011922093 -0.0006553598 0.0001122901 0.00030972107
0.11420914 0.09885872 0.08129533 0.101627834 0.28000504 0.09017071 0.07834817 0.13817587
0.2601096 0.33150136 0.12138306 0.1421795 0.31591824 0.31166226 0.25818783 0.17436962
0.2745064 0.30073524 0.26163355 0.097335026 0.29312432 0.2897972 0.21875635 0.034360185
0.0029819917 -0.08776882 0.01118429 0.029995594 0.02606994 0.022720011 -0.036854643 0.007856163
0.002763711 0.004868338 0.0065891244 -0.046798013 -0.01795459 0.012008793 0.034658466 -0.060957436
-0.07174209 -0.04336881 0.0069613755 -0.0413902 -0.17692336 -0.070480585 -0.1180054 -0.071774974
-0.2528798 -0.19847712
00000000: 7617 26ba e777 19bc 9cde cebc ec39 85bc
00000010: 3667 cfbd 8e76 5fbb c0f9 37bb 34ab 6e3c
00000020: 9a61 ef39 f38c 94bd 7696 5dbb 1ac0 943b
00000030: 0e0b 323c 7227 be3b 459a 31bd 920c 18b9
00000040: 209d dab5 5b09 fdb7 94f3 20ba ab5c 143b
00000050: 8790 5fbb 0198 e038 3224 ab37 a25b 1eba
00000060: 0254 803b 1438 14b5 f450 2eb4 b13d 213b
00000070: ff6c 4d37 0c7f 03ad 94de 0bae eb40 b4b5
00000080: bf6f 2439 f0f9 fb39 5c7a e624 a0de 2536
00000090: a211 0f37 57e9 b8b5 cbe6 38b5 f6b6 3128
000000a0: 8175 cbba c181 c2b4 9049 0e94 0000 0000
000000b0: e349 f127 6731 0eb9 a766 6c95 0000 0000
000000c0: 1903 0000 0239 0bb8 3efd 96b9 80ad 52b8
000000d0: bff3 61b8 2095 a0ba 9123 12bb a22b 15b9
000000e0: 91df 6934 e4bd 7bb8 89a4 e8b8 d1e6 1237
000000f0: e7a3 23bb 043a 8eb5 4a19 9f38 0abf 8538
00000100: 4284 15ba 06a8 4fb9 f9b2 eb30 fcfa b239
00000110: 2c27 5038 307e 14bb 841d e9b3 6e72 2bb9
00000120: 40fe 41b8 c81c 6ab9 2249 25b9 747c 26bd
00000130: b2d1 f63c 9865 933c 408c a33b cb13 403d
00000140: 7a7a 07bd 00f8 10b7 14fc cd3b 2e97 7d3b
00000150: e922 dd3c 8b60 34bd be05 8ebc 4878 c53b
00000160: b19e 303d f240 8d3d d071 1bbd b48d afba
00000170: d2a1 89b9 6af1 e23c 6fd8 533e 7e24 02bc
00000180: d0c4 fa3c fe8f 1c3d cc50 033e ca32 9c3e
00000190: 8546 ce3e c18b c53e 78af cb3e 285a 8a3e
000001a0: e9e4 003e 3a95 973e 1c68 9b3e 2d28 403e
000001b0: 6adc 833d 6e9f d23c ab3e 5b3e 1fb4 dc3d
000001c0: 0d5b da3c 208c 4eba ebed babb 5570 123d
000001d0: fc10 b93b ce78 3cbd 5b12 96bd 33d8 bdbd
000001e0: e73d 0dbd 2be1 0dbc 9dec 10bd 9841 37be
000001f0: b27f d43c fca9 d0be f118 dabe c758 c3be
00000200: 19ec 82be 80c8 90be 5e0f 9fbe fd48 c4be
00000210: 041e 89be 665e 8fbe 4e93 49be 40e4 3dbe
00000220: b0a0 73be c85c 02be b6eb acbd 9050 e6bd
00000230: 9099 bcbd f8d3 86bb ae39 2b3c 501c 493d
00000240: 9957 8f3d a286 08bc 8e45 eabb d8fe f8bb
00000250: a49a 3c3d fdd0 cf3c 4401 703a dce4 b33b
00000260: 65e0 7138 9b6a 00ac 38a4 b1ac aa89 c5b9
00000270: 81eb fa34 0200 0000 0000 0000 3f04 ea26
00000280: 023b 5cb5 0000 0000 0000 0000 0000 0000
00000290: 8842 bb04 3468 d3a9 0000 0000 0000 0000
000002a0: 0000 0000 ec4d c906 0a00 0000 7f00 0000
000002b0: f4ec 0102 f4ec 0103 aef1 1ea9 0353 0d3e
000002c0: 721a f43d 92e7 e03c 6220 d939 da3f 3e3a
000002d0: b859 163e 42c4 c83d 2245 ba3b c261 d83b
000002e0: 79a2 cf3b dddb bc3d 9de0 a63c a57e 0dbb
000002f0: 566c bb3b 5053 9e3b 3c59 013c 5b46 7bbb
00000300: 2ea3 403b 2380 613b f0a4 303a 0ac0 473a
00000310: e843 9cba 74cc 2bba 4a7d eb38 0f62 a239
00000320: 7be6 e93d 7176 ca3d 2a7e a63d 4122 d03d
00000330: d25c 8f3e 6cab b83d 0175 a03d fa7d 0d3e
00000340: 162d 853e 8cba a93e af97 f83d 8197 113e
00000350: 09c0 a13e 3292 9f3e 3231 843e f38d 323e
00000360: 1a8c 8c3e f8f9 993e d5f4 853e 9657 c73d
00000370: 6414 963e 4c60 943e aa01 603e 44bd 0c3d
00000380: 856d 433b 24c0 b3bd 503e 373c 52b9 f53c
00000390: a090 d53c 511f ba3c e5f4 16bd 23b7 003c
000003a0: 601f 353b 9486 9f3b 95e9 d73b 46af 3fbd
000003b0: 8115 93bc 87c0 443c 09f6 0d3d 81ae 79bd
000003c0: 84ed 92bd 7ea3 31bd 401c e43b c588 29bd
000003d0: 662b 35be 2058 90bd d1ac f1bd c2fe 92bd
000003e0: 7679 81be 963d 4bbe

momentum_buffer f4 [10]
-0.000438412 8.243782e-05 0.00060811976 0.0035334108 0.0024990744 -0.0031520019 0.0001654826 0.0006016514
0.0041164896 0.0010545286
00000000: aada e5b9 78e2 ac38 3a6a 1f3a cc90 673b
00000010: 83c7 233b d191 4ebb 6685 2d39 24b8 1d3a
00000020: 9ee3 863b 1c38 8a3a

momentum_buffer f4 [20, 10, 5, 5]
0.018459495 0.0038481737 -0.00012876258 3.696943e-05 0.00066335796 -0.008685791 -0.005682165 0.005394608
0.00043425383 0.000954549 -0.006817804 -0.007959662 -0.009281387 0.037967917 0.014977437 -0.0068146237
-0.008082561 -0.024286533 -0.018639058 0.034206167 -0.0003724005 -0.006338275 0.024794625 0.0475771
0.00073641364 4.3164502e-05 -9.85338e-05 5.64629e-05 -8.325439e-05 -1.2193053e-07 -2.709921e-05 3.1533014e-05
0.00029156182 2.124781e-09 2.7556785e-11 -2.1958408e-06 0.00020267992 1.3333184e-07 5.7529637e-10 1.1834723e-05
0.00021432285 5.0578903e-05 -8.298536e-06 1.3311316e-05 7.986654e-06 -3.4915174e-05 -2.4845018e-08 5.0022936e-05
1.8056788e-07 2.3162197e-06 6.0854887e-05 -0.00012077115 0.00012786216 -6.132534e-05 -4.6606365e-05 -3.062151e-05
6.4940905e-05 0.00056940084 4.430675e-05 -8.624373e-06 -0.00035305732 0.00031811412 -2.3318298e-05 -5.877971e-05
-8.383608e-05 0.0004397187 0.00020649617 5.6841935e-05 -6.395393e-05 4.9816117e-07 -3.7564569e-06 -7.0765236e-05
4.662659e-06 0.00048981013 -0.00010907659 -0.017168345 -0.010078456 -0.052079998 -0.0029376876 0.013508577
0.0015761722 -0.018660847 -0.069239885 0.03309912 0.02762645 -0.022024985 -0.0020066628 0.024426633
0.027223874 0.00809396 -0.041050673 0.026932297 0.020497072 0.01997621 -0.0012859274 0.032403756
0.024391131 0.01777156 0.053097956 0.017500486 -0.028135227 -0.09441513 -0.06787375 -0.01779959
0.038417045 -0.05230809 -0.08352785 -0.05473551 0.0456924 0.057289846 -0.08056805 -0.009285086
0.035422634 0.045030087 0.0037914019 -0.032983486 0.030915892 0.010876575 -0.011898749 -0.087023415
0.06779109 0.0005251765 0.009690848 0.009493756 0.057048228 0.013922977 0.017689338 -0.000506487
0.0007135417 0.0007077919 -0.0076169125 -0.015313156 0.0015113594 0.033517595 0.033409193 -9.617768e-06
-0.01667289 -0.047218174 -0.0057492945 -0.060403883 0.01688543 -0.0002836939 0.019690787 -0.0046100505
0.043636464 0.004066636 -0.000110487454 0.0016438551 0.03721469 0.049353957 -2.743949e-07 3.6788344e-05
6.294681e-05 2.1616965e-05 1.8369182e-12 -1.2368094e-05 -2.3660317e-05 5.330228e-06 -2.4609908e-06 -1.7662757e-10
-5.1524297e-05 3.0708164e-10 0.00017337012 5.147854e-16 6.2142717e-13 -5.211613e-13 0.00010769844 7.54462e-08
-1.6948645e-05 -5.9324124e-05 -9.180826e-14 -7.75491e-09 -9.947466e-07 0.00012121989 -2.186675e-05 0.0004511175
0.0015878044 -0.0094255805 -0.00027343613 -0.0007506726 0.0014294143 -0.0118034445 -0.014526304 -0.00040770648
0.0034543113 4.8742557e-05 0.0032781786 0.00530056 0.004214398 0.0025157952 0.0007629944 0.0015909108
-0.0026678634 0.00014618323 -0.00071034284 0.0012219573 7.480386e-06 0.0025201142 0.004614193 -0.0006725094
-0.045927245 -0.0007808567 -0.02081564 -0.005062271 -0.014308537 -0.014973108 0.003905066 0.0028322744
0.012073625 0.0070361635 -0.0005752896 0.0067598857 -0.050148655 -0.072447084 -0.02971815 0.018149467
0.005115891 0.017550519 0.08147427 0.073329926 -0.017206714 0.023180796 -0.0044570984 -0.0005737557
-0.009009867 0.0029344694 -0.0012696049 -0.028337177 -0.03650436 -0.024138182 0.031088714 0.013951506
-0.0071458286 -0.024128612 -0.012292356 -0.018330868 -0.01882659 0.001567182 0.041813824 0.06611715
-0.07929298 -0.07029856 0.0017727976 0.032687314 -0.0015708811 0.039135933 -0.04696225 -0.054180965
-0.031933695 -0.037733488 0.02261078 -3.8783997e-05 -0.016622227 0.0006735042 -0.007945311 0.00637969
00000000: 5e38 973c a431 7c3b 7104 07b9 a00f 1b38
00000010: 33e5 2d3a d94e 0ebc 7431 babb 40c5 b03b
00000020: 90ac e339 b33a 7a3a e367 dfbb 3e69 02bc
00000030: f510 18bc 3f84 1b3d ed63 753c 354d dfbb
00000040: b86c 04bc 8df4 c6bc f0b0 98bc c41b 0c3d
00000050: c03e c3b9 4eb1 cfbb 191e cb3c 35e0 423d
00000060: e20b 413a 880b 3538 eea3 ceb8 94d2 6c38
00000070: dc98 aeb8 02ec 02b4 1c53 e3b7 5142 0438
00000080: c4dc 9839 8b03 1231 5d64 f22d 425c 13b6
00000090: 7a86 5439 fa29 0f34 e222 1e30 c08d 4637
000000a0: dabb 6039 af24 5438 f139 0bb7 ab53 5f37
000000b0: 6bfe 0537 e271 12b8 c66a d5b2 b8cf 5138
000000c0: 1fe2 4134 5a70 1b36 703e 7f38 8446 fdb8
000000d0: bd12 0639 cb9b 80b8 347b 43b8 996f 00b8
000000e0: e230 8838 d843 153a 03d6 3938 66b1 10b7
000000f0: 8d1a b9b9 8ec8 a639 aa9b c3b7 3c8a 76b8
00000100: 27d1 afb8 0b8a e639 e586 5839 9069 6e38
00000110: 011f 86b8 60b9 0535 7017 7cb6 cc67 94b8
00000120: f073 9c36 9a66 003a 0cc0 e4b8 a1a4 8cbc
00000130: 1c20 25bc d651 55bd 3886 40bb 1453 5d3c
00000140: 9097 ce3a a2de 98bc a4cd 8dbd f192 073d
00000150: dd50 e23c be6d b4bc 3782 03bb 5d1a c83c
00000160: 9a04 df3c 879c 043c c024 28bd 1fa1 dc3c
00000170: 7ae9 a73c 26a5 a33c 908c a8ba cdb9 043d
00000180: e9cf c73c aa95 913c 3e7d 593d 2e5d 8f3c
00000190: d97b e6bc b85c c1bd 6501 8bbd 72d0 91bc
000001a0: 315b 1d3d 0241 56bd a610 abbd 5832 60bd
000001b0: f427 3b3d c2a8 6a3d dd00 a5bd 7920 18bc
000001c0: 5317 113d 7871 383d 2b79 783b b119 07bd
000001d0: 5343 fd3c a933 323c f8f2 42bc 5539 b2bd
000001e0: 0ed6 8a3d 00ac 093a 5dc6 1e3c b38b 1b3c
000001f0: 67ab 693d 331d 643c 3be9 903c c4c5 04ba
00000200: f90c 3b3a 1c8b 393a 4b97 f9bb 08e4 7abc
00000210: ce18 c63a bf49 093d 14d8 083d 005c 21b7
00000220: 9695 88bc d867 41bd 9464 bcbb 106a 77bd
00000230: 5053 8a3c c0bc 94b9 934e a13c e80f 97bb
00000240: 26bc 323d 6a41 853b 80b5 e7b8 a076 d73a
00000250: 6e6e 183d 6027 4a3d 8c50 93b4 2f4d 1a38
00000260: 5002 8438 1456 b537 fa42 012c 8f80 4fb7
00000270: 257a c6b7 4fda b236 8027 25b6 3e34 42af
00000280: cb1b 58b8 e6d1 a82f b0ca 3539 7560 1426
00000290: 8cea 2e2b a1b1 12ab 29dc e138 fd04 a233
000002a0: f02c 8eb7 cbd2 78b8 dcbb cea9 743a 05b2
000002b0: 3c83 85b5 6f37 fe38 7d6e b7b7 f783 ec39
000002c0: e01d d03a c06d 1abc fa5b 8fb9 c9c8 44ba
000002d0: 2f5b bb3a 3c63 41bc bcff 6dbc 70c1 d5b9
000002e0: ba61 623b ec70 4c38 b6d6 563b 52b0 ad3b
000002f0: ef18 8a3b 0ae0 243b b003 483a 1c86 d03a
00000300: 52d7 2ebb c348 1939 4d36 3aba 152a a03a
00000310: 0700 fb36 8028 253b a832 973b 584b 30ba
00000320: 351e 3cbd 68b2 4cba 9085 aabc 68e1 a5bb
00000330: 5b6e 6abc c451 75bc 23ec 7f3b ae9d 393b
00000340: 74d0 453c 9e8f e63b 08cf 16ba 0882 dd3b
00000350: ad68 4dbd 235f 94bd 7a73 f3bc 31ae 943c
00000360: 34a3 a73b 1bc6 8f3c fbdb a63d 002e 963d
00000370: 18f5 8cbc a7e5 bd3c da0c 92bb 1868 16ba
00000380: 1f9e 13bc 3a50 403b df68 a6ba 5e23 e8bc
00000390: 9985 15bd 70bd c5bc c2ad fe3c db94 643c
000003a0: 8e27 eabb 5ea9 c5bc e165 49bc 9e2a 96bc
000003b0: 393a 9abc e769 cd3a f944 2b3d 6e68 873d
000003c0: 5c64 a2bd b1f8 8fbd 375d e83a 22e3 053d
000003d0: 06e6 cdba 004d 203d 7d5b 40bd dcec 5dbd
000003e0: e8cc 02bd 6e8e 1abd 3e3a b93c 00ac 22b8
000003f0: 562b 88bc 1a8e 303a 0d2d 02bc b80c d13b

momentum_buffer f4 [20]
1.5696787e-05 0.0013163271 -0.00086763036 -4.639066e-05 -0.00086976745 0.00046894018 5.796903e-05 -0.00039032707
0.0 -0.0005161646 -0.0018509483 0.00085747684 -0.00083706086 0.0024433732 -0.0014628854 0.00021624673
-0.0006015274 -2.0466166e-05 -0.0021690421 0.0012593591
00000000: 98ac 8337 9c88 ac3a b071 63ba 9893 42b8
00000010: 1b01 64ba 16dc f539 c623 7338 d0a4 ccb9
00000020: 0000 0000 384f 07ba 859b f2ba 4cc8 603a
00000030: 346e 5bba 0021 203b 4abe bfba 4ac0 6239
00000040: d2af 1dba c2ae abb7 7d26 0ebb 1411 a53a

momentum_buffer f4 [50, 320]
0.061454467 0.046233915 3.29486e-07 0.0026945043 0.041650347 0.024674037 0.011319958 0.0017830334
0.00091378373 0.0017556659 0.037264768 3.694313e-05 0.0153336935 0.0057699704 0.03293628 0.0055039898
-0.0001890377 -3.3740143e-06 1.9766258e-06 0.0075570038 2.7150376e-11 0.017232016 0.015420083 0.0077230097
0.0033918174 0.016500179 -0.046592884 -0.019464152 -3.494104e-06 -0.0012503717 -0.0018593876 -0.020675689
0.0024418666 2.4952883e-06 -6.7645867e-13 6.3546697e-34 0.00062761724 2.456475e-26 -7.952566e-06 -1.2305544e-29
8.0371e-13 1.750505e-24 -2.1556095e-06 -2.0600883e-20 0.0012382858 -1.60114e-39 0.0 0.0
-0.058350872 1.0663886e-06 4.1110775e-06 -0.00010290297 -0.0143660195 0.00013650797 -0.02134692 -0.00011279399
-1.5982221e-05 -0.00014429775 -0.01691819 -0.007439452 -0.0002573432 -6.3772396e-09 -9.636368e-11 -1.3835732e-06
-0.045714892 -0.05172436 -0.048313573 0.004173485 -0.023248145 0.0025649667 -0.00019514433 -0.009547824
-0.09915105 -0.06326159 -0.030196989 -0.045041535 -0.0018897973 0.0049313037 0.0034692443 0.00035883044
6.309819e-26 1.3390055e-21 0.0 -2.110648e-18 -9.890384e-10 2.4202245e-05 -2.1667236e-05 0.004001067
-4.501605e-09 0.002104494 -8.555492e-07 0.0068836035 -0.00011771165 0.0006433293 -1.4485809e-07 0.001420619
0.00859779 0.0 0.0 0.0 -1.7696187e-09 0.0 6.54881e-24 0.0
1.0236315e-09 0.0 0.0 0.0 -2.724752e-10 -4.5430825e-25 0.0 0.0
-0.000100310506 6.7242816e-08 0.0 0.0 -6.672207e-05 -1.0105915e-05 8.200481e-14 7.954958e-12
-0.00081199285 -1.4477449e-08 -2.3822727e-18 9.285335e-26 -0.00055391726 4.6411795e-11 5.7382064e-12 2.9655697e-27
0.0 0.0 0.0 0.0 0.0 0.0 0.0 0.0
0.0 0.0 0.0 0.0 0.0 0.0 0.0 0.0
0.005286404 4.0097372e-27 0.0 2.2798748e-25 1.1968888e-24 0.0 0.0 0.0
4.7112518e-23 0.0 0.0 0.0 0.0004176106 1.1254629e-24 0.0 0.0
3.937715e-05 -0.052024115 -0.013327015 -6.3771085e-07 -8.215397e-05 -0.017366879 -7.759262e-05 -0.00063386775
-0.0048479205 -0.0036311864 -0.03619281 -9.256292e-07 -0.0032368314 -0.0017474145 7.0693546e-05 -1.7989648e-09
-0.026193362 -0.07957684 -0.08824603 -0.00026068752 -0.00015844312 -0.00023385191 -0.014508379 0.0011812545
0.0008693426 0.0116036385 -0.04708127 -0.0020150903 0.001410756 -0.0007022079 0.00033112033 -0.016515927
0.0040259003 4.1890226e-07 1.05049054e-07 1.2834907e-11 5.3278504e-06 0.00041696022 0.0012037641 -9.988278e-08
0.00057425105 0.0017264993 0.0029678722 9.021821e-07 -0.0016476904 -0.00063136267 1.865848e-05 -0.0025876402
0.009782525 0.015227815 0.0002742127 -7.639269e-06 0.0005037826 0.001174197 -0.00040024807 0.0011724812
-1.7683527e-06 -2.8505445e-07 0.010496105 0.008403216 0.0046691876 0.00623106 0.012626594 0.0041597583
0.00013504588 -0.00017130871 2.5848835e-06 2.9691885e-06 0.000119951124 -1.43175785e-05 -0.00020352716 0.0003881541
-0.037874408 -0.0013796769 0.0002770252 0.0016797808 -0.00506689 -0.0023908252 0.0012979432 -1.0499614e-05
-3.0108715e-05 0.0032356947 6.8592e-07 1.4782106e-08 0.0011472375 0.0008250931 8.4669927e-07 2.2472922e-07
0.0010829429 -5.2810476e-05 -0.0003012403 -1.4300595e-09 -5.4104615e-15 0.0014932866 6.292316e-12 1.8631576e-12
00000000: aeb7 7b3d c65f 3d3d 36e4 b034 4896 303b
00000010: 8e99 2a3d 3521 ca3c 5877 393c acb4 e93a
00000020: fd8a 6f3a 5f1e e63a f1a2 183d 62f3 1a38
00000030: 2c3a 7b3c 0512 bd3b 31e8 063d d05a b43b
00000040: 6c38 46b9 206d 62b6 2ca6 0436 bea0 f73b
00000050: 36d1 ee2d 282a 8d3c 84a4 7c3c 4d11 fd3b
00000060: 4149 5e3b 622b 873c 2ed8 3ebd 4973 9fbc
00000070: 407c 6ab6 83e3 a3ba b2b6 f3ba 1060 a9bc
00000080: b907 203b ba74 2736 fc67 3eab 8d2b 5308
00000090: ae86 243a 0a47 f314 036c 05b7 0a96 798f
000000a0: 6939 622b 5370 0718 17a9 10b6 e191 c29e
000000b0: fa4d a23a 546f 1180 0000 0000 0000 0000
000000c0: 5301 6fbd d520 8f35 e3f1 8936 9dcd d7b8
000000d0: 745f 6bbc 9423 0f39 bcdf aebc d08b ecb8
000000e0: 8f11 86b7 a24e 17b9 0498 8abc a6c6 f3bb
000000f0: 05ec 86b9 cb1e dbb1 eee7 d3ae 37b3 b9b5
00000100: 8a3f 3bbd ecdc 53bd 74e4 45bd bbc1 883b
00000110: e572 bebc 0019 283b a89f 4cb9 7a6e 1cbc
00000120: b50f cbbd 4b8f 81bd ad5f f7bc 797d 38bd
00000130: 13b3 f7ba c696 a13b 435c 633b 6821 bc39
00000140: 3b39 9c15 4458 ca1c 0000 0000 03bd 1ba2
00000150: b2ee 87b0 ed05 cb37 09c2 b5b7 621b 833b
00000160: 89ac 9ab1 8deb 093b e5a8 65b5 da8f e13b
00000170: f6db f6b8 19a5 283a 4a8a 1bb4 1034 ba3a
00000180: bfdd 0c3c 0000 0000 0000 0000 0000 0000
00000190: ec36 f3b0 0000 0000 4658 fd18 0000 0000
000001a0: d5af 8c30 0000 0000 0000 0000 0000 0000
000001b0: 7acb 95af 029a 0c97 0000 0000 0000 0000
000001c0: cb5d d2b8 2167 9033 0000 0000 0000 0000
000001d0: 23ed 8bb8 938c 29b7 8ea8 b829 f2f1 0b2d
000001e0: ebdb 54ba 7eb8 78b2 dcc7 2fa2 cde4 e515
000001f0: c234 11ba 091f 4c2e 2be5 c92c e6f4 6a13
00000200: 0000 0000 0000 0000 0000 0000 0000 0000
00000210: 0000 0000 0000 0000 0000 0000 0000 0000
00000220: 0000 0000 0000 0000 0000 0000 0000 0000
00000230: 0000 0000 0000 0000 0000 0000 0000 0000
00000240: 9239 ad3b 91d7 9e13 0000 0000 0f1e 8d16
00000250: a635 b917 0000 0000 0000 0000 0000 0000
00000260: 79d2 631a 0000 0000 0000 0000 0000 0000
00000270: bff2 da39 2e28 ae17 0000 0000 0000 0000
00000280: e528 2538 3d17 55bd 8d59 5abc 282f 2bb5
00000290: 144a acb8 fc44 8ebc 38b9 a2b8 252a 26ba
000002a0: 4edb 9ebb 33f9 6dbb e93e 14bd c178 78b5
000002b0: 0521 54bb 8009 e5ba 4f41 9438 723f f7b0
000002c0: 7693 d6bc 2ff9 a2bd 56ba b4bd e3ac 88b9
000002d0: c023 26b9 2536 75b9 8db4 6dbc 53d4 9a3a
000002e0: 98e4 633a 301d 3e3c 4ad8 40bd 9b0f 04bb
000002f0: 1ee9 b83a 6014 38ba 389a ad39 694c 87bc
00000300: b3eb 833b 7de5 e034 5497 e133 48cb 612d
00000310: e3c5 b236 749b da39 9fc7 9d3a 247f d6b3
00000320: 5689 163a b44b e23a a280 423b 7b2d 7235
00000330: 51f7 d7ba 0882 25ba c884 9c37 6695 29bb
00000340: e246 203c 167e 793c 35c4 8f39 692a 00b7
00000350: 4710 043a 83e7 993a 63d8 d1b9 f1ad 993a
00000360: 2358 edb5 9609 99b4 dbf7 2b3c a4ad 093c
00000370: fcff 983b eb2d cc3b c6df 4e3c 954e 883b
00000380: 1a9b 0d39 55a1 33b9 f677 2d36 4542 4736
00000390: 458e fb38 8835 70b7 e869 55b9 2981 cb39
000003a0: 3222 1bbd 46d6 b4ba b13d 9139 172c dc3a
000003b0: 2708 a6bb 64af 1cbb bf1f aa3a 8027 30b7
000003c0: f991 fcb7 f30d 543b 1020 3835 64f4 7d32
000003d0: e75e 963a 104b 583a bb48 6335 194d 7134
000003e0: 89f1 8d3a d180 5db8 caef 9db9 bf8b c4b0
000003f0: b3ee c2a7 62ba c33a 2564 dd2c aa1b 032c

momentum_buffer f4 [50]
-0.002285239 -0.00023108225 0.0009275739 0.00082621974 0.0014040987 8.919784e-06 4.9760623e-05 -0.0029027502
-0.0015987485 0.00019604011 -0.0013355743 0.00027034682 -1.8184335e-05 -0.00021385454 -0.00036718164 9.371521e-06
-0.00094246346 -0.0042633307 -0.0029576295 0.00039511005 0.0013004954 0.00029809066 -0.00040795008 0.0007762369
-0.001114092 -0.0006525321 -0.00073334173 -0.0038908778 -7.773983e-06 0.0022566866 0.0028691026 0.005133896
-1.359924e-13 -0.0010632554 -0.00048501184 3.8576294e-05 -0.0013253251 -0.00070674776 -0.00155782 0.0013590864
0.00021103077 -8.0664336e-08 0.007427215 -0.00041053613 0.00012318678 0.00015023339 0.0015031318 -0.00031346007
-1.533779e-06 0.0024598837
00000000: f3c3 15bb ab4e 72b9 6e28 733a ab96 583a
00000010: bc09 b83a 2ea6 1537 10b6 5038 113c 3ebb
00000020: 198d d1ba 1e90 4d39 700e afba 56bd 8d39
00000030: 908a 98b7 243e 60b9 4982 c0b9 603a 1d37
00000040: a70f 77ba 69b3 8bbb cad4 41bb c626 cf39
00000050: 6275 aa3a 0d49 9c39 22e2 d5b9 607c 4b3a
00000060: b906 92ba b00e 2bba bb3d 40ba 19fe 7ebb
00000070: 016d 02b7 ebe4 133b 8e07 3c3b 3e3a a83b
00000080: 241d 19aa ee5c 8bba 3049 feb9 fbcc 2138
00000090: 88b6 adba 0a45 39ba c42f ccba 5f23 b23a
000000a0: 2448 5d39 b039 adb3 ff5f f33b 3a3d d7b9
000000b0: b32b 0139 f887 1d39 bc04 c53a e657 a4b9
000000c0: 3fdc cdb5 0036 213b
