quick-start/notebooks_gpu/logs/log_20240523-14_25/model_epoch_2.bin (torch, 180126 bytes, 16 tensors)

conv1.weight f4 [10, 1, 5, 5]
000000 6f 4f 96 3c 99 21 bb 3d ca 9a 7e 3d 03 d4 5e 3d
       0.018348424 0.091372676 0.062159337 0.05440141
000010 06 b0 8a bc 92 40 6b be 4b 33 30 bb 4a 79 f2 bd
       -0.016929638 -0.2297385 -0.0026886042 -0.1183954
000020 cd ac 63 3d de 1f 21 bd d0 39 a4 be 9a 42 8a be
       0.055584718 -0.03933703 -0.32075357 -0.27003938
000030 1b 9e 52 be 0a ef 1c 3c 1c 11 2b 3d 49 eb e8 3d
       -0.20568125 0.009578476 0.041764364 0.11373002
000040 8c 08 2c 3d 51 55 6e be 5a c4 56 be f5 ab 88 be
       0.04200034 -0.23274733 -0.2097334 -0.26693693
000050 ba 1f 9a 3d 9c be 52 3d e5 81 c3 3b 50 a6 d6 3d
       0.075255826 0.05145131 0.0059664124 0.1048094
000060 eb f0 98 be 38 fe c0 3d a8 9c 35 be e4 6a 20 bd
       -0.29871306 0.094234884 -0.17735541 -0.03916444
000070 67 14 66 be af d8 0f 3d a1 fa e7 3d 4c d0 16 be
       -0.2246872 0.035118755 0.113271005 -0.14727896
000080 88 0a ef 3c 5f 01 53 bd 35 1e 5a ba ec 76 24 bc
       0.029179826 -0.05151498 -0.0008320541 -0.010038119
000090 23 a8 83 be ef da 91 bd aa 95 f1 3c 5d b6 6b be
       -0.25714216 -0.071218364 0.02949031 -0.23018785
0000a0 14 f3 2b bc 1a d0 ad 3c 50 dc 2b be 9b 1b 69 3d
       -0.010494966 0.021217395 -0.16783261 0.056911092
0000b0 3d 4b ef bd 41 de c9 bd 05 7c 56 be 3e 48 e6 bc
       -0.116842724 -0.09856845 -0.20945747 -0.02811062
0000c0 cd d0 c1 bd 62 b2 f1 bc 00 67 97 bd 9b 85 04 be
       -0.09463654 -0.029504005 -0.073926926 -0.12941591
0000d0 91 11 86 3c b4 7c ff bb 25 cb 02 be 5f 37 d9 3c
       0.016365798 -0.007796848 -0.12772806 0.02651566
0000e0 74 97 0a 3d 72 2e 55 be 2a b2 aa be 14 a5 8b be
       0.033835843 -0.20818499 -0.33339053 -0.27274382
0000f0 de ac 56 bd 33 8a 9d 3c d3 2c 23 3d ea 34 9f bd
       -0.052410953 0.019230938 0.03983767 -0.077737644
000100 a8 17 10 be 61 bb d6 3b 91 4b 8a 3d 07 d9 03 3e
       -0.14071524 0.006553099 0.067526944 0.12875758
000110 97 bd 15 be ba ed c8 bc b3 f6 2f bd 91 23 88 bc
       -0.14623104 -0.02452742 -0.04295988 -0.016618522
000120 cf d5 03 3e 88 5b f0 3d 8c 5a ef 3c 0f 06 9e 3d
       0.1287453 0.11736208 0.02921798 0.07715999
000130 fc 00 97 bd fb bd 55 be d1 c5 e9 bd ce af de bd
       -0.07373235 -0.20873253 -0.114146836 -0.10873376
000140 c1 6c c5 3d 0b 9d 87 bd 5c 09 70 be 4a 02 41 bd
       0.09639884 -0.066217504 -0.2344107 -0.047121324
000150 c7 1e 2e 3e ab 43 80 3c e3 a5 46 be 8f d2 ae bd
       0.17003928 0.015657267 -0.19399218 -0.085362546
000160 7b cd 0a 3d 00 9a b3 3b 80 4f 30 be 78 be 08 be
       0.033887368 0.0054810047 -0.17217827 -0.13353908
000170 43 97 a1 3d 2e 23 cd bb 81 3e 88 3d 09 e8 b5 bd
       0.07890179 -0.0062602973 0.06652547 -0.08882148
000180 92 3c 1d be be 62 21 bc d1 24 04 be ae c8 65 3e
       -0.15355137 -0.009850202 -0.1290467 0.22439834
000190 c5 17 41 3e 83 55 90 3d 6f 9f 2e bc 1c 19 28 bc
       0.18856724 0.0704756 -0.010658129 -0.010259893
0001a0 34 09 c1 bd d5 69 1a be 00 84 ff bd 0c 10 1b be
       -0.094255835 -0.15079434 -0.12476349 -0.1514284
0001b0 be ce 0e 3c 46 09 65 be 11 53 d4 bd 27 e8 94 3c
       0.008716283 -0.22366819 -0.10367406 0.018177105
0001c0 7d 92 5c bc 35 99 04 bd 84 b9 06 3b ed 60 44 be
       -0.01346266 -0.032372672 0.0020557353 -0.19177599
0001d0 5a 77 28 bb 97 29 20 3d 2c 1e 16 be 76 32 0f be
       -0.0025705905 0.039102163 -0.14659947 -0.13984093
0001e0 5b 33 52 bd 15 46 df bb 5a 3e 01 be f0 41 d2 bd
       -0.051318508 -0.0068137744 -0.12621441 -0.10266483
0001f0 3a 5a 82 bd c3 0e ab bc 99 84 ef 3d d3 cc 7f bd
       -0.063648656 -0.020881062 0.11695213 -0.062451195
000200 2e 21 07 3e 12 88 50 3d 04 79 18 be 7a 61 94 3d
       0.13196251 0.050911017 -0.14889914 0.07245155
000210 fb 00 10 3e 04 0a 66 bd 25 b3 71 bd fb c4 3a be
       0.14062874 -0.056161895 -0.059008736 -0.18239205
000220 7a 25 d9 bd ef 08 8b be ed bf 79 be dd e1 82 be
       -0.10602851 -0.27155253 -0.2438962 -0.25562945
000230 f8 23 2d be 09 48 0e be 48 bb ee bd 83 98 91 3a
       -0.16908252 -0.13894667 -0.11656815 0.0011108074
000240 8b d9 9d bd b9 17 e7 bd 26 80 bd 3d 48 fb ed 3c
       -0.07707509 -0.112838216 0.09252958 0.029050484
000250 cb 18 1f 3e b0 29 ff 3d cb bf 02 3d 0f f1 95 ba
       0.15536802 0.12459123 0.03192119 -0.0011439639
000260 e1 99 d9 bc d6 3f ec bc c7 0a aa 3d f3 7c aa be
       -0.026562633 -0.028839033 0.08302837 -0.33298454
000270 b7 63 51 be ae f0 36 3d 96 36 91 3d 4e 0d 84 3e
       -0.20448194 0.044663124 0.070904896 0.257914
000280 f5 a0 91 bd 2f 06 71 bd 62 da 0a be 3f 71 2f be
       -0.07110778 -0.058843788 -0.13559869 -0.17133044
000290 1c 2a 9d bc 62 d3 c0 bd 98 f9 88 3d 36 c2 c3 bd
       -0.019185118 -0.09415318 0.06688231 -0.09558527
0002a0 4a 79 0c be 83 40 99 bc 01 9f 99 bd 82 b5 69 be
       -0.13718143 -0.01870752 -0.07501031 -0.22823146
0002b0 cc 3c d4 3c f6 b0 8b 3a 81 68 6b be 5f cc 79 ba
       0.025907896 0.0010657597 -0.22989084 -0.000952905
0002c0 41 a4 3c be 0c 1d ab bd 2b 2a 32 be 32 a4 1d 3e
       -0.18422033 -0.083551496 -0.17398898 0.15394667
0002d0 ea a9 e2 bd 71 04 53 bc 46 0e 10 be fb c5 4c be
       -0.11067565 -0.012879477 -0.14067945 -0.19997399
0002e0 b9 7c 14 be 1b 89 c0 bd 2a f7 1b be 69 43 c2 3d
       -0.14500703 -0.09401151 -0.15231004 0.09485514
0002f0 15 da 9c bd 8a 36 62 be 3a 3d 09 be 58 b8 1a 3e
       -0.07658783 -0.22091118 -0.13402262 0.15109384
000300 ac ad c3 3d c1 c2 1c 3e 4b 35 33 be da b5 8f be
       0.0955461 0.15308668 -0.17500798 -0.2806843
000310 83 c9 a7 bd e9 59 00 3e a6 71 35 bd ad 5b c1 bc
       -0.08192732 0.12534298 -0.044297837 -0.023603285
000320 f7 93 8b 3d 81 93 01 be 02 3f db bd 61 56 92 be
       0.068153314 -0.12653925 -0.10705377 -0.28581527
000330 17 fc eb bc 1b 0e ad 3d 3b 33 88 bd e1 ff 19 bd
       -0.02880673 0.08449956 -0.066503964 -0.03759754
000340 23 88 26 bc 18 63 fc bd df 3e 26 3d b8 c7 92 3c
       -0.010164293 -0.12323588 0.040587302 0.017917499
000350 14 4f 51 be 10 f5 e7 bd 1c 10 a9 bb 4d 71 c3 3d
       -0.20440322 -0.11326039 -0.005159391 0.09543095
000360 d3 94 80 bd 99 10 c8 bd ce be b3 bc 82 a0 d8 bb
       -0.06278386 -0.09768791 -0.021941569 -0.006610931
000370 42 db a0 3d 16 b8 69 bd 7c 8e 6c be cc a7 30 bc
       0.0785432 -0.057060324 -0.23101228 -0.010782193
000380 9b 7b 81 bd 4c 32 19 be 86 63 9c 3d 06 19 41 be
       -0.06322404 -0.14960593 0.0763617 -0.18857202
000390 15 8f d4 bd ce 19 d9 3d 41 a9 7f bb 1e 8f ae bd
       -0.10378853 0.10600625 -0.0039010795 -0.08523391
0003a0 bc 8a 5e bc 16 c5 47 be 0b 31 63 be 3f 51 9a bb
       -0.013582882 -0.19508776 -0.22186677 -0.0047093923
0003b0 54 ad ae bd 84 1f 19 3e 2e 0c d9 bd 83 23 35 3c
       -0.085291535 0.14953429 -0.10598026 0.01105583
0003c0 81 37 29 be 1b b5 8d bc 23 27 59 3d 5a ce 01 be
       -0.1652508 -0.017298272 0.05301584 -0.12676373
0003d0 bd 04 22 be 94 99 97 bd 15 5a 95 3c b1 f2 ed bd
       -0.1582212 -0.074023396 0.018231431 -0.11618555
0003e0 53 a0 3d be 27 84 73 3e
       -0.1851819 0.23780881

conv1.bias f4 [10]
000000 b4 68 3e bd 75 7a 38 3e e7 bb 4c 3c dd 21 1c be
       -0.04648657 0.18015464 0.012495971 -0.15247293
000010 f8 c6 d1 3d b2 81 5e bd 36 76 d6 bd c7 15 85 b8
       0.102430284 -0.054322906 -0.10471766 -6.3459906e-05
000020 de 9c 80 3d aa bb 97 bd
       0.0627992 -0.07408841

conv2.weight f4 [20, 10, 5, 5]
000000 31 f9 58 bd 40 e1 32 bd a2 94 79 bd 85 43 56 bd
       -0.052972022 -0.043671846 -0.060932763 -0.052310485
000010 c5 f1 9e 3c 5d 8e af bd 86 cd 37 3d 9b b5 db bb
       0.019402394 -0.085720755 0.044873737 -0.0067049987
000020 8d 11 b1 bb cf bf c3 3d cc ac c4 3b 3f 2f cb 3d
       -0.0054037035 0.09558069 0.0060020443 0.09921121
000030 27 ab a3 3d fd 7d a8 3d 01 7c 4d 3c 19 4e b5 3c
       0.07991629 0.08227155 0.012541772 0.022131966
000040 21 86 2d 3d 65 27 08 3e f3 a3 9e 3c 5c 9a 70 bc
       0.042364243 0.13296278 0.019365286 -0.01468524
000050 ed 2c 42 3d 50 7b ce 3d b5 70 43 3c fd 54 1a bd
       0.047406126 0.10082114 0.011928727 -0.037678707
000060 de a1 c5 bb 5e 4a d7 39 87 ea b4 bc 67 8f 72 bc
       -0.006031259 0.00041063403 -0.022084488 -0.014804698
000070 16 0f 19 bd 91 4a dc 3b 82 32 92 3d 4d 60 f2 3c
       -0.037367903 0.006722756 0.0713854 0.029586935
000080 e0 3f 30 3d 41 dd 9c 3c 18 38 c8 bc 13 19 fa 3c
       0.043029666 0.01914847 -0.02444081 0.030529534
000090 62 d1 88 bd 7a c0 fd 3b 25 e3 6a bd 12 91 1a bb
       -0.066805616 0.0077438923 -0.05734553 -0.0023585004
0000a0 00 64 ae 3c fb 10 e3 bb 40 69 8e bc 57 46 01 bd
       0.021287918 -0.0069295145 -0.017384171 -0.031561222
0000b0 4b 31 d2 3c 9d 8c 28 3d 33 f7 4e 3c 9e bd 1f bd
       0.02565827 0.041149724 0.012632179 -0.038999192
0000c0 e6 b6 eb bc 07 96 65 bd 2f 78 22 3c f3 76 af 3d
       -0.028773736 -0.05605128 0.009916349 0.0856761
0000d0 9a e6 79 3d 7b 80 89 3d 43 af 45 bc 4e 24 b1 bc
       0.061010934 0.06713959 -0.012065711 -0.021623757
0000e0 33 8e 78 3d bd 02 ce bc ab f6 e6 bb 26 f9 7e 3d
       0.060682487 -0.02514779 -0.007048448 0.062249325
0000f0 1a cc 7c bc 02 cc 21 3c db 0c 51 bd e9 98 73 bd
       -0.015429521 0.009875299 -0.05103765 -0.059472
000100 ea a4 72 bc b3 f2 da bd d2 84 5b bd 2a 51 53 bd
       -0.014809826 -0.106908225 -0.053593464 -0.051591076
000110 49 28 85 3c 45 e1 0e be b2 ed 34 3d 9b 16 fd bc
       0.016254561 -0.13953121 0.044171996 -0.030894568
000120 e5 6a ed 3c e8 c5 79 bc d0 37 8a bc 63 d8 63 bd
       0.028981635 -0.015244938 -0.016872317 -0.055626284
000130 fc 4b 69 bb 19 03 8a bc 9c 47 34 3c 1b 91 c3 3d
       -0.0035598269 -0.01684718 0.011003401 0.09549161
000140 d5 51 e8 3c 0b bc 55 bc 96 68 c0 bc f5 30 74 bd
       0.028359333 -0.013045321 -0.02348737 -0.059617
000150 87 6c 0a 3c 62 be 88 bd 95 92 d4 3b 2e d2 8e bd
       0.0084487265 -0.06676938 0.0064872005 -0.06973682
000160 24 4d 0c be 71 7a a3 bd a2 99 22 bc a0 88 08 bd
       -0.13701302 -0.07982338 -0.009924324 -0.03333342
000170 9c 82 71 bd 7f ff d5 bc d1 6e f4 3c 96 10 74 bc
       -0.05896245 -0.026122807 0.029837998 -0.0148965325
000180 95 dc 49 3d 42 96 12 bd b6 06 10 3d f1 18 0d 3d
       0.04928263 -0.03578783 0.03516265 0.034447614
000190 b3 7f 29 3d 4b 61 b3 3c f5 c7 2c bc 8b c6 0f bd
       0.04138155 0.021896979 -0.01054572 -0.035101455
0001a0 ac b2 5c bd 43 61 73 3d 27 bc bd 3c 46 20 17 3d
       -0.053881332 0.059418928 0.023161007 0.036896013
0001b0 4c 1a 2e bd 95 21 a5 bd 20 7d 71 3d 5c 00 0e 3d
       -0.042505547 -0.08063046 0.05895722 0.03466831
0001c0 62 1f d3 3c 25 2a fc 3c 82 34 56 3d 6b 41 04 3c
       0.0257718 0.030781815 0.05229617 0.0080722375
0001d0 19 9f 93 3c 6d 64 40 3d 37 98 88 3d f1 57 8f bd
       0.0180202 0.046970773 0.06669658 -0.06999195
0001e0 9b 26 db ba 40 dc cc 3d 01 54 ea bc 73 b4 a0 bc
       -0.0016719879 0.10002947 -0.02860451 -0.019617295
0001f0 20 5c 9e bc 04 fb 9b bd 28 3e ec bc d6 83 f9 3c
       -0.019331038 -0.07616237 -0.028838232 0.030458372
000200 a4 cc a5 3c 88 6e a3 3d 83 6a 79 bd c5 88 f9 bc
       0.020239182 0.079800665 -0.060892593 -0.030460725
000210 4f c7 14 bd a6 c7 5a 3d 04 ed d0 39 cf 59 5b bc
       -0.036322888 0.053413056 0.00039849442 -0.013388111
000220 57 e4 bc 3c 1c 75 cb bb cd e5 37 3d 41 5f bc 3b
       0.0230581 -0.006209029 0.04489689 0.00574866
000230 e1 38 7b bd 51 d0 60 bd fc aa 03 bc d2 cf dc 3d
       -0.06133354 -0.054886166 -0.008036371 0.10781826
000240 93 6f bf 3a 1f 4a 78 3c 44 58 02 3d d8 38 05 3d
       0.0014605395 0.015154391 0.031822458 0.032524914
000250 10 68 0e 3c d4 69 25 bd 73 bc 27 bd 30 78 8d bd
       0.008691803 -0.04038413 -0.040951204 -0.069076896
000260 b1 74 c9 bd 1c 9c b6 bd ea 71 74 bd 33 a1 1e bd
       -0.0983671 -0.08916494 -0.05967895 -0.03872795
000270 24 3d 36 bd bc 68 ad bd 2e 50 e4 3c 03 b7 d1 3d
       -0.044491902 -0.08467242 0.027870264 0.10239985
000280 69 38 a5 3c 5b 7f eb bc 5d 70 c0 3d 38 f0 50 3d
       0.0201685 -0.028747251 0.093964316 0.05101034
000290 75 aa 9d 3d 1e 17 09 bb fe ba 30 bc 5d eb a3 3d
       0.07698528 -0.002091832 -0.01078677 0.08003876
0002a0 c0 d8 64 3d d1 a3 e1 bb af 0d 64 3d a1 c6 25 3d
       0.05587077 -0.0068859835 0.055677112 0.04047263
0002b0 43 56 59 bd d7 3c 27 bd 7b 5d e3 bd 4f 8a c7 3b
       -0.05306078 -0.040829506 -0.11101814 0.0060894857
0002c0 27 f2 4c 3d 3f 04 9c bb 64 54 1c 3d e5 c1 f6 bc
       0.050035622 -0.0047612484 0.03816642 -0.030121753
0002d0 be ce f2 bc 98 06 5d bd 62 c5 1f bd 08 93 a3 bd
       -0.029639598 -0.053961366 -0.0390066 -0.07987028
0002e0 f3 8a 46 bd 33 9d 55 bd 44 f2 24 bd 93 f9 80 bd
       -0.048472356 -0.05215187 -0.040270105 -0.062976025
0002f0 3d 4d 33 3d d7 79 0c 3d 3e f4 f7 bc 28 38 b2 bc
       0.043774832 0.034295883 -0.030267831 -0.021755293
000300 53 9d 0b bc 9d 5e 60 bd 2d 2d 61 3d a0 5e b1 3c
       -0.008521396 -0.05477773 0.054974724 0.021651566
000310 42 83 73 3d 24 43 89 3d dd 36 22 bc 71 fa 54 3d
       0.05945135 0.06702259 -0.009900776 0.051996652
000320 54 70 2e 3d ca 53 24 3d 31 11 f8 3b a6 f3 ce bc
       0.042587593 0.04011897 0.0075704088 -0.025262665
000330 e3 c2 d7 bc f8 e7 94 bc f8 de cc bb 73 74 d1 bd
       -0.026338046 -0.018177018 -0.006252166 -0.10227289
000340 18 c6 8d bd 8b ac 51 bd 4d 61 bd bc b3 d2 b6 bd
       -0.06922549 -0.05118994 -0.023117686 -0.089269064
000350 16 08 dd bd f5 75 af bd 2c 56 b8 bd 24 12 db bd
       -0.10792558 -0.085674204 -0.09000811 -0.106968194
000360 4f 1d bf 3c 14 e7 b0 bc 7e 5f 37 bd a6 86 c1 bd
       0.023329405 -0.021594562 -0.044768803 -0.0944951
000370 be 31 69 bc ea 94 cb 3c 03 26 41 b8 74 5a a8 bd
       -0.014233051 0.024851281 -4.6050187e-05 -0.082203776
000380 c0 d4 95 bd 20 a2 2d bd 14 9e c9 3c 44 5b 2b 3d
       -0.073159695 -0.042390943 0.02461151 0.041835085
000390 a4 d2 a6 3d 59 9b 19 3d 61 c7 84 3c 55 dd 40 3d
       0.08145645 0.037501667 0.016208353 0.04708608
0003a0 cd 3c 26 bb f2 06 9e ba 99 05 91 bd ee c1 44 bd
       -0.002536583 -0.0012056513 -0.07081146 -0.04803651
0003b0 03 05 ee bc e8 5a 4e bd 4d f2 b0 3c 53 ce a1 bd
       -0.029055124 -0.050379664 0.021599913 -0.07900681
0003c0 78 cf 0b ba 70 52 a8 bd 6e 53 c2 3c 3e e9 10 bb
       -0.00053333445 -0.08218849 0.023721423 -0.002211168
0003d0 67 2b 1f bc 87 cc ff bc 50 49 7f bb d7 80 8d bc
       -0.009714938 -0.031225456 -0.003895361 -0.01727335
0003e0 18 5f 53 bc 3f c2 cf 3c 94 a4 7f bc 44 04 10 3d
       -0.01290109 0.025361178 -0.015603203 0.035160318
0003f0 35 d9 d8 3d 36 d2 68 bc 49 d7 09 bd 7e 9c 99 bb
       0.10588304 -0.014210274 -0.033652578 -0.004687845

conv2.bias f4 [20]
000000 e5 b4 28 bd 14 a4 36 bd 47 94 4d bd 8e 9a 4d bd
       -0.04118814 -0.04459007 -0.050190236 -0.050196223
000010 d8 ed 70 bd e5 dd 72 3c ed fd 22 bd 80 1b 4e 3c
       -0.058820575 0.014823412 -0.039792944 0.012579799
000020 ca 77 ba 3b 73 38 4c 3a ad 44 1a 3c a5 8d 82 bd
       0.0056905495 0.0007790394 0.009415788 -0.06374673
000030 c2 00 32 3d 4f 9e 24 3d 88 3d d4 3b a8 21 07 bd
       0.043457754 0.040190037 0.0064770617 -0.03299108
000040 71 3a a7 3b 3c 7f 56 bd 7d 11 40 3d e6 b0 35 3d
       0.0051034023 -0.052367434 0.046891678 0.044358157

fc1.weight f4 [50, 320]
000000 84 3a 6a bd 89 94 f9 3b 32 aa d2 bc 91 7c 46 bd
       -0.05718471 0.0076165837 -0.025715921 -0.04845864
000010 bb d1 28 3c 49 b9 01 3d b2 43 d6 3b 55 3e 07 bd
       0.01030391 0.031670842 0.0065388316 -0.03301843
000020 46 6a 57 bd f5 98 ba bb f6 29 2a bd 79 f3 b2 bc
       -0.052591585 -0.0056945034 -0.041543923 -0.021844612
000030 ae 13 9c bc c0 21 ce bb b6 34 34 bd 5f 99 c9 3b
       -0.019052353 -0.0062906444 -0.04399558 0.0061523165
000040 2e da fb b8 1d 7a a1 3c b3 52 37 3d a2 ca 06 3d
       -0.00012009252 0.019711548 0.044756602 0.03290809
000050 e7 9a 0f 3d 84 59 86 3c b6 af 53 bd 23 20 83 bd
       0.035059836 0.016400106 -0.051681243 -0.06402614
000060 48 b4 17 3c 4f f8 02 bd b2 95 54 bd 8e 9f e6 3c
       0.009259291 -0.031975087 -0.051900573 0.028152253
000070 36 48 67 3c 6b a6 f4 bb c0 13 33 bb 8b d6 66 bd
       0.0141163375 -0.0074661276 -0.0027325004 -0.056356948
000080 92 ca f0 b9 de f9 2e bd c7 0c dd 3b 8c 51 28 bd
       -0.00045927294 -0.04271876 0.006745908 -0.041093394
000090 c4 33 59 bd 71 9e 4b bd cd 7b 1b 3d 40 58 06 bd
       -0.053027883 -0.04971165 0.037959863 -0.032799006
0000a0 32 b3 11 bc d1 02 99 bc be a8 4f bd 77 75 00 bd
       -0.008892821 -0.0186781 -0.050698034 -0.031362023
0000b0 08 9e 8a bd e5 cb b4 3c f6 94 11 bc d1 4f c3 3c
       -0.06768423 0.02206988 -0.008885613 0.02384177
0000c0 df 2a 58 bd da 4f fe bc ef c8 b0 bb da fb e2 3b
       -0.05277526 -0.031043936 -0.005395047 0.0069269957
0000d0 4d b5 95 3c 93 dd 38 bd aa 98 5a bd 87 7e d6 bc
       0.018274928 -0.045133185 -0.053368248 -0.02618338
0000e0 83 28 e7 bc 82 25 25 3d 82 82 0e bc 95 51 6e bb
       -0.02821756 0.040318973 -0.008698108 -0.0036364545
0000f0 95 e9 63 bd b3 0e 83 bc 89 58 59 3d 86 05 14 3c
       -0.055642683 -0.01599822 0.05306295 0.00903452
000100 a0 d7 a5 bd 22 80 f5 3c d2 be 42 3c 64 19 08 3d
       -0.08097768 0.029968325 0.011886315 0.03322734
000110 5f 9b 07 3c 0f 28 63 bd 12 a1 3c bc 10 9d 94 bc
       0.008276789 -0.055458125 -0.0115130115 -0.0181413
000120 69 ee 38 bd 63 6d 1b bd 76 5a 89 ba 2d 45 89 bb
       -0.04514924 -0.037946116 -0.001047923 -0.0041891546
000130 e0 c2 9c bd 8c 0e b8 ba 0b a5 f6 bc 9f af 28 bd
       -0.07654357 -0.0014042421 -0.030107995 -0.04118311
000140 3e 84 b2 3b d8 e9 62 3d 28 1c e2 bb ac e1 fb 3c
       0.0054478934 0.055398792 -0.006900329 0.030747257
000150 d0 d1 38 bd 75 46 07 bd 99 06 37 bd b5 96 b9 3b
       -0.045121968 -0.033026177 -0.044684026 0.0056637176
000160 df 27 41 bd b4 42 42 3d 61 98 67 3d d1 7e cf 3c
       -0.047157165 0.047426894 0.056541804 0.025329025
000170 01 fe 3d 3c b6 00 22 bd 47 86 d1 3c 09 7e 6b 3d
       0.011596204 -0.03955146 0.025576724 0.057493243
000180 cd df ad 3c 63 24 85 3c e6 53 32 3d c1 ea 0d bd
       0.02122488 0.016252702 0.043537043 -0.034647707
000190 2f e3 dd bb 16 2d c5 bc 40 b6 52 3c f6 d5 0e 3c
       -0.006771467 -0.02406935 0.012860835 0.008718004
0001a0 10 9c 95 bd 17 de 5c 3b ed 18 c4 3d 4b ad 1c bd
       -0.07305157 0.0033701712 0.09575067 -0.038251203
0001b0 a5 ec b3 bd 6d 0f fe 3b 87 d9 fb bc 04 52 a6 bd
       -0.08785371 0.0077533037 -0.030743374 -0.08121112
0001c0 80 bc a0 bc 24 12 23 bd df 20 20 bd 9e 4b 0e bc
       -0.019621134 -0.039812222 -0.03909385 -0.008685021
0001d0 de 37 c2 bb d3 ce 5d bd 61 1e 49 bd f9 10 52 bd
       -0.00592707 -0.05415232 -0.049101237 -0.051285718
0001e0 24 bb 59 3d 72 af 70 3c 74 7c e7 bc 0a 87 8d bc
       0.053156987 0.014690267 -0.028257586 -0.017276306
0001f0 a1 8e b9 3d 1b 86 02 3c 4b c2 9c 3c 85 c9 8b bd
       0.090604074 0.007966544 0.019135615 -0.06825546
000200 f9 e1 fd bc fb 58 76 3d 96 dc d0 bc 10 35 b0 3a
       -0.030991541 0.060143452 -0.025495809 0.0013443548
000210 ca a6 bd bb be e2 ac 3c a7 49 7c 3d 2f 0d 24 3d
       -0.005787705 0.021104213 0.061593678 0.040051635
000220 f9 ea 3b bd fe 85 9b bc 3b 8b 11 bd 66 db 60 3d
       -0.045878384 -0.01898479 -0.03553317 0.054896735
000230 6d d4 7b bc e9 92 6e bc 3d a4 f1 3c 9f 55 a9 bb
       -0.0153704705 -0.014561393 0.02949726 -0.0051676775
000240 0b 08 8b bc 21 a4 9a b9 c9 9a a6 3d 32 68 74 bd
       -0.016971609 -0.00029495455 0.08134992 -0.05966968
000250 8b 84 21 3b d3 74 b5 3b 2b fb 5d 3d 34 12 f1 3c
       0.0024645652 0.005537608 0.05419461 0.029427625
000260 c8 ec 58 bb 8b cc 57 3c 0e 91 8f bb d6 39 9e 3b
       -0.0033100117 0.013171325 -0.0043813055 0.004828672
000270 d2 26 04 bd 8d ff 57 bd 1a fe 38 bb d8 f2 18 bd
       -0.032263584 -0.052733947 -0.0028227628 -0.03734097
000280 c0 94 fe bc a1 ec 8c 3c 3d ee 1b 3b 74 91 95 bc
       -0.031076789 0.017202677 0.0023793124 -0.018257834
000290 17 7a 44 3d 69 6b 22 bc ce b4 1e 3d a5 d9 2c 3d
       0.047967996 -0.009913304 0.038746648 0.04219975
0002a0 67 4d 85 3b f1 9c f4 3c a4 48 ee 3c 58 94 38 bd
       0.004068065 0.029859992 0.029087372 -0.045063347
0002b0 b3 17 ff bc c3 2a da 3c 26 11 60 3d 3a 4d 43 3d
       -0.03113923 0.026631719 0.054703854 0.04768107
0002c0 7f cf 30 bd 06 7e 48 3d 19 29 d7 bc 91 b4 41 bc
       -0.043166634 0.04894831 -0.026264714 -0.011822836
0002d0 92 4e 5c 3c 2f 14 5f bd 55 2b c6 3c 46 92 60 bd
       0.013446467 -0.054462608 0.024190584 -0.054826997
0002e0 cb bf 4d bd 7a e9 48 bc d9 59 43 bd 1e bd 95 3a
       -0.050231736 -0.012262696 -0.047693107 0.0011424159
0002f0 f5 c3 15 bd c8 b1 bd bc d0 98 8a bc 3f 6c cc 3b
       -0.036563832 -0.023156062 -0.01691857 0.00623849
000300 81 6f 5c bd e8 ee 2e 3c 93 b6 e7 3c 03 53 0d bd
       -0.053817276 0.010677077 0.0282853 -0.034502994
000310 b7 c5 18 bd f7 f7 99 3d 13 76 72 bd fd f4 f5 3c
       -0.03729793 0.07517999 -0.059194636 0.030024046
000320 f9 be 91 bd b7 7e 6a bd 20 c1 3f 3d e0 f4 ff 3c
       -0.07116503 -0.05724975 0.046815038 0.031244695
000330 ab cf fd bc 7a 62 1d bc fc 76 ad bb 7c 73 39 3c
       -0.030982813 -0.009605998 -0.005293725 0.0113190375
000340 ba 54 56 bd 30 fb b3 3c a4 85 08 3d 65 c9 7b bd
       -0.052326895 0.021970361 0.033330575 -0.06147136
000350 c3 60 da 3c ce ab c5 bc e8 8e 01 bb c3 2f 86 bd
       0.026657468 -0.024129774 -0.0019769017 -0.065520786
000360 02 85 95 3c ce d6 e9 3c 7f ec b9 3b 68 cf 5e bd
       0.0182519 0.02854481 0.0056739445 -0.054397017
000370 c2 24 18 bd f2 2d 5b bd 3f 43 08 3d dd c0 21 3d
       -0.03714443 -0.053510614 0.033267256 0.03949057
000380 43 48 e9 3b 14 2c 57 3c 74 6c 71 3c 31 3d 13 39
       0.00711921 0.013133068 0.01473533 0.00014041808
000390 f3 83 9c bc b8 34 53 bc 3a 96 18 bd 43 54 79 bd
       -0.019105887 -0.012890987 -0.037252642 -0.060871374
0003a0 3f 68 40 bd 6e 1d 45 bd 5b 18 00 bb cb 65 c7 bc
       -0.046974417 -0.04812377 -0.0019545767 -0.02434053
0003b0 1d 6e 33 bd 03 63 97 bb 29 c1 ab bc 79 11 99 3b
       -0.043806184 -0.0046199574 -0.02096613 0.0046712724
0003c0 0f 9b 5b 3c 78 ba 0b bd c5 85 a1 bc a5 2e e0 3b
       0.013403668 -0.034113377 -0.019717107 0.006841498
0003d0 1a 03 bd ba 83 56 17 bc 59 0e a0 3b 41 20 34 3c
       -0.001442048 -0.009236935 0.004884523 0.010994018
0003e0 f3 d7 ed bc d0 44 50 bb cf be bb 3c 19 c8 c7 3c
       -0.029033637 -0.0031779297 0.022918133 0.024387406
0003f0 6b 2a 1e 3c 34 68 fe bc b7 83 1e 3d df b8 b6 3c
       0.009653668 -0.031055547 0.03869983 0.02230495

fc1.bias f4 [50]
000000 ab 0d 96 3b 6f c0 6a 3d d6 c9 16 3d 3f 31 2e bd
       0.004579266 0.057312425 0.03681358 -0.042527433
000010 af 61 64 3c 8e af 06 bc 37 86 2f bc f0 12 3b bd
       0.013939305 -0.008220566 -0.010713152 -0.045672357
000020 1d b8 88 3c b1 f5 e6 bc 24 8e e5 3c ca ee 37 bd
       0.016689355 -0.028193327 0.02802188 -0.04490546
000030 82 45 3a bd a3 8c 7b 3d be 94 2e ba ef 08 12 bd
       -0.045476444 0.06141342 -0.00066597376 -0.03565305
000040 2c db 33 bd 0e 50 19 bc 9d 03 cf bb 4a 02 28 3d
       -0.04391019 -0.009357465 -0.0063175694 0.041017808
000050 f9 99 31 3c 34 c0 4b bd 08 43 39 3d 6d 34 e2 bb
       0.010839933 -0.049743846 0.04522994 -0.0069032223
000060 22 2d c0 bb f1 2e 8b 3d c6 0b 2a bd b9 f5 3b 3d
       -0.0058647553 0.06796063 -0.041515134 0.045888636
000070 de ae ce 3c 1b 0d 40 bd e1 4e 03 3c 6a ad 53 bd
       0.025229868 -0.0468875 0.008014412 -0.051679052
000080 99 ad 37 bb 75 24 45 3d 4f 59 37 3b 4f a9 43 bc
       -0.0028027056 0.04813047 0.0027976816 -0.011942222
000090 9b e4 8f 3d dc 68 37 3d 55 ee 09 bb b2 1d 3e bc
       0.07026025 0.044777736 -0.0021046598 -0.01160376
0000a0 7d 6c b0 bc 8c db 6f 3a 9f cf f3 bc c7 5d 63 bb
       -0.021536106 0.00091498415 -0.029762087 -0.0034693347
0000b0 ff 52 0b bd 90 27 3a 3d 27 05 07 3d 20 c6 dc b9
       -0.034014698 0.045447886 0.032963898 -0.00042109285
0000c0 0b 70 f7 bc 76 9f a9 bc
       -0.030204793 -0.02070592

fc2.weight f4 [10, 50]
000000 b3 f8 ba bd e1 25 05 bd 71 5f 67 bd 30 79 80 bd
       -0.09129467 -0.032506827 -0.056487504 -0.06273115
000010 e6 21 45 3d 34 eb 64 bd 24 44 ec bd f3 16 0a 3e
       0.04812803 -0.05588837 -0.11536434 0.13485317
000020 8a 2e be bd 86 1e cb bd 99 60 7e 3d da cb c9 3b
       -0.0928622 -0.09917931 0.06210384 0.006158334
000030 8c fc cf bc 0c 09 b4 bd 4c ad 16 bd 08 4c 96 3b
       -0.025388978 -0.08790788 -0.036786363 0.0045867004
000040 f0 e8 15 3d 71 d4 15 bd 05 f2 e8 bd 0c 9c 04 3e
       0.0365991 -0.036579553 -0.113742866 0.12950152
000050 c4 eb 36 bd bc e9 52 bb 4f 30 9b bd 34 3b df 3d
       -0.044658437 -0.0032182774 -0.075775735 0.10899964
000060 ce 16 28 3d 30 7a 6e bd 9a 7b 0b be fe 56 35 3c
       0.041037373 -0.058221996 -0.13621369 0.011068104
000070 a2 70 ef bd 71 38 0b be d6 1a 0e bd cd c8 ae bd
       -0.11691405 -0.1359575 -0.03469356 -0.085343935
000080 ba 82 94 3d 90 98 a0 3d fa d3 dd 3d a0 f7 5e bd
       0.072514966 0.07841599 0.10831447 -0.054435372
000090 97 fd 9c 3d 30 68 cf 3d 20 a2 9f 3d 0d f0 27 3d
       0.07665556 0.10127294 0.07794595 0.041000415
0000a0 b9 6b 0f bb 11 32 14 bd 5d 79 dd 3d 41 8c 16 3e
       -0.0021884276 -0.03618056 0.10814164 0.1470194
0000b0 42 c7 14 3e e2 fa 2d 3c f4 4f ae bd 37 fd 34 bd
       0.14529136 0.010618897 -0.085113436 -0.044186797
0000c0 3e 59 1e 3e 13 ad 2c bd e6 81 d5 3c bf 33 87 3b
       0.1546373 -0.042157244 0.026062917 0.0041260417
0000d0 d4 1c c8 bd 53 26 b5 bd aa c3 f4 bd e5 39 46 3d
       -0.097711235 -0.088452004 -0.119513825 0.048395056
0000e0 32 bf f3 3d 12 35 90 3d 66 9a 10 bd 48 3e 89 bd
       0.11901702 0.07041372 -0.035303496 -0.06701332
0000f0 87 ed 29 3d b9 de 58 3c d0 38 a7 3c 4a 68 88 3d
       0.04148629 0.013236695 0.020412832 0.066605166
000100 2d 68 ca bc 1a 6e 92 3b 92 67 c4 3c c4 01 ca 3d
       -0.024707878 0.0044686915 0.023975167 0.09863618
000110 fd 09 33 3e 87 73 4d 3d e8 38 a1 b9 26 3f 1d be
       0.17484279 0.050159004 -0.0003075071 -0.1535612
000120 95 3c 93 3a a7 0b 9e 3b 3f c2 40 3d 6f d8 2d be
       0.0011233265 0.0048231664 0.047060248 -0.16977094
000130 83 59 24 3d 88 1b c8 3d 65 ec 14 3e 0f 10 04 3e
       0.040124428 0.09770876 0.14543302 0.12896751
000140 73 13 66 bd fc d9 16 be 76 ee a6 bd 5b 11 22 be
       -0.056170892 -0.14731592 -0.081509516 -0.15826933
000150 b1 69 25 be 20 55 22 3e aa 96 07 be 2c 7a 02 bd
       -0.161536 0.15852785 -0.13241068 -0.031854793
000160 ce 90 9e bd 8c 63 88 bd 30 91 58 bd 7f 61 92 3d
       -0.07742463 -0.06659612 -0.052872837 0.07147502
000170 02 a9 c1 3d 12 5a ac bb df e7 61 3c 2a bc 20 be
       0.09456064 -0.0052597607 0.0137881925 -0.15696779
000180 5f 96 37 3d c4 8e 5f 3c 03 e9 b7 3b cc b6 c9 3d
       0.04482114 0.013644878 0.005612494 0.09849319
000190 87 8f b0 bd 87 0d 93 bd 80 89 b5 3c c3 19 16 bc
       -0.08621126 -0.071803145 0.022160292 -0.0091614155
0001a0 44 fb d8 bd 66 4c 06 be 75 b1 ab bd 37 e2 8a 3c
       -0.105948 -0.13115081 -0.083834566 0.01695357
0001b0 05 36 88 bd 44 8b 2c 3e 76 f6 fb 3c 8d 4e c6 3c
       -0.066509284 0.1685 0.03075717 0.024207378
0001c0 e6 c7 16 3d 60 0b 8f 3d 16 ef 0f be a5 c1 96 3d
       0.03681173 0.069845915 -0.14056048 0.073611535
0001d0 68 dc fa 3d fc dd ce bd 27 13 4e 3c f8 69 15 3d
       0.122490704 -0.10100934 0.012577808 0.036478013
0001e0 d6 a9 3f 3d 2c 8c 0b ba 58 d6 67 3d 32 81 82 3c
       0.046792828 -0.00053233164 0.0566009 0.015930746
0001f0 d5 42 d2 3c 29 83 c9 3b b0 5e 86 bd dd 8b 9f 3d
       0.025666634 0.0061496687 -0.06561029 0.07790349
000200 d4 90 03 3d f9 c8 b4 bd 31 e1 28 3e 69 f0 13 bd
       0.03212054 -0.08827395 0.16492154 -0.036117945
000210 dc 33 23 bc 76 a3 e5 bb 78 65 8a bc 14 19 21 3e
       -0.009961095 -0.0070080115 -0.016894087 0.15732223
000220 b2 e0 a6 bd d6 ae 4e 3d ed 2a d4 bd 89 82 75 3d
       -0.08148326 0.050459705 -0.1035975 0.05993894
000230 3d 38 b6 3d 46 cb 19 bd ca aa d8 3d f1 9a b0 3d
       0.08897445 -0.037547372 0.105794504 0.08623303
000240 77 bf c2 bc 6a 3b e2 bd 79 f3 c9 3c e3 33 9c 3d
       -0.023772938 -0.110464886 0.02465223 0.07627084
000250 be d6 bf 3d df 1b ea bd 4b 2e 02 3e 82 a1 a9 3d
       0.09367131 -0.11431097 0.12712972 0.08282758
000260 eb 61 85 bd e5 20 6f 3d a9 22 a1 bd 94 b4 d9 bc
       -0.06512817 0.05838098 -0.07867939 -0.026575364
000270 07 e2 66 bb 09 3d 26 bd 9c 40 ea 3d 25 20 92 bc
       -0.0035229938 -0.04058555 0.114381045 -0.017837593
000280 ef 4b 03 3c f7 e0 92 bd c4 1f 58 3d 8b 02 29 3e
       0.008013709 -0.07171815 0.05276467 0.16504876
000290 5d 10 6d bd ee 04 fa 3d 1d a5 69 3d d2 25 bb bd
       -0.057876933 0.122079715 0.05704223 -0.09138073
0002a0 f5 a5 28 bc 47 b2 3a 3e 8c 10 f2 3c 19 70 2c bd
       -0.0102934735 0.1823207 0.029548906 -0.042099092
0002b0 39 79 88 bd 67 30 40 3d b7 9b b4 bd e2 e5 b1 bd
       -0.066637464 0.04692116 -0.08818763 -0.08686425
0002c0 f5 19 b0 3d 0c fa 5d 3d a8 ca 12 be 19 6a 9a ba
       0.08598701 0.05419354 -0.1433512 -0.0011780887
0002d0 b9 39 6f 3c 46 5d aa bc 20 00 cf 3d 3f 59 da 3d
       0.0146011645 -0.02079643 0.10107446 0.106615536
0002e0 d3 35 6a 3d b6 89 4f bd fa 71 59 bc 19 07 22 3e
       0.057180237 -0.05066844 -0.013271803 0.1582302
0002f0 40 c2 96 bc 74 aa 54 bb ee 2a 93 3d c2 e7 80 bd
       -0.018403172 -0.003245023 0.071859226 -0.06294204
000300 11 55 26 3d b4 d8 8d bd c7 2e 9e bd 8d 52 04 be
       0.04060847 -0.069260985 -0.07723766 -0.12922116
000310 3d 75 e0 bd ee 3d c6 3d f9 bd 0c 3d 42 ed 48 bc
       -0.109598614 0.09679781 0.03436086 -0.012263598
000320 af 2e c2 3d f1 27 09 3d da 75 e2 bc 32 ad c8 3d
       0.094815604 0.033485357 -0.027644087 0.097986594
000330 bc 7a 25 bc 35 f2 9f 3d a2 41 d2 3d 13 13 13 bd
       -0.010100063 0.07809869 0.10266425 -0.035906862
000340 16 65 ac bd 8d 71 59 bd 5a a4 d0 bb 0b d0 1d bd
       -0.08417718 -0.053086806 -0.0063672485 -0.038528483
000350 fc d5 ab bc c9 17 e2 bc 68 59 01 bd 5d 2d 85 3d
       -0.02097606 -0.027599232 -0.031579405 0.06502793
000360 c3 35 c3 3d 9b dd 03 3e ee 79 f0 bd 53 ab 0f 3d
       0.095317386 0.12877505 -0.11742006 0.035075497
000370 ac a3 d2 3b 2f 24 a3 bc 08 b9 ed 39 5a 4a bb bb
       0.0064282026 -0.019914715 0.00045342022 -0.0057156505
000380 b1 d7 7c bd 74 1b 3c 3e a3 85 30 bd e4 82 dc 3d
       -0.061729137 0.18369848 -0.043096196 0.10767153
000390 5e b5 4c 3e 8c c0 66 3d e9 c9 c6 3d 0d 8a 23 bd
       0.19991061 0.05633597 0.0970648 -0.039926577
0003a0 1c c9 b9 bd 15 44 da bb 28 e4 ff 3d b8 d3 8e bc
       -0.09071562 -0.006660948 0.12494689 -0.01743494
0003b0 7e cd 26 3d f3 24 d6 bd 52 22 8c bd 1c 10 e0 3d
       0.040723316 -0.10456266 -0.068424836 0.109405726
0003c0 4f 27 02 be 5b 7d bd 3d a0 d1 aa bc fb 03 e7 bc
       -0.12710308 0.09252425 -0.02085191 -0.02820014
0003d0 5a ab 0c be cf 31 65 3d 2d 63 15 be a1 1f 01 bd
       -0.1373724 0.055955704 -0.14588614 -0.031524304
0003e0 70 85 ae 3c 7e fb f4 bd 94 c5 4c 3d 49 ef fb 3d
       0.021303862 -0.11962031 0.049993113 0.123014994
0003f0 93 be eb 3d fc 25 96 bd 24 21 f3 3d d3 3f 66 3d
       0.115109585 -0.07331464 0.118715554 0.05621321

fc2.bias f4 [10]
000000 a8 85 19 3e 2b bf c7 3d ad ed 16 3e a4 4d a9 3d
       0.14992392 0.09753259 0.14739104 0.08266762
000010 6b 50 84 3c bb dc 5f 3d 2d 44 1b be fe 08 ff 3d
       0.016151628 0.054653864 -0.15162726 0.12452887
000020 e1 54 0a 3e e0 98 22 3b
       0.13508941 0.002481036

momentum_buffer f4 [10, 1, 5, 5]
000000 fe ae 4d 3e 59 cd d1 3d f0 ee ae bc 10 85 cb bc
       0.20086285 0.10244245 -0.021354169 -0.024843723
000010 cf d0 02 bd d2 08 11 3d 3c a5 53 3d cc a9 2d 3c
       -0.031937417 0.035408802 0.05167125 0.010599565
000020 60 ca 2e bb c4 58 81 bc a8 a1 0f 3c 76 82 82 bb
       -0.0026670918 -0.015789397 0.008766569 -0.0039828373
000030 76 17 f6 bb 66 a0 a8 bc d9 83 19 bd 29 92 77 bd
       -0.007510121 -0.020584296 -0.037479255 -0.060442124
000040 f1 48 6d bd 6e 22 d2 bc bb 0e d6 bc 3e bc 67 bc
       -0.05793089 -0.025651183 -0.02613007 -0.0141440015
000050 56 20 38 bd 09 0e 88 bd a8 bf 70 bd f0 18 a4 bd
       -0.044952713 -0.06643302 -0.058776528 -0.08012569
000060 f9 b5 c8 bc eb 79 b9 3c 86 70 ad ba fb 6c 00 bb
       -0.024500834 0.022641143 -0.0013232387 -0.0019596207
000070 82 29 24 bb 5b 9b a8 bd ce aa df 3c f0 9b 61 3b
       -0.0025049155 -0.08232757 0.027303126 0.0034425221
000080 5f d8 9b 39 ef 10 23 b9 04 db 23 bd 48 49 59 3c
       0.00029725113 -0.000155512 -0.04000379 0.0132621005
000090 78 e7 f4 3a b5 5c c1 38 f8 25 6f 35 42 65 4c 38
       0.0018684706 9.220225e-05 8.908969e-07 4.8731694e-05
0000a0 d2 65 92 3c 70 28 72 38 a8 cd 0e 38 37 c7 cb 38
       0.017870817 5.7734956e-05 3.404697e-05 9.716901e-05
0000b0 30 0b 83 b9 f0 d9 2d 3c dc 1d cb 39 58 90 9d 36
       -0.00024994602 0.010611042 0.00038741424 4.6957684e-06
0000c0 57 0d b2 39 08 92 54 bc 45 c2 fa bd c4 c0 ab bc
       0.00033960745 -0.01297427 -0.12244085 -0.020965941
0000d0 48 d2 74 3b ca 75 33 3d 00 40 95 3c d4 e2 c4 bd
       0.0037356783 0.043813504 0.018218994 -0.096135765
0000e0 22 4e b3 bc 1d 7f 8c 3c 0d ac 67 3c 6a 31 08 bb
       -0.021887843 0.017150456 0.014140141 -0.0020781406
0000f0 9c 34 42 bd 18 c2 13 3d 90 ac 9c ba 88 76 2f bb
       -0.047413453 0.036073774 -0.0011953283 -0.002677353
000100 48 af 56 3d a6 27 f5 bd 9a 21 e4 bd 9b 5f cd bd
       0.052413255 -0.11970453 -0.111392215 -0.10028001
000110 60 88 9a bd 70 f2 1f 3d ac 87 66 bd 06 ae c9 bd
       -0.07545543 0.039049566 -0.05628173 -0.098476455
000120 bd bc e3 bd ba 08 ed bd 8a 7a 59 be 18 06 07 be
       -0.11119983 -0.1157393 -0.21238151 -0.13185918
000130 d4 c9 db bc b9 91 33 3c b3 62 3f 3d e6 38 15 3e
       -0.026829638 0.010960036 0.046724986 0.14572486
000140 5e 2d 0c 3d 79 f8 5c 3d c0 cc 40 3c 3d 85 17 3d
       0.034222953 0.0539479 0.011767566 0.0369923
000150 77 54 5f 3e 00 31 fe 3d 44 1d b6 3d 1a da 98 3c
       0.21809565 0.1241169 0.08892301 0.018658686
000160 3e da 23 3e f0 4f c5 3e e8 0e 82 3d 79 79 5a 3d
       0.16001222 0.3853755 0.063504994 0.0533385
000170 d6 34 14 3d dd b9 5d 3e 50 2a 31 3f de e9 ac 3d
       0.0361832 0.21652932 0.6920519 0.08443044
000180 16 18 b0 3d 25 23 68 3e b3 07 cb 3e 5e 5c 56 3f
       0.08598344 0.22669657 0.39654312 0.8373469
000190 b7 23 60 3e 66 98 2f 3e e4 3e 73 3d a1 00 2b bc
       0.21888624 0.17147979 0.05938615 -0.010437162
0001a0 c6 97 8d 3b 60 98 df 3d 69 3b f8 3c 4b 4f 1c 3b
       0.0043210713 0.10917735 0.030301766 0.0023850973
0001b0 1c d1 98 3b 6d 7a c1 3a 0b 38 03 3d a3 ea 67 3b
       0.0046635997 0.0014761217 0.03203587 0.0035387657
0001c0 d8 32 57 38 24 9e 8f 3b b8 c4 95 3b 2c 25 e6 3a
       5.1307346e-05 0.0043828655 0.00457057 0.0017558686
0001d0 f5 41 a6 3a 11 34 36 3b 5f 48 92 3b 27 c1 2e 3a
       0.0012684452 0.002780203 0.0044641937 0.0006666355
0001e0 b6 a3 ac 3c c7 dd 99 3b 7a 88 77 3a 7e ac af ba
       0.021074157 0.0046956274 0.0009442639 -0.0013402847
0001f0 9b 1c 42 bc 78 79 ed 3e 04 89 c5 3e a6 49 3c 3e
       -0.01184764 0.46381736 0.38581097 0.1838747
000200 d6 00 ae 3d 00 b1 c0 ba d0 38 82 3e 5f f2 4a 3e
       0.08496253 -0.0014701188 0.2543397 0.1981902
000210 bc e9 df 3b c1 f1 40 bc 88 5b 6d 3d 77 67 a5 3d
       0.006833283 -0.011776389 0.05794862 0.08076375
000220 64 6b b9 bc 3f 51 eb bc 3c fd 34 bc f0 18 4d 3e
       -0.022634216 -0.028725265 -0.011046704 0.20029044
000230 de cd 0f 3d 7d ef 72 bc 14 07 02 bc 16 72 0d 3e
       0.03510844 -0.014827606 -0.007936258 0.13813052
000240 f0 2e a2 3e cd 85 90 bd 2c 46 9d bd ac a7 e4 3d
       0.31676435 -0.070567705 -0.076794 0.11164793
000250 9c c3 95 3e 67 d3 3d 3e ca 9e a4 bd d5 1e d5 bd
       0.292508 0.18537675 -0.08038099 -0.10406271
000260 74 c8 7d bd e1 c4 66 be d0 ca d4 be a9 10 27 bd
       -0.061958745 -0.22536041 -0.41560984 -0.040787373
000270 62 b1 b4 bd 5a 7d b3 bd 16 f6 3d be b2 e0 9e be
       -0.088228956 -0.08764143 -0.18550906 -0.31030804
000280 7d 3d 34 39 c2 c9 e1 3a 0a d4 b5 3c c0 87 1e bd
       0.00017189044 0.0017226266 0.022195835 -0.03870368
000290 8c 59 17 be 82 99 16 3a de e6 c6 3a 98 c6 13 b9
       -0.14780253 0.00057449203 0.0015175005 -0.00014092994
0002a0 49 39 df bc 5a 79 be bd c8 f7 8a b9 77 0b 4c ba
       -0.027248995 -0.0930049 -0.00026506023 -0.0007783691
0002b0 f8 a8 f8 bb 62 15 8b bc 5c 0e 2e bd 3c 50 ec 3c
       -0.007588502 -0.01697797 -0.042494163 0.028846852
0002c0 fc 18 32 3c 40 a3 7d 3b f0 55 b5 bc 0b ac 94 bd
       0.010870215 0.003870204 -0.022135705 -0.07259377
0002d0 00 b4 0b 3c 85 89 4b 3c e6 b7 d2 3b 98 d1 58 bb
       0.008526802 0.012422924 0.006430614 -0.0033083912
0002e0 51 4d c6 bc c4 f2 c7 3a 60 9f 80 3c ee d4 09 3d
       -0.02420679 0.0015254845 0.015700996 0.03365033
0002f0 c8 3f d2 3c fa fd 67 3b 06 44 2c 3b 5f 47 22 3d
       0.025665179 0.0035399185 0.0026285662 0.039618846
000300 f2 1e 95 3d 04 43 7e 3d b2 32 1e bc 75 78 ca 3a
       0.07281293 0.06207563 -0.009655641 0.0015447276
000310 e7 3b 10 3d 48 0a 3f 3d dc d3 f5 3c 7a 5e 2d bd
       0.035213377 0.046640664 0.030008249 -0.042326428
000320 9d d0 d5 bd ca 65 c2 bd 53 fd 8c bc de 49 36 ba
       -0.104401805 -0.09492071 -0.017210638 -0.0006953756
000330 70 ae 18 3c 63 3b 21 bd 68 f9 0d bc 5b d3 3a bb
       0.009318933 -0.039363276 -0.00866542 -0.0028507325
000340 5e a8 81 b9 84 3a c4 3a bb 8b 7b 3d 63 34 6b 3c
       -0.0002473024 0.0014971052 0.061412554 0.014355752
000350 54 f2 4d bb 2c 93 c8 37 75 33 b0 39 99 6d 00 3e
       -0.0031424956 2.391039e-05 0.00033607674 0.12541808
000360 ae 91 e4 3c 14 56 ee ba 22 c1 58 b9 f6 ad be ba
       0.027901497 -0.0018183612 -0.00020671313 -0.0014547694
000370 a3 37 15 3e 55 ef 57 3d 93 61 85 3b 2a 75 06 3b
       0.14572005 0.05271848 0.0040704696 0.0020516613
000380 22 a5 4d bc cc 88 04 bb 68 ca 44 bb cd 49 00 3b
       -0.012551578 -0.002022314 -0.003002787 0.0019575239
000390 81 9b 67 bc 60 66 63 bb 26 4f f1 bb 68 8b f0 b9
       -0.014136196 -0.0034698471 -0.0073641716 -0.00045880233
0003a0 ae 4f a1 3a 76 01 9b 3a 23 ab cc 3b 89 eb 00 ba
       0.0012307072 0.0011825997 0.006245987 -0.000491791
0003b0 bb 52 81 b9 d5 4a c4 3a aa d0 90 39 34 89 c5 bc
       -0.00024666436 0.0014975915 0.00027621287 -0.024113275
0003c0 75 a4 1e b9 11 e9 f1 b9 76 d7 b8 b9 40 d8 77 ba
       -0.00015129319 -0.0004614075 -0.00035255746 -0.0009454526
0003d0 8c c7 bd bc 34 51 84 bc 49 d1 e7 bb 00 a2 90 38
       -0.02316644 -0.016152002 -0.0070745093 6.89663e-05
0003e0 2e a7 ad bd 64 84 20 be
       -0.084791526 -0.15675503

momentum_buffer f4 [10]
000000 c3 82 a2 3a 2e a0 97 b9 e0 1c ee 39 58 4e b6 3a
       0.0012398589 -0.00028920308 0.0004541641 0.0013908846
000010 e1 6f 00 bb e8 af 9d 38 d6 77 0b bb 70 a3 27 39
       -0.0019597935 7.5191085e-05 -0.0021281145 0.00015987246
000020 d6 ef 1a 3b 77 72 5f ba
       0.0023641489 -0.00085238315

momentum_buffer f4 [20, 10, 5, 5]
000000 d9 8e b1 39 1d 7b 53 3a cb 41 3f 3a d9 95 3d bc
       0.000338665 0.00080673565 0.00072958757 -0.011571371
000010 b6 f7 00 bd 54 5c 07 ba 0a 6f f8 3a 93 27 bd 3b
       -0.031486236 -0.0005163599 0.0018953991 0.00577254
000020 62 10 cd b9 6f ae 3f bb 98 bd fa 3b 84 31 df ba
       -0.00039112853 -0.0029248258 0.007651996 -0.0017028307
000030 c9 39 38 bc 42 56 06 bb 3b 02 c5 3b 56 a3 8f 3c
       -0.011244246 -0.002049819 0.006012229 0.01753394
000040 b0 cf 39 3d b0 be 7d 3c ca 08 fb bc 83 67 27 bc
       0.04536408 0.015487358 -0.03064384 -0.01021755
000050 b6 89 8b bb 4c c8 3c bc 6d dc 1d 3c 0d 9d a0 3c
       -0.00425836 -0.011522364 0.009635073 0.019606138
000060 af bd 0d 3c 55 bb 1f 39 eb 6f 9c 3b f7 8d fb ba
       0.008651181 0.00015233208 0.004774084 -0.0019192089
000070 2f 2f b3 ba 95 e4 16 3b 98 a4 16 3b 71 90 06 bb
       -0.0013670678 0.002302443 0.002298629 -0.002053287
000080 33 09 44 ba 19 5c bf bb 35 7d 05 3b e6 c9 a8 b9
       -0.00074781774 -0.0058398363 0.0020368819 -0.00032193883
000090 5d 00 b8 ba 75 1f 0c 3b e2 da 7d bc d8 b6 c6 ba
       -0.0014038194 0.0021381055 -0.01549408 -0.0015160693
0000a0 eb 86 88 39 52 d8 00 3a 74 51 0d 3b 8f 7f be bb
       0.00026040463 0.0004915047 0.0021563442 -0.005813546
0000b0 e6 9a 4a bb 27 86 fd 3a 83 0d 95 bb 8f 72 d1 bb
       -0.003091508 0.0019342349 -0.00454873 -0.0063918303
0000c0 04 d4 a6 3a 21 f9 33 bb fa 28 8a 3d a9 22 3a 3d
       0.001272798 -0.0027461725 0.06746097 0.04544321
0000d0 75 06 33 bd 83 46 09 bc 64 ed 0a 3d 24 76 6e 3c
       -0.04370733 -0.008378628 0.0339178 0.014554534
0000e0 8b ff 09 3d d5 fe c9 3c 68 eb 87 3c b5 09 22 bc
       0.03369097 0.024657646 0.016591743 -0.00989001
0000f0 c0 9e 88 ba ec 26 a9 3b d6 c8 11 3c 3c 4f 4c 3b
       -0.0010423288 0.0051621106 0.008897981 0.0031175157
000100 78 e6 ac bb aa b8 3c bb df 27 71 3b 25 90 39 3c
       -0.0052764975 -0.0028796592 0.0036797447 0.011325871
000110 31 0e 4d 3c ed 40 d1 bc 58 bd 15 3c 93 4b b2 3c
       0.0125155905 -0.025543654 0.009139381 0.021764552
000120 7f 92 1b 3d db 7b 09 3d 9c 90 b1 bb f2 c0 a2 3c
       0.037981506 0.033565383 -0.00541885 0.019867394
000130 1e e5 ce bd 84 f2 86 bd eb be 25 3d d1 2f f8 3d
       -0.101022944 -0.06589225 0.040465277 0.12118495
000140 e0 79 d8 3c 9e fe 6e bd 97 60 47 bd ab bb 6c 3d
       0.026425302 -0.05834829 -0.0486761 0.05779616
000150 42 e2 17 3e eb 6c fc bc be c3 fe bc 6d 74 12 3d
       0.14832404 -0.030813655 -0.031099197 0.035755564
000160 22 89 58 3d e9 52 da 3d 01 b2 20 bd 3c 73 20 bd
       0.052865155 0.10660345 -0.039232258 -0.039172396
000170 1f a5 0e 3d 7d d8 b9 3d 66 a6 fa 3d cf 04 72 bc
       0.03482544 0.09074495 0.12238769 -0.014771654
000180 4e fa 79 3b f3 85 bf 3d 70 ff 9a 3d c4 fe 7d 3d
       0.0038143578 0.09351721 0.07568252 0.06201054
000190 2e 60 31 39 a3 75 3a 3b c4 29 b8 bb 6d 30 6b bb
       0.00016915865 0.0028451465 -0.005620213 -0.0035887018
0001a0 89 74 d7 3a e7 ff 99 38 57 87 a2 bb 1e 00 19 bb
       0.0016437928 7.343274e-05 -0.0049599814 -0.0023346017
0001b0 59 83 00 bb 0a 1b b3 ba 12 b1 42 bb 20 b5 a5 ba
       -0.001960954 -0.0013664674 -0.0029707593 -0.001264248
0001c0 94 fd 0e bb d4 26 24 bc 91 dd 2c bc c8 7b 68 3b
       -0.0021818625 -0.010019023 -0.010550872 0.003547417
0001d0 58 ff a0 3c 60 de d2 3c 9c 1d 82 bb f6 30 a0 bc
       0.019653007 0.025740802 -0.003970815 -0.019554596
0001e0 24 38 c3 3b 38 9a ad bc 28 5e c4 bc 5e d9 c1 ba
       0.00595762 -0.021191701 -0.023970678 -0.0014789512
0001f0 77 0d 44 3b 91 a5 79 3d 26 f7 7a 3d 77 2f b5 bc
       0.0029915252 0.060948912 0.061270855 -0.02211736
000200 aa 8f 01 bd 80 90 42 b9 a0 8f f1 39 2c 1c 11 ba
       -0.03163115 -0.00018555112 0.0004607411 -0.0005535509
000210 91 52 38 3d b8 09 5a 3d 21 46 53 3d d0 f6 51 3c
       0.045000616 0.053231925 0.051580552 0.012815192
000220 5e 18 8a 3d e6 b0 d9 3c ae 73 02 3d 0a 1c 87 3c
       0.06742929 0.02657361 0.031848602 0.016492862
000230 76 81 28 3d 9a 2f 83 3d 00 3e 6c 3d 5c 4d a1 3d
       0.04113909 0.06405564 0.057676315 0.07876083
000240 5f d7 32 3d 40 af 89 3a ca 74 3f 3d 11 a8 e4 3d
       0.043662425 0.0010504499 0.046742238 0.111648686
000250 24 3a 9f 3d 9c f7 74 3c 03 9c eb b9 20 69 9a 3a
       0.07774761 0.014951613 -0.0004493893 0.0011780597
000260 25 39 03 ba 26 80 82 bb 3a f9 f7 b9 02 55 a7 bb
       -0.00050057686 -0.0039825616 -0.000472972 -0.0051065693
000270 36 9f ae bc 62 67 e4 3a c4 54 08 3c 5d 47 87 bb
       -0.021316152 0.001742583 0.008320991 -0.00412838
000280 f6 f7 a7 3d ca 85 b8 3b 17 51 1f bd 2f 9f e1 3c
       0.08201592 0.0056311833 -0.038895693 0.027541725
000290 35 52 1d 3c a2 33 2d 3d 87 ca 4d 3d 46 0e e8 3c
       0.009602119 0.04228557 0.050241973 0.028327119
0002a0 10 63 39 3d 03 6e d2 3c 26 67 84 bd a4 6e 30 bc
       0.04526049 0.025687223 -0.064649865 -0.010768566
0002b0 fb d0 97 bb 6a 6f 12 3b b7 63 83 ba c0 c0 ca 3c
       -0.0046330667 0.002234424 -0.0010024224 0.024750113
0002c0 99 59 02 3d ec 7c 17 bc 2f 80 a7 bc 20 fc bb 3a
       0.03182373 -0.009246092 -0.020446865 0.0014342107
0002d0 5d 74 6a 3b 5d bc 00 3c 11 25 9e 3c ff 91 fe 3b
       0.0035774924 0.007857409 0.019304784 0.007768869
0002e0 57 b1 00 3a 2e b2 ba ba 4e 8c 0a bb 2f f3 94 38
       0.0004909238 -0.0014243776 -0.0021140757 7.1024864e-05
0002f0 34 2c 27 3b 1b 36 d4 ba f8 64 10 3c 69 80 18 bc
       0.0025508525 -0.0016190441 0.008813135 -0.009307959
000300 1e d7 07 bb ed 00 77 3a 4c 0a 40 3b 5b 5c b1 3b
       -0.0020727585 0.000942244 0.0029303012 0.005412621
000310 ae e5 72 3c 5e ff 28 3b aa 09 e5 3a d2 cb 43 3a
       0.014825268 0.0025786976 0.0017474194 0.0007469031
000320 87 05 56 3a 82 69 0d 3c 0e 67 2c 3a b6 c9 a2 bc
       0.0008164276 0.008631112 0.00065766356 -0.019871574
000330 a8 92 95 b9 d2 6b ed 3a f7 94 40 3b 78 ca 37 3b
       -0.00028528762 0.0018113798 0.0029385665 0.0028044265
000340 53 53 c3 bc 5f 2c 31 3a 31 cd b2 39 a3 29 78 3b
       -0.023843443 0.0006758626 0.00034103685 0.0037866614
000350 81 3e 26 3b 5c ac 8a bc 13 46 ad ba 94 22 9f b8
       0.0025366845 -0.01692789 -0.0013219736 -7.5881515e-05
000360 4a fa 21 ba 0e 23 85 bb 4e 76 98 bb 2a 7b 21 ba
       -0.00061789586 -0.0040630167 -0.004652775 -0.00061600155
000370 62 0c ae 38 df 19 3e bc 6c 1d cb bb b0 8a e2 ba
       8.299273e-05 -0.011602848 -0.0061985757 -0.0017283764
000380 7c eb 70 ba ec 11 e3 bb 75 4f 4d bd 3b 95 96 bc
       -0.00091903633 -0.0069296267 -0.050124604 -0.018381706
000390 5c e2 1c 3d 1c 4d 6b 3d fc 8e e9 bb 7d b9 49 bc
       0.03830181 0.057446584 -0.007127641 -0.01231229
0003a0 5e d8 73 3c 4f 93 33 3c 12 4d 76 ba a4 da 6f bc
       0.014883129 0.010960414 -0.00093956396 -0.01463953
0003b0 37 1c 25 3c 54 34 a1 b8 ee fe 6d 3b 5c 72 48 bb
       0.010077528 -7.686825e-05 0.003631528 -0.0030585742
0003c0 19 d1 0a 3c 91 4e 80 3b 1c 26 b9 3c be ff a3 3c
       0.008472704 0.003915616 0.02260118 0.020019408
0003d0 f0 81 5e bc 20 31 3c 39 5f dd 20 3d 83 da 76 3d
       -0.013580784 0.00017947378 0.039273616 0.060266983
0003e0 fb b6 d0 3c 47 07 19 bb fd 6b c4 bb 06 8d 64 bc
       0.025477877 -0.0023350285 -0.0059943185 -0.013949638
0003f0 c1 f6 04 bd ce be 46 bd e8 c6 10 3c fd b7 d0 3c
       -0.032461885 -0.04852181 0.008836485 0.025478357

momentum_buffer f4 [20]
000000 f6 2d 57 3a 2a 8e 81 3a 0f a0 fd b9 3b 1d 41 39
       0.0008208448 0.0009884287 -0.00048375173 0.00018416804
000010 7e 3b 50 3b 80 e4 15 34 93 b8 63 3a 0a be ee 39
       0.0031773741 1.3959834e-07 0.00086868665 0.00045536488
000020 58 74 0d 3b 8c 2e 2c 3b ef 75 b2 ba c1 56 96 b5
       0.002158424 0.0026272861 -0.0013615469 -1.120112e-06
000030 be 29 11 bb 69 ad 02 3b 44 20 ed 36 fe 0e 32 3a
       -0.0022150124 0.0019939786 7.0669066e-06 0.0006792395
000040 d4 23 be ba 12 99 4a b9 f7 ea 7c ba 2f bc 00 3a
       -0.0014506527 -0.00019321244 -0.00096480496 0.0004910854
