quick-start/notebooks_gpu/logs/log_20240523-14_25/model_epoch_0.bin (torch, 180126 bytes, 16 tensors)

conv1.weight f4 [10, 1, 5, 5]
00000000: a24c 4ebc 5f7e ee3b 3e6d a33d 0691 d33d
00000010: f5cc b53d 159f ccbd f73c 0c3d 6fb2 48be
00000020: b598 2ebb 6823 05bd 2330 9cbe ea63 61be
00000030: d255 21be 666e a03c 585d 423d ded0 6e3d
00000040: cb14 b33d c69c 4abe 49d8 36be 57e8 58be
00000050: 8400 d93d 1472 1b3e 2204 3dbd 29b2 6e3d
00000060: 90b2 48be c589 c13d aef8 27be 20da 03bd
00000070: cac4 64be 4248 793d 551e a33d 18e6 18be
00000080: 995e e23c ee12 5bbd b565 1c3c d726 273c
00000090: 78ff 82be 3a11 93bd c67e e33c a624 6bbe
000000a0: 0d72 543c ed48 013d 3503 2dbe 69da 673d
000000b0: f648 ecbd 0acb b7bd af13 52be 2011 e1bc
000000c0: 5a7a bebd 693b 02bb 4b6a 463d e529 c8bd
000000d0: 6022 473d 17ba 9b3c 00fe 34be 3486 a83d
000000e0: ecd4 913c ce99 2dbe 80b0 94be 5f80 8dbe
000000f0: 426f 033d 0442 053b 2b54 833d 0794 c2bd
00000100: 2aab 4fbd 6f12 0bbd a930 b03c fc1b fa3d
00000110: ad80 1fbe 55c5 84bd 6643 1d3d 8bd5 f23b
00000120: cb05 de3d aeaf 043e 8dbd 26bd b286 813d
00000130: ec44 ddbd 1fd3 07be d33a 9fbd 6580 13be
00000140: dd48 433d 9f2d febc 79ee 2dbe 34ab cbbd
00000150: 74d1 193e eae6 dfbc 0adb cabd ee01 38bd
00000160: 9263 583d d971 82bb 8abf 47be e03e d0bd
00000170: cb9c 7b3d 0042 2cbc d7aa 883d b9e2 b03b
00000180: 334e 03be c843 ed3c fd0a bfbd 47ad 6c3e
00000190: 5d0e 443e 2399 db3d 32b6 17bd 0158 c2bc
000001a0: 161b 0cbd de23 e9bd 32d8 ffbd 5d26 09be
000001b0: 4a59 133d 671e 47be 9dc5 7cbd 4291 4b3d
000001c0: 2f6f 13bc fa5c d7bc 4a61 093c 99ea 45be
000001d0: 9816 153d 0e35 673d 8449 12be 242b 13be
000001e0: 0f65 93bd 4f72 b53c e074 e9bd 0a28 d9bd
000001f0: 4c9a 11bd f5e5 bfbd 81c6 803d 5d96 c4bd
00000200: a163 f63d 2231 043e 81b4 27bd 7f98 c43d
00000210: 0a8f c53d 7248 0abe 6b1e 61bd db59 f8bd
00000220: af06 efbd 1608 83be 35ec 68be 0b17 39be
00000230: 2f9c 1abe 8f38 babd e682 adbd 0f1a 513c
00000240: 1013 fabd f5b1 f4bd 2d46 083c fa73 56bd
00000250: 4748 113e bf74 0a3e d59c f23d a4a6 663b
00000260: 5f19 d03c e4b1 2fbd 0f55 f93c f361 93be
00000270: bb05 47be 601f cb3d b05a ff3d e5ff 4a3e
00000280: 5d1a 96bd 5538 1abd 19ac e4bd 581b 35be
00000290: 92ac c4bd aa1c b7bd c70f b83d 1c44 45bd
000002a0: 6f12 99bd 8c4e 803c 97e2 71bd 17fe 63be
000002b0: 404f 973d d2bf 043d bff4 5cbe 2d3b 0e3d
000002c0: 57de 3fbe d142 92bd 75fb 08be 4a11 3e3e
000002d0: 8dbe c8bd 88ed 5fbb 7d95 05be 3929 1bbe
000002e0: 698e fcbd 0c4d 96bd 522e 3abe e047 153d
000002f0: d097 97bd 1af3 50be 1b34 febd c154 023e
00000300: e3d3 823d c594 ee3d 72b7 11be b000 6fbe
00000310: 4247 c1bd d4c5 083e 163c e2bd bbb8 cd3c
00000320: 012d 9e3d d8ad 5abd 4eaa 97bd c0a9 8cbe
00000330: a6f6 083b 2e4c 4f3d 47b8 a0bc c840 18bd
00000340: cee6 513c 0a1b ddbd 5cf8 063e aceb b63c
00000350: 16b9 33be f557 adbd c844 433c 054f df3d
00000360: f063 fdbd 9a63 55bd cd6e ae3c 2077 b2bc
00000370: 38b7 2a3d 3979 87bd 2c27 1dbe db1d 6c3d
00000380: b80f 92bd 8773 20be 5a1a 7e3d 9958 40be
00000390: ea07 d7bd fc1e 9b3d cbec 053c 0892 b5bd
000003a0: f041 85bc 9185 47be 84f8 5bbe 896c 1338
000003b0: 1907 a4bd aaa9 133e 6405 e2bd 5321 fc3c
000003c0: a75c 28be ef2b e1bb 2bea 583d 4d58 08be
000003d0: 4b39 10be 0504 30bd 8c7f 523d 18d7 b8bd
000003e0: 34e0 40be 5e91 2c3e
-0.012591513 0.007278248 0.07979821 0.103303954 0.08876983 -0.0999128 0.034237828 -0.19599317
-0.0026641313 -0.03250447 -0.30505475 -0.2201077 -0.15755394 0.019583892 0.0474523 0.05830466
0.087442 -0.19786367 -0.17855944 -0.2118238 0.105958015 0.15180236 -0.04614652 0.058275376
-0.19599366 0.094501056 -0.16403458 -0.032190442 -0.22340694 0.060859926 0.0796477 -0.14931524
0.027632998 -0.05348485 0.009545733 0.010202131 -0.25585532 -0.0718102 0.027770411 -0.22963199
0.012966645 0.031563688 -0.16895755 0.056604777 -0.11537354 -0.089742735 -0.20515321 -0.027473986
-0.093006805 -0.0019871837 0.048441213 -0.09773616 0.048616767 0.019009633 -0.17675018 0.08228722
0.017801724 -0.16953203 -0.2904091 -0.27637002 0.032088526 0.0020333538 0.06412538 -0.0950089
-0.050700344 -0.033953127 0.021507578 0.12212369 -0.1557643 -0.064829506 0.038394354 0.00741071
0.10840949 0.12957641 -0.040708113 0.06324519 -0.108041614 -0.1326413 -0.07774892 -0.14404447
0.04767691 -0.031027613 -0.16985501 -0.09944764 0.15021306 -0.027331788 -0.0990506 -0.044923715
0.052829333 -0.003980857 -0.1950666 -0.101682425 0.061428826 -0.0105137825 0.0667321 0.005398121
-0.128228 0.028962985 -0.09328268 0.23112975 0.19146104 0.10722568 -0.03703899 -0.023723604
-0.03420552 -0.11383794 -0.12492408 -0.1339354 0.035973825 -0.19445191 -0.061711896 0.049699076
-0.008998676 -0.026289452 0.008385012 -0.19327773 0.0363985 0.05644708 -0.14285856 -0.14371926
-0.0719701 0.022149233 -0.11399245 -0.1060334 -0.03554754 -0.09370033 0.062878616 -0.09598992
0.120307215 0.12909368 -0.040943626 0.09599399 0.09646423 -0.13504198 -0.05496065 -0.121265136
-0.11671197 -0.25592107 -0.22746356 -0.18075196 -0.15098642 -0.09092819 -0.084722325 0.0127625605
-0.12210667 -0.11948005 0.008317512 -0.052356698 0.14187728 0.13521098 0.118463196 0.003519454
0.025402723 -0.04289426 0.030436067 -0.28785667 -0.1943578 0.09918094 0.12468469 0.19824179
-0.07329247 -0.03765138 -0.111656375 -0.17686212 -0.09603228 -0.08941014 0.08987384 -0.048160657
-0.07474219 0.015662454 -0.059053984 -0.22264896 0.073881626 0.032409497 -0.21577738 0.034724403
-0.1873716 -0.071416505 -0.13377173 0.18561283 -0.0980197 -0.003416868 -0.13045307 -0.15152444
-0.1233185 -0.07338914 -0.18181732 0.0364455 -0.07402003 -0.20405236 -0.12412282 0.12727644
0.063880704 0.11649469 -0.14230135 -0.23340106 -0.094374195 0.13356715 -0.11046617 0.0251125
0.077234276 -0.053388447 -0.0740553 -0.2747326 0.0020898967 0.05060976 -0.01961912 -0.037171155
0.012811376 -0.10796173 0.13180679 0.022329174 -0.17551073 -0.08464042 0.011918254 0.10903744
-0.12372577 -0.05209694 0.021293068 -0.021785319 0.041678637 -0.06614918 -0.15346974 0.05764566
-0.07131904 -0.1566907 0.06203685 -0.18783797 -0.10499556 0.07574269 0.008174132 -0.08865744
-0.016266793 -0.19484545 -0.2148152 3.5148612e-05 -0.08009166 0.1442019 -0.110361844 0.030777609
-0.16441594 -0.0068716924 0.052957695 -0.13314934 -0.14084356 -0.042972583 0.05139117 -0.09025401
-0.18835527 0.16852328

conv1.bias f4 [10]
00000000: 2407 49bd 6b2a 3d3e 156e c63c b4a6 1abe
00000010: 771a dd3d 1d81 55bd 82af d9bd f539 7f3b
00000020: 7b25 a03d b030 98bd
-0.049079075 0.18473212 0.024222413 -0.15102655 0.107960634 -0.052125085 -0.106291786 0.0038944457
0.07819649 -0.074311614

conv2.weight f4 [20, 10, 5, 5]
00000000: f3da 84bd bcd3 7fbd 6805 a5bd 1711 2dbd
00000010: 245d 0c3d 01e2 53bd e7c6 bd3c f4b6 7e3c
00000020: a375 393d 5ace a43d 7fb2 e8bc d845 173d
00000030: 4f6d b03d b1dd 063e 0db7 4c3d 3da5 273d
00000040: 77bf 1e3d 89e1 d73d a91d ab3c e06b da3b
00000050: dc40 703d 77ac bc3d f477 5f3d 965c 28bd
00000060: 7bdf 4f3d d69f c7bc 0f28 1fbd 86b1 ebbc
00000070: 1771 40bd e84c 553c 72e5 433d 79c6 5e3d
00000080: 3fec 483d cef0 383c 9747 f7bc 6926 0b3d
00000090: 1476 24bd 5856 1c3c 9dae 24bd f586 b0bc
000000a0: 6561 1f3d 3745 363a ade4 2fbd 4b0a 833b
000000b0: d53a df3c f8a1 533d a0bd 47bb 4e88 5dbd
000000c0: e85c babb 33db 16bd 5154 ff3c ce07 5a3d
000000d0: 3c85 543d 2351 8f3c 3320 a63d b823 403c
000000e0: 21b3 d73c a24f 923c 4190 00bb f6a0 0b3d
000000f0: 6493 2ebb b509 e23c ee35 96bd eaef 86bd
00000100: c37e 44bd 3782 7cbd 33bd a0bc d091 03bd
00000110: 8367 b4bc a6e9 febd 4d62 1d3d e045 d13c
00000120: d220 3f3d b99d 133d e7e2 36bc 2632 08bd
00000130: 23fb fa3c 8c20 33bd 3ec9 423c adfd b83d
00000140: 3d85 943c c15a d4bc 91c3 f5bc cc3e a2bb
00000150: e25d 133c e586 50bd 4efa 22bd 7a45 35bd
00000160: 4750 cdbd 0a28 93bd 24af f23c f2a5 62bd
00000170: c156 7dbd 3ff6 3fbd 5d5e 69bc 852d 8dbc
00000180: 4678 853b 6360 fb3c f03d 153d 183d 9a3d
00000190: ecc5 eeb9 932b d83b d599 0dbd 59fa 97bc
000001a0: 4632 f3bc 9a25 073d 7bf6 333d 580c 723c
000001b0: e332 82bd e2ac 70bd d3d1 0a3d b42a 9b3c
000001c0: 83f2 7abc 1743 5abc 8b08 1c3d 52e1 ad3b
000001d0: cbf6 fa3c 883b 0d3d 1e7a 873d f4c5 e9bc
000001e0: 46ad d13c 9e45 553d 19b4 cbbc 9fb1 683c
000001f0: 88b0 a1bb fc63 7cbd f0da 80bb f72a eb3d
00000200: c0ff 1b3b 9d71 303c 2682 e7bc 6d1b 5b3c
00000210: 10a3 ec39 6395 983c 2cb6 96bc 1a61 86bc
00000220: 1cad b23b 6af0 e0bc 493a 443d 68de 9f3d
00000230: 8c5b 3fbd 3d25 29bd 37de bf3c a9b7 893d
00000240: 59f1 093c 06cd c83d 587d ac3b e8ef 4ebc
00000250: 13b7 02bc 031f 64bc dc5c 1abd 97b9 2dbd
00000260: b66c 83bd 70c1 c1bd 5041 4cbd 8f0d 87ba
00000270: ab6c 49bc 69d5 43bd f485 5b3d d9e2 873d
00000280: 67e2 4b3c 082d d3bb b706 b03d d322 863d
00000290: 2313 a23d 0c15 21bd 0791 143d e097 403d
000002a0: 0575 883d 01e1 023d 624c 823d 9a6b d7bb
000002b0: 419a 7abd a33a 22bd a968 e1bd 4d83 fcba
000002c0: 4fa5 033d 2190 c13c c496 d23b 214d 45bd
000002d0: 4d6c 88bc fc29 53bd 809c 26bc cd43 90bd
000002e0: 7801 6cbd 5b19 47bd 4145 56bd f3aa 84bd
000002f0: 3ec2 313d 8c31 af3c 329d 56bd 2392 453c
00000300: 7dc0 e0bc a17e 4ebd 8849 4d3d a7a0 223d
00000310: 2bd9 9abb 951e b93c 35d2 c2bc 38e3 733d
00000320: 2171 143b 708f 4b3c e748 95bc cfee 8fbd
00000330: f5f5 34bd 6278 17bc ceff bd3c 089a a2bd
00000340: f85c 94bd a99c 57bd e179 0c3d 3b98 a1bd
00000350: 59d5 debd 6329 71bd 83bf 26bd 1659 64bd
00000360: 1949 08bd fe74 3ebd e097 08bd ba37 87bd
00000370: a331 2abd 510d c8bc 35f8 acbc 7866 81bd
00000380: 9b45 96bc 1563 2fbc 406f 573d f749 3e3d
00000390: fae7 463d a296 343d 52e4 66bc 430f 633d
000003a0: ad51 82bb 8363 ccbc 903c 78bd bdb0 0bbd
000003b0: 1954 18bc 3dbf 3cbd f293 1a3d 611d 51bd
000003c0: ab4d 2d3d 22e9 86bd 7dc6 1c3d 1a23 9e3c
000003d0: ec7d b23b aad5 2fbd 9ee3 d4bc 988c c4bc
000003e0: 8adf 963c 45ed 6d3c 9f3f d0bb 8779 a93c
000003f0: 99c3 783d a670 88bd a387 babc 56ca 00bd
-0.06487074 -0.062457785 -0.08057672 -0.042252626 0.034268513 -0.051729206 0.023166133 0.015546549
0.045278203 0.08047171 -0.028405426 0.036931843 0.08614599 0.13170506 0.04997926 0.040929068
0.038756814 0.10541064 0.020888167 0.0066656917 0.058655605 0.092125826 0.054557756 -0.04110392
0.050750237 -0.024368208 -0.038856562 -0.028771173 -0.04698285 0.013018824 0.047826238 0.054388497
0.049053427 0.011287881 -0.030185504 0.033972178 -0.04015167 0.00954207 -0.040205587 -0.021548728
0.038911242 0.0006953063 -0.04294269 0.0039990298 0.027249733 0.051668137 -0.0030478016 -0.05408507
-0.005687345 -0.03683014 0.031168135 0.0532301 0.051884875 0.017494744 0.0811161 0.011727266
0.026330533 0.017860238 -0.0019617232 0.03408905 -0.0026638145 0.02759252 -0.07334505 -0.06588729
-0.047972452 -0.06164762 -0.019621467 -0.03212148 -0.022022014 -0.12446909 0.038423825 0.025546014
0.04666216 0.036039088 -0.011162496 -0.03325095 0.03063733 -0.04373221 0.0118888 0.0903276
0.01812994 -0.025922181 -0.03000048 -0.0049513336 0.008994551 -0.050909895 -0.03978949 -0.04425571
-0.10025077 -0.07185371 0.02962453 -0.05533404 -0.061850313 -0.046865698 -0.014243689 -0.01723362
0.0040731756 0.03068561 0.03643602 0.07531184 -0.0004554236 0.0065969913 -0.034570534 -0.018551992
-0.029687058 0.032994844 0.043936234 0.014773451 -0.06357362 -0.058758624 0.03389151 0.01894126
-0.015316608 -0.0133216595 0.038094085 0.0053064013 0.030635258 0.0344806 0.06615089 -0.028536774
0.025595319 0.052068345 -0.02486615 0.014202504 -0.0049343742 -0.06161879 -0.0039323494 0.11482804
0.0023803562 0.010769275 -0.028260302 0.013373238 0.0004513492 0.01862592 -0.018397413 -0.016403724
0.005452765 -0.027458388 0.047907148 0.078060925 -0.046718165 -0.04129528 0.02342139 0.067244835
0.008419358 0.0980473 0.0052639656 -0.01263044 -0.007978219 -0.013923409 -0.037686214 -0.04241332
-0.06417219 -0.094607234 -0.049866974 -0.0010303723 -0.012293975 -0.047810946 0.053594545 0.06635065
0.012444115 -0.006444577 0.08595031 0.06549611 0.07913806 -0.039326712 0.03627112 0.04701984
0.06662945 0.03195286 0.06362225 -0.0065741064 -0.061182264 -0.0396067 -0.110062905 -0.0019265205
0.032140072 0.023628296 0.006426664 -0.04816926 -0.016653204 -0.05155371 -0.010169148 -0.07044182
-0.05761859 -0.048608165 -0.05231214 -0.064779185 0.043398134 0.02138593 -0.052396007 0.0120587675
-0.027435536 -0.05041373 0.050118953 0.03970399 -0.0047255955 0.02259759 -0.023781875 0.059542865
0.0022650438 0.012424335 -0.01822324 -0.07027971 -0.044179875 -0.00924501 0.023193266 -0.079395354
-0.07244295 -0.052639637 0.03429592 -0.07890364 -0.108805366 -0.05887736 -0.040709984 -0.05574902
-0.033272836 -0.04649829 -0.033347964 -0.06602426 -0.041551244 -0.024420412 -0.021114448 -0.063183725
-0.018343737 -0.010704775 0.05259633 0.046457257 0.048561074 0.044088967 -0.014092522 0.055434477
-0.0039770217 -0.024949795 -0.060604632 -0.034104098 -0.009297394 -0.046080817 0.037738748 -0.05105341
0.042310398 -0.06587435 0.03827523 0.019303847 0.00544714 -0.042928375 -0.025987443 -0.023992822
0.018417139 0.0145219015 -0.0063552405 0.020687832 0.06073341 -0.06662111 -0.022769755 -0.031442963

conv2.bias f4 [20]
00000000: ebd5 2bbd 8a8f 3ebd fa67 4ebd f37e 51bd
00000010: 7f89 61bd 0dd8 733c 0bfd 2dbd d2d8 533c
00000020: b3a3 9d3b 5ed1 3bbb 808a f33b 4341 82bd
00000030: 0624 2d3d 3da2 213d d130 d23b 78bb 0dbd
00000040: 87e8 0e3b a46c 5ebd 8f52 383d 9cdc 323d
-0.041952055 -0.04652361 -0.05039213 -0.05114646 -0.055062767 0.0148830535 -0.04247765 0.012930112
0.0048107742 -0.0028658728 0.007432282 -0.06360104 0.042270683 0.039461363 0.006414511 -0.034602612
0.0021806078 -0.054302827 0.04500061 0.04366742

fc1.weight f4 [50, 320]
00000000: 9915 5abd ebf8 3abb fba1 16bd c007 25bd
00000010: 9506 68bb 666d a83c 4219 fe3b 078a debc
00000020: ff50 68bd 096c 68bc c9b4 22bd 0de1 c0bc
00000030: 1f81 97bc dd3b 9ebc 2635 ffbc d364 4f3c
00000040: 321b d43c 97d1 253c f8aa 153d 13af 293d
00000050: d8a1 693d e05c 7c3c 9b3b 49bd faf4 38bd
00000060: f9ea cc3c 134f c6bc d6d7 61bd d49b 413d
00000070: a7fb 593c bdf9 7bbb 5feb 03bc 9a1e 40bd
00000080: 8f53 ecb9 def9 2ebd c70c dd3b 8c51 28bd
00000090: c0dc 5cbd 8cd9 4bbd 1bdd 1b3d 4058 06bd
000000a0: 5db5 18bc b7d0 98bc 94a8 4fbd 7775 00bd
000000b0: aeec 8bbd 2247 b53c f894 11bc d14f c33c
000000c0: a2fc 68bd 63cc 0abd e29b 27bc 7c5d a93b
000000d0: 36e6 0f3c bfbb 63bd 7031 3fbd bd28 bebc
000000e0: 5bdc 2bbd be45 d53c 39e9 c83a e41c 51bb
000000f0: befa 44bd 3d94 c0bb b8c9 103d 7795 363b
00000100: eee1 86bd 2ea5 1b3d e6f2 d03c 51a5 623d
00000110: 68d5 cb3c 56c1 6ebd 8c69 36bc f29d 923b
00000120: 39f0 a5bc b53b 8ebc 1387 213c 51f7 2d3a
00000130: 206a 36bd bc69 f23b b0ff 8ebc 750f 32bc
00000140: fb78 b53b bc5d 633d 781c e2bb ace1 fb3c
00000150: 18da 38bd 0143 05bd 696f 36bd b596 b93b
00000160: 8087 41bd 6fb6 443d 89b1 673d d17e cf3c
00000170: 5d59 3e3c bd59 22bd 4786 d13c af7b 6b3d
00000180: ff39 c93c 9ab7 1b3c 3aaf ed3b 26e2 bdbc
00000190: bdf9 c9bb 4e40 2c3c 807a 7d3a 61b1 be3b
000001a0: 587f 4cbd 050d 023d ff1f a83d 5061 0fbd
000001b0: 6165 97bd 87bb 083d bd60 14bc abf5 95bd
000001c0: b235 0fbd c676 1bbd cd93 12bd 2ce2 573b
000001d0: 9158 37bc d135 3cbd 7db8 58bd e67d 51bd
000001e0: fe36 af3c 7c68 09bd 8e53 39bd 10eb f8bb
000001f0: cf3f 923d 80b7 a9bc 7ba3 f53c db07 67bd
00000200: b933 08bd a8bb 553d 6481 c5bc 9aff 813b
00000210: 6b10 37bc d852 d93b 0b12 6d3d 592b 303d
00000220: 0536 2fbd 4cb0 c9bc ab57 2ebd a48f 603d
00000230: ddc9 bdbc 71f1 34bc 09e4 123d d45e e6ba
00000240: 2ce9 93bc 30a5 bfbc 8151 833d 38b4 6dbd
00000250: 5bfa 00bc ae9f 9bbc 4d84 0e3d 770f 2c3d
00000260: 6ac9 c03b 8efc de3c 9a92 ca3c 62d4 cc3c
00000270: ae4b 2cbc 3692 debc 1b95 0e3c 5ff9 16bd
00000280: ca0b fdbc e005 b93c 9a8e 193b 5d90 99bc
00000290: c267 ec3c 9f17 03bc 193e 223d 6db2 2a3d
000002a0: b0b1 b1bb 1782 b33c 858d f03c 4977 35bd
000002b0: 15d9 36bd 42c1 b03c 3927 4d3d d3b8 463d
000002c0: 76b5 30bd b6c3 463d 1929 d7bc 91b4 41bc
000002d0: ac9f 553c 0dc1 5ebd 862c c63c d06b 60bd
000002e0: 19dd 4cbd efa2 48bc cd3f 43bd 51a5 953a
000002f0: 4d6d 19bd 3635 bebc 74b1 8abc 4f6c cc3b
00000300: f88c 45bc 894a dc3c 8f2f d13c 00e8 1bbd
00000310: f96a 06bd 924b 5c3d 23cc 65bd 5732 ce3c
00000320: fc31 5ebd 5e36 46bd 18a9 203d 0e99 763c
00000330: a418 fabc ed34 e1bb fc06 dfbb 1a86 2b3b
00000340: 1469 26bd 6c70 9a3c 1bee 203d f484 6bbd
00000350: b7b3 243d 17b7 67bc d56d e03a 4b0f 84bd
00000360: 67cd 743c 0cde f43c 2a71 183c 99b9 61bd
00000370: ac0e 2dbd f5e4 5dbd 5fce 0d3d 4777 2e3d
00000380: 8e0e da3b 142c 573c 746c 713c 313d 1339
00000390: ee6d 9ebc b834 53bc 0d60 18bd 4354 79bd
000003a0: eff0 41bd c216 45bd 5e18 00bb 1a79 c7bc
000003b0: d158 38bd 0299 94bb be72 acbc e6c1 9d3b
000003c0: 8e54 873c e45e 0bbd d0b8 a7bc ff0d e53b
000003d0: d1a7 133a 48e2 f1bb 2edf 7b3b 712e 303c
000003e0: 0834 efbc a34b 53bb 0eba be3c a971 d63c
000003f0: 0f76 dd3b 950d 06bd 2f45 1f3d 8985 d23c
-0.053243253 -0.0028529714 -0.03677557 -0.040290594 -0.0035404314 0.020559978 0.007754476 -0.027165426
-0.05671787 -0.014185914 -0.03972319 -0.023544813 -0.018494187 -0.019315654 -0.031153273 0.012658316
0.025891874 0.010120771 0.03654 0.04142673 0.05703911 0.0154030025 -0.04912911 -0.045155503
0.025014387 -0.024207627 -0.055137478 0.04726775 0.0133046275 -0.0038448416 -0.008051722 -0.046904184
-0.00045075684 -0.04271876 0.006745908 -0.041093394 -0.05392146 -0.049768016 0.03805266 -0.032799006
-0.009320584 -0.01865421 -0.050697878 -0.031362023 -0.068322524 0.022128645 -0.008885615 0.02384177
-0.056881554 -0.033886325 -0.010230036 0.005168615 0.008782914 -0.05559897 -0.046678007 -0.023212785
-0.041958194 0.026034232 0.0015328295 -0.003190809 -0.04809069 -0.0058770464 0.035348624 0.0027860084
-0.065860614 0.037999325 0.025506448 0.05533344 0.024882033 -0.05828985 -0.011133563 0.004474395
-0.020256149 -0.017362455 0.009858864 0.0006636279 -0.044534802 0.0073978584 -0.017455906 -0.010867943
0.0055381036 0.055509314 -0.0069003664 0.030747257 -0.045129865 -0.032534603 -0.044539843 0.0056637176
-0.047248363 0.048025545 0.056565795 0.025329025 0.011617986 -0.039636362 0.025576724 0.057491
0.024563788 0.009504223 0.0072535546 -0.023179125 -0.0061638043 0.010513378 0.0009669438 0.005819485
-0.049926132 0.031750698 0.08209228 -0.035004914 -0.07392383 0.033381965 -0.009056267 -0.07322248
-0.034963317 -0.037955068 -0.035785485 0.0032941205 -0.0111905495 -0.04594976 -0.052910317 -0.051145457
0.021388527 -0.03354691 -0.0452457 -0.007596381 0.07141077 -0.020717382 0.02998518 -0.056403976
-0.03325245 0.052180916 -0.02410955 0.0039672377 -0.011173348 0.00663219 0.057878535 0.04301009
-0.042776126 -0.024620198 -0.042564075 0.054824486 -0.023167545 -0.011043892 0.035862003 -0.0017575868
-0.018055521 -0.023394197 0.0641203 -0.058033198 -0.007872189 -0.01899704 0.03479414 0.042006936
0.0058833854 0.027220037 0.024728108 0.025003616 -0.01051609 -0.027169328 0.008702542 -0.036858913
-0.03088941 0.02258581 0.0023430944 -0.018745596 0.02885807 -0.008001237 0.039610002 0.041674066
-0.0054227933 0.021912618 0.029364357 -0.044303212 -0.04464062 0.021576528 0.050086234 0.048516106
-0.043141805 0.04852649 -0.026264714 -0.011822836 0.013038557 -0.054383326 0.024191152 -0.054790318
-0.050015543 -0.012245878 -0.047668267 0.0011417066 -0.037457753 -0.023218732 -0.01693032 0.0062384973
-0.012057535 0.02689101 0.025535373 -0.03806305 -0.03281686 0.053783007 -0.056102883 0.025170488
-0.054246888 -0.048391692 0.03922376 0.0150511395 -0.030529328 -0.0068727643 -0.0068062525 0.002617246
-0.040627554 0.018852435 0.039289575 -0.05749984 0.040210452 -0.014142773 0.0017122576 -0.064482294
0.01494155 0.029891036 0.009304324 -0.05510864 -0.04225032 -0.05417343 0.03462064 0.04259422
0.006654567 0.013133068 0.01473533 0.00014041808 -0.019339528 -0.012890987 -0.037200976 -0.060871374
-0.047348913 -0.048117407 -0.0019545774 -0.024349738 -0.045006577 -0.0045348415 -0.021050807 0.0048143743
0.016519811 -0.03402604 -0.020473868 0.006990194 0.00056326116 -0.007381711 0.0038432586 0.01075326
-0.029199615 -0.0032241128 0.023282077 0.026177244 0.0067584584 -0.032727797 0.038884338 0.02569844

fc1.bias f4 [50]
00000000: 58f5 9c3b 663f 5e3d 2e0f 163d f617 29bd
00000010: 6767 3c3c b162 15bc 0612 4fbc 8cb3 4dbd
00000020: 531b 883c 9650 fbbc 7793 d93c 3195 35bd
00000030: 71ff 3bbd c53f 703d dd66 caba 3424 07bd
00000040: ebbb 42bd 6b91 32bc 3adb 61bc 609e 163d
00000050: 3e68 153c fb46 47bd f381 233d f2da 0bbc
00000060: 4720 45bc 8544 883d 8af4 35bd a798 2b3d
00000070: 5806 7b3c 94a2 47bd ad48 da3b d5ac 4ebd
00000080: 5bb1 b1bb fac8 353d 6dfd 0cb8 4786 8bbc
00000090: 3364 8d3d 910e 2e3d c23b aebb 53d3 5bbc
000000a0: 9baf b5bc 6a48 233a 5665 ffbc 6911 09bc
000000b0: 5df0 1ebd 1c48 353d abfd 073d 6379 a839
000000c0: 7011 02bd a5ab bfbc
0.0047899894 0.05425968 0.03663557 -0.041282617 0.011499262 -0.009117768 -0.0126385745 -0.050220057
0.016614592 -0.030678075 0.026559575 -0.044331733 -0.045897905 0.058654565 -0.0015442033 -0.03299351
-0.047542494 -0.010898928 -0.013785178 0.036772132 0.009119092 -0.048651677 0.03991885 -0.008536087
-0.012031621 0.06653694 -0.044422664 0.041893627 0.015321337 -0.04873903 0.0066614957 -0.050457794
-0.0054227537 0.04438112 -3.3614622e-05 -0.017031802 0.06903877 0.04249436 -0.0053171823 -0.013417083
-0.022178462 0.0006228747 -0.03117625 -0.008365967 -0.038803447 0.044258222 0.0332009 0.00032133897
-0.03175491 -0.023397276

fc2.weight f4 [10, 50]
00000000: 6725 b9bd 18bb d1bc e668 8bbd 245e 2f3c
00000010: c5ae 283d b09b a0bd 184d f6bd c4ba c73d
00000020: f5d5 d5bd 8f0c e7bd 5c51 d43d e96b 54bd
00000030: 321b e5bc de54 d2bd 0166 51bd ef27 413c
00000040: 08f8 3f3d fff7 93bd 7c68 d7bd 72dc fc3d
00000050: a0d0 c5bc 7934 6ebc 5cb2 e4bc 7648 0b3e
00000060: 0f9f 573d 5e83 41bd 42b0 fdbd ff79 433d
00000070: 0224 06be 5da5 0bbe 82fe debc 6cc1 dabd
00000080: 92c2 bb3d 1309 013e e314 ad3d 4b0a 97bd
00000090: 71f2 e33d 8003 d23d cda7 b23d 0227 a83b
000000a0: 05f6 a83c a03c 1ebd 6d56 9c3d a2d5 0f3e
000000b0: fd32 2f3e 7a7b d2bc 452f d4bd 0934 3cbd
000000c0: 54a2 003e 8c8b 40bd 2069 f63c be62 623d
000000d0: 11c8 d8bd 8610 0dbe 5a4e 0ebe 0b1e 863d
000000e0: baf8 293e 75be 773d 45bf 02bc 3c79 b8bc
000000f0: 860a d63c a775 79ba 1167 d73c 35d6 d53d
00000100: 82e7 14bd 8ea6 073c 4c18 8d3d 84db d73d
00000110: aa02 283e 176b 343d 8b92 80bd f5d7 f3bd
00000120: 1890 9f3c deed ca3c 8128 773d 6634 3cbe
00000130: efc0 613d 3400 c13d 349c 193e ebab e93d
00000140: 55da f0bc 3073 0fbe 9675 0bbd 8357 09be
00000150: 2cb8 1cbe 800b 233e 6f3a 23be d270 05bd
00000160: 336e 33bd c87f 56bd 273b 6fbd 135d 643d
00000170: 3efc b43d 42d7 033d 9b11 663c a74f 01be
00000180: f06d 063d 4a00 043d 3ca9 0b3d a1d8 913d
00000190: 9d1d cebd 0a59 74bd 40f6 f13c b96f 303d
000001a0: 7b3a 91bd aa78 0dbe 7dd7 abbd 90f7 5cbc
000001b0: 0d5e 12bd ccf1 1d3e 8e0a 4d3d 2895 aa3c
000001c0: f018 213c 6b96 a13d 891a f9bd 11d7 823d
000001d0: e399 c33d 69bb 8cbd 23b1 81bc 1767 563d
000001e0: d247 153d fd22 473c 2a9f bd3d 5aff 3abd
000001f0: 938e 043d 213b d8bc 22a4 9bbd b037 753d
00000200: 8379 d03c be17 cfbd 8ba9 b03d f91c aebd
00000210: b2ab 68bc f9cb f1bb 50e2 9fba 5f0e fc3d
00000220: 0345 7bbd 68e2 8d3d 513c c9bd 4030 8b3d
00000230: 9934 6f3d 218b 5fbc f778 a13d c906 d33d
00000240: e380 8cbc 4563 e3bd 8798 f43c 29fa 733d
00000250: 6910 923d a4eb 9dbd e067 173e 2b44 dd3d
00000260: b7f7 90bd 4a14 313d f750 d4bd 6f00 733b
00000270: b735 b93a 15c3 483c eff1 083e 21b4 2cbd
00000280: 0b7b 2f3b c20e 2ebd c947 143d 5558 103e
00000290: 139b 11bd 9d6c d43d 5dfa 2d3d 2f24 63bd
000002a0: bd78 48bd 3623 2e3e 4d47 cd3c b4d2 f2bc
000002b0: a89d 82bd c9c0 473d 0421 16bd cedd 83bd
000002c0: 4e0d 453d de23 d83c 4ac5 09be e035 0bbc
000002d0: 0ec4 8a3c 5b0f 29bd b398 ca3d 3010 df3d
000002e0: 768f c43d a30f 08bd 2077 f5bc 4dbb 233e
000002f0: 556e a73c de1e e5bc 6384 3c3d d138 36bd
00000300: 63ed 423d 3a9d 50bd d417 debd 084f e7bd
00000310: 5c8e f6bd 1608 e53d 39e3 f03c fa09 fcbb
00000320: bc9c 9f3d ce7a 233d d772 2dbd 0429 073e
00000330: e1eb 193c 7617 b03d 868d a23d 03c3 31bd
00000340: 8dd4 acbd 0520 aabd 42cd 81bc 1da1 81bd
00000350: ccfb 253b bdc7 2abd 4c8e 06bd 481c 3c3d
00000360: 0dd6 9c3d b646 bf3d 8407 e4bd 551a 823d
00000370: 8137 803b 77a4 43bd ff4b 67ba 61c2 c73b
00000380: a176 70bd 4495 443e 6223 a0bc f726 b53d
00000390: 52d0 423e 3378 7c3d 0eb5 2a3e ded7 fdbb
000003a0: b403 8cbd d677 5dbc 8457 043e cf2b 76bd
000003b0: 0c88 a03d 89ab f1bd ef15 e1bd ccdf a63d
000003c0: 2025 c9bd e06a e53d 9108 dbbc a22e d0bb
000003d0: ff3a 18be 2c6f 3a3d e041 0fbe a298 a0bd
000003e0: 17d2 1d3d 7bf3 e4bd 1f7b 0e3d da9e ae3d
000003f0: 79ae f73d 275d 8bbd 9190 063e 6e7b 7e3d
-0.09040337 -0.025601909 -0.06807117 0.010703597 0.0411823 -0.07842195 -0.12026423 0.097524196
-0.104412 -0.11281692 0.103670806 -0.051860724 -0.02796707 -0.102700934 -0.05112267 0.011789306
0.0468674 -0.07225036 -0.10517976 0.12346734 -0.024147332 -0.014538878 -0.02791708 0.1360186
0.052641924 -0.047244422 -0.12387134 0.047723766 -0.13099673 -0.136373 -0.027220968 -0.106814235
0.09167971 0.12601118 0.084512495 -0.0737501 0.111302264 0.10254574 0.08723412 0.005131603
0.020625124 -0.038632035 0.07633672 0.14046338 0.17109294 -0.025693644 -0.103605784 -0.045948062
0.12561923 -0.047008082 0.030079424 0.05526995 -0.10585035 -0.13775834 -0.13897076 0.06548699
0.16598788 0.06048437 -0.0079801725 -0.022518747 0.026128065 -0.0009516128 0.026294263 0.104412474
-0.036353596 0.008279456 0.068894 0.10539916 0.16407266 0.04404744 -0.06277951 -0.11906425
0.019477889 0.024771627 0.060341362 -0.18379363 0.055115636 0.09423867 0.15000993 0.11409744
-0.029400984 -0.14008784 -0.034047686 -0.1341229 -0.15304631 0.15922356 -0.1594026 -0.032578297
-0.043806266 -0.052367955 -0.05840602 0.055752825 0.08837174 0.032187708 0.014042283 -0.12628041
0.03281969 0.03222684 0.03409694 0.07121397 -0.10064242 -0.059655227 0.029536366 0.043075297
-0.070912324 -0.13815561 -0.083907105 -0.013486758 -0.035734225 0.1542427 0.050058894 0.020823076
0.009832606 0.07890018 -0.12163264 0.06388677 0.09550836 -0.06871683 -0.015831536 0.052344408
0.036445446 0.012154338 0.09258874 -0.04565368 0.032362532 -0.026395382 -0.07599665 0.05986756
0.025448566 -0.1011195 0.08626088 -0.0850162 -0.014201092 -0.0073790518 -0.0012198184 0.123074286
-0.06134511 0.06927949 -0.098259576 0.06796312 0.05839977 -0.013644011 0.078844 0.103040285
-0.017151302 -0.111029185 0.029857887 0.059564743 0.07132036 -0.077109605 0.14785719 0.10804018
-0.07078498 0.04323224 -0.10367005 0.0037079116 0.0014130388 0.012253542 0.1337354 -0.04216397
0.002677622 -0.042494543 0.036201272 0.14096196 -0.03554828 0.10372279 0.042475093 -0.05545443
-0.04894327 0.1700562 0.025058413 -0.029641487 -0.06377727 0.04876784 -0.03665258 -0.0643879
0.04810839 0.02638429 -0.13454166 -0.0084967315 0.01693919 -0.04127441 0.09892406 0.108917594
0.095976755 -0.033218037 -0.02996403 0.15989418 0.020438353 -0.02796882 0.04602469 -0.044487778
0.04758967 -0.050931193 -0.108443886 -0.11294371 -0.12038872 0.11183183 0.029405223 -0.007691619
0.077935666 0.039912038 -0.042345848 0.1319924 0.009394617 0.08598225 0.0793715 -0.04339887
-0.08438978 -0.083068885 -0.015844945 -0.06329558 0.0025327085 -0.04169439 -0.03285055 0.04592541
0.076580144 0.09339659 -0.11134246 0.06352679 0.0039128666 -0.047764268 -0.0008823275 0.00609617
-0.058706883 0.19197565 -0.019548122 0.088453226 0.1902478 0.06163807 0.1667063 -0.0077466806
-0.06836644 -0.013517341 0.1292401 -0.060100373 0.07838449 -0.11800296 -0.109905116 0.081481546
-0.09821534 0.112020254 -0.026737483 -0.0063532153 -0.14866255 0.045516178 -0.13989973 -0.078416124
0.038530435 -0.11179253 0.034785386 0.08526392 0.12093825 -0.06804877 0.13141085 0.06212943

fc2.bias f4 [10]
00000000: d47c f63d a40e 863d d0c6 133e d305 953d
00000010: ad80 b03c 859b 8b3d 39b0 0cbe 19e2 023e
00000020: d2de 133e 9e72 003d
0.12035528 0.06545761 0.1443131 0.072765015 0.021545732 0.06816772 -0.13739099 0.12781562
0.14440468 0.031359307

momentum_buffer f4 [10, 1, 5, 5]
00000000: ce17 b43e 804e af3e bb65 833e cc75 d03d
00000010: 45c1 3abe 9957 813e 7419 293e 97cf 803d
00000020: 6434 d5bc 6bbe a6bd 98fc 523c b60f cebb
00000030: 87d8 c2bc 744f b2bc 1439 6ebd 5610 fc3d
00000040: ace0 173e 68c4 c13d a68e 833d be24 933b
00000050: 960b 9a3e b6a2 9d3e 3c3d 1c3e a6e1 793d
00000060: b8ee 2ebc 7a1b 89bd 731c 923b 1d84 773c
00000070: 750d ed3b 42be 453d 3c2f 653c 0bf3 623b
00000080: 72eb 3fba 557d ceb8 1ce7 2ebb 4004 42ba
00000090: 1ea2 8a3b 2a33 90b9 d815 21ba 7000 6d3a
000000a0: 0553 a13c 1a10 893b f054 e2b9 2546 0139
000000b0: c0c9 cb38 3255 203c a04a 12b6 c859 9337
000000c0: 62d4 be3a efdf 673c e04f ffbe 1c59 08bf
000000d0: 48a7 56be b2be a0bd 2f90 21bd eb96 06bf
000000e0: e8b9 f6be 96bf 83be 4f8c 28bc 2c8b 5a3c
000000f0: a899 20be 1c40 f2bd 769f 193d ae10 513e
00000100: bcda 8a3e c637 403d d745 193e dd30 693e
00000110: b9a6 c33e 9445 d03e 815c 5e3e afb4 d23e
00000120: 9904 fe3e c28d a73e bec2 6a3e c48d 6c3e
00000130: ddd0 fc3d 47e9 603d 009f 973d 5d86 3c3e
00000140: 4656 a33d 3265 783d 2151 9c3c b81e 133c
00000150: 38dd 4d3e b8f2 583d 7be4 fd3c 02d8 84bd
00000160: ef85 bbbd a085 053e 9448 84bc bede 2fbd
00000170: a880 22be 7001 66bd 80e4 0d3e 4023 d23b
00000180: addd 5abd 1ea5 21be 32e5 9ebd dc4b 15bd
00000190: 2eec eb3c 90e9 dd3d 616c ba3d f5f5 523d
000001a0: 3964 9a3d 79f9 3dbd b81f c6bb 3a11 72bc
000001b0: 18b5 f83b cd87 803b 92c5 81bc e344 803c
000001c0: 72ac 7dbb 07ba 043b fbc2 333c ff8b 41bc
000001d0: 44b9 003d 20d1 9a3b 48e9 a63b 6636 ca3a
000001e0: 63f2 093b e814 bf3c e0f5 4f3b ac6c 513a
000001f0: c558 a43b 007e 883e c36f 243e 9cfe 003e
00000200: 65fc 1c3e 19da 3e3e a85f f13d ea49 033d
00000210: 800a 68bc fe5e 5f3d 5e4c 473e a2b9 3c3d
00000220: 0032 03ba 1693 afbb f60e 863b 1477 423e
00000230: 6ef2 6c3c 7cc8 113c a7b6 5c3c 67a3 c13d
00000240: 2aa0 953e 8eb3 a0bc 00b2 45bc 6063 213b
00000250: e2be 3f3e 3c56 a53e 7407 013f 6b0a e83e
00000260: f9bd a53e 48cf 523e c33a 083e 1018 4b3d
00000270: c2ab f73c 20d7 233c 48b8 bbbc 1334 89bc
00000280: eab6 a03c 1ae1 313d e3fc 043d b7ef 5d3d
00000290: f4da b53d f024 1f3d f2e0 243d cc64 e73c
000002a0: da96 ae3d 09eb 283e 78f4 be3c f12d 343c
000002b0: 674c 373d ab2e f93d b143 233e 4dd6 74bd
000002c0: 18f5 1ebb d921 84ba 6c8d 30bd 62da 37bd
000002d0: d9ae b9b8 7969 813a d2b3 a83b fa45 183c
000002e0: aa2d b23c 8882 013b 5346 453b a21a b43c
000002f0: ad63 ab3c 6e85 ba3b 2422 033c 665d 823b
00000300: 2e0f 953d 3eb5 c43d 94cf 693d 0491 1bbb
00000310: f4b8 413c 3bc4 bb3d 9cfb 9f3d d50e fcbc
00000320: 081b bdbd 24df d6bd 02c0 1abc 3c4d 05bb
00000330: d838 a53b 8607 12be 2ff3 e6bd 3ab1 9e3c
00000340: 6086 6c3b 5a5d 913a 88a2 d9bd d9b5 31bd
00000350: 962b ac3c cf18 cc3b 72b3 bf3a f4bc 20bd
00000360: 4c7d adbc b936 c93c ae7d 1d3c 3e9e c9bb
00000370: d201 03be 7202 e4bc 6aad cd3c 803f a3b8
00000380: 01a6 0a3c 7e2d 6bbb c430 c2ba 5651 40ba
00000390: fe91 3fbc 6f3b 98bb f406 49bb 3217 bdb8
000003a0: fb44 19ba 30a8 a938 9664 ddbb ef66 80bb
000003b0: f567 b83a 582e 423b 908a 8138 2cdf 02bb
000003c0: 9d76 a33b a03e 633a 0050 73bb b03f ceb8
000003d0: aad8 e2bc 5b58 60bc f83a a5bc 1873 d9bc
000003e0: 2ff0 63bd 3a51 56be
0.35174412 0.34239578 0.25663552 0.10178718 -0.18237789 0.25262144 0.16513616 0.062895946
-0.026025958 -0.08141788 0.012877606 -0.006288494 -0.023784889 -0.021766402 -0.058159903 0.12307803
0.148318 0.0946129 0.064236924 0.004490464 0.30086964 0.307882 0.15257734 0.06100621
-0.010677032 -0.06694694 0.004458958 0.015107182 0.00723427 0.048277147 0.013988312 0.0034629728
-0.0007321156 -9.8461904e-05 -0.0026688045 -0.0007401146 0.0042307517 -0.0002750394 -0.00061449176 0.0009040898
0.019692907 0.0041828277 -0.00043169362 0.0001232853 9.717373e-05 0.009785937 -2.1799133e-06 1.7565573e-05
0.0014559145 0.014152511 -0.49865627 -0.5326097 -0.2096225 -0.07848872 -0.039444145 -0.5257403
-0.4818871 -0.25732106 -0.010287358 0.013338845 -0.15683615 -0.11828634 0.03750559 0.20416519
0.27120006 0.04692819 0.14968048 0.22772546 0.38213137 0.40678084 0.21714975 0.41153476
0.49612883 0.3272534 0.22925851 0.23100954 0.12344525 0.05490997 0.07403374 0.1841063
0.0797544 0.060643382 0.019081654 0.008979492 0.2010392 0.05296585 0.030992737 -0.06486513
-0.09156405 0.13039255 -0.01614789 -0.042937033 -0.15869391 -0.056153715 0.13856697 0.0064128935
-0.053434063 -0.15785643 -0.07758559 -0.0364493 0.028799143 0.10835564 0.09102703 0.051504094
0.07538647 -0.046380494 -0.0060462616 -0.014774615 0.0075899474 0.0039224387 -0.01584128 0.015657848
-0.0038707522 0.0020252482 0.01097178 -0.011813163 0.031426683 0.0047246367 0.0050937273 0.0015427589
0.0021049015 0.023325399 0.0031732246 0.00079889107 0.005015465 0.2665863 0.16058259 0.12597126
0.15330656 0.18637885 0.11785823 0.03205291 -0.01416266 0.05453395 0.19462726 0.04607547
-0.0005004704 -0.00535811 0.004091139 0.18990737 0.014462097 0.008897897 0.013471282 0.09454995
0.29223758 -0.019616868 -0.012066364 0.0024625883 0.1872516 0.32292354 0.50402 0.45320448
0.323715 0.20586884 0.13303666 0.049583495 0.030233268 0.01000002 -0.02291502 -0.016748464
0.01961847 0.043427564 0.032467734 0.054183688 0.088796526 0.038853586 0.040253587 0.028246306
0.085248664 0.16495909 0.023309931 0.010997281 0.044750597 0.12167104 0.15943791 -0.059774686
-0.0024254974 -0.0010080888 -0.04310362 -0.044886 -8.854055e-05 0.0009873352 0.0051483894 0.009294027
0.02175029 0.001976164 0.003010173 0.021985356 0.020921553 0.0056921756 0.008003745 0.003978419
0.07278286 0.09604882 0.057082728 -0.002373756 0.011823881 0.09168287 0.078116626 -0.030768791
-0.092336714 -0.104917794 -0.009445192 -0.0020340225 0.0050421767 -0.14260682 -0.11276852 0.019371618
0.0036090836 0.0011090443 -0.106267035 -0.043386314 0.021016877 0.0062285434 0.0014625622 -0.0392427
-0.02117791 0.024562227 0.009612484 -0.006152897 -0.12793663 -0.027833197 0.025107104 -7.7842735e-05
0.00846243 -0.003588527 -0.0014815559 -0.0007336339 -0.011692522 -0.004645757 -0.003067431 -9.016543e-05
-0.00058467657 8.089875e-05 -0.0067563755 -0.0039185206 0.0014069068 0.0029629674 6.1770086e-05 -0.0019969447
0.004988505 0.00086686946 -0.003712654 -9.834708e-05 -0.027691204 -0.013692941 -0.02016972 -0.026544139
-0.05564898 -0.20929423

momentum_buffer f4 [10]
00000000: af89 953a fce2 dab8 a484 2b3a 83ba 4e3a
00000010: e696 873a b2ea 05ba c396 fa3a b290 36bb
00000020: 9523 57bb 4bc0 65ba
0.0011408831 -0.00010437329 0.00065428973 0.0007886069 0.0010344654 -0.00051085197 0.0019118417 -0.0027857241
-0.0032827605 -0.00087643106

momentum_buffer f4 [20, 10, 5, 5]
00000000: f707 2fbc 1cf9 1cbb 12de 8e3b df7a cc3c
00000010: c834 2e39 3ecd e43b 832a 85bc ae47 ad3c
00000020: dc87 a63b c217 1d3c f49e b23d b87f 053e
00000030: 46f4 9b3d 4d80 a43d 5e74 6ebd 879c 053d
00000040: 3258 853c 6aaa cf3c e0a6 423a 5ceb 30bc
00000050: 6824 a1bc 2a2f d7bc b1ac 6dbd d233 bebd
00000060: 7218 60bd 3019 3eba a8a8 dcbb 5721 173b
00000070: 9a49 03bb 1bf2 22bb b60c e9ba fe8f 093b
00000080: f574 313a c3f4 ddba 344f d4ba 9cec b83c
00000090: 773b c3bb c8cc 4139 bcd8 75bc 96c8 70bc
000000a0: a69d 5e3b 6c55 3cbb 04a4 733c b86a 1c3b
000000b0: 6b0d d7bb 8be1 0dbb 7db4 063c 86f8 993c
000000c0: d86f b9bb 4e2b 1ebc 60e1 4a3d 3024 b03d
000000d0: dd76 0c3e 7fb5 093e 2607 543d dc20 54bd
000000e0: 6f33 d4bc 7372 0ebd f75a c03c 398d 2cbc
000000f0: 657a 96bd da0b 1cbd e62c 00bc c8c8 8dbc
00000100: d527 723d 0c36 1f3c 2c81 133d acb5 c6bc
00000110: fae6 223c 03b0 ce3c 4cfa 293e fbdc 033e
00000120: a03b 933d a034 91bb 1ef0 42bd e285 193e
00000130: c5a4 923d 9fa5 19bd 60c2 15be 7228 36be
00000140: 5399 8ebd fb75 75bd 819b 1bbe 722b dfbd
00000150: 0b3f 46be 313b 97bd bc4b 7cbd e091 17bd
00000160: 78b5 36bd e943 093c 0f00 47bc 4888 6a3c
00000170: 0af8 e83d 8044 013e 48f6 1d3e 8735 853d
00000180: c6e9 c33d 74ce fc3d eed3 023e cfe4 bb3d
00000190: b9c9 20bc 9ccb c4bc 49a9 85bb 737f 58bc
000001a0: f074 ba3b f2db 01bb 93ea ae3b 3c75 863a
000001b0: aa24 4fbb 59b9 853c 9ad2 953c fc6e 653d
000001c0: 9439 6c3c fffa 8e3d 5488 b03b f45e f13b
000001d0: 1a26 db3c 9f2f 9d3d b131 823d 5ed8 cb3b
000001e0: fa22 39bc 1c88 043c 9cfb 68bd ac3c abbd
000001f0: ea93 cabd 08eb da3c 145e e5bc b366 4ebd
00000200: 1e39 c2bd 7e0d 30be 3090 6cbd d236 a4bd
00000210: 9a59 9dbd 5a94 febc a224 debb bed4 583d
00000220: f0c6 673d ecd9 ec3d 2da5 d7bc 00f0 3b39
00000230: d32f 243d d45c b13d 0f92 9d3d e052 0a3e
00000240: 8fe0 ce3d 48d0 8dbb cb9d 26bd 0c4c 47bc
00000250: b0e2 c13b 1f03 59bd 6315 32bb a0f4 c2ba
00000260: 027a 2dbb b7ae 20bb ac5f 8339 b294 7e3c
00000270: a043 b2ba 1f9f 25bc ab6f b0bc e20d 2ebd
00000280: e039 073e 335e 143e 5660 a73d 32c2 d43c
00000290: f20f 9fbd 50f2 23bb d61b 4ebd 780c acbb
000002a0: b8fd fe3b abac 4dbd c215 fbbd 5422 bdbc
000002b0: b003 ecbc 531e 53bd 3dd5 94bd 47a1 0abb
000002c0: c2d7 9cbc 723d 7fbb c68b aabc d130 3c3b
000002d0: 37e1 cdbb 931e 04bb 02d2 89ba deac 0f3b
000002e0: d80b 703b a6f3 253d c41c c7bb 24bf 56ba
000002f0: b538 1abd 579c 84bc 40d0 a238 5316 163d
00000300: e869 033c e94d 213c 3cad a2bc c314 913b
00000310: 745f 573c d7c7 17bc 50a4 7d3a 8be4 2abc
00000320: 4ee0 14bc 6229 c8bb 95aa 4f3c 0077 5439
00000330: 4605 f6bb 2550 443b ab9e 0ebb 491a 033c
00000340: e52c 4abc fc3f ec3c aa47 3e3c e05c b739
00000350: 47e9 a83b 1299 b0bc 76eb 123d 6a5f 003c
00000360: a677 283b 2a90 b63c f3a6 92bc 9405 d43d
00000370: 1afe 013c e044 743c a3bd 4f3d a8cb 2abc
00000380: f798 c43d da36 a33c f7c7 acbc 34d1 d6bc
00000390: f3cc 24bd fa02 84bc 3a16 e1bc 803e efbc
000003a0: 7391 b2bc af72 5fbb 4408 df3a e04b 9f39
000003b0: f424 e0bb 6204 a1ba 26c0 9dbb fe4c 723c
000003c0: aa26 183d 9b67 b53c 67cc ee3c ba98 ad3c
000003d0: 5475 863c 72f4 cb3c 7686 c93b c892 a53c
000003e0: ed20 043d 0076 18ba a12e f6b9 49d7 a2b9
000003f0: 66ee 8eba ea80 b2b9 72f4 34b9 5b7c 9437
-0.010683051 -0.0023952192 0.004359969 0.024960933 0.00016613596 0.0069824746 -0.016255623 0.021152344
0.0050821137 0.009588184 0.08721724 0.13037002 0.07614951 0.08032284 -0.058216445 0.03261998
0.016277406 0.025349814 0.0007425379 -0.010798302 -0.01967068 -0.026267607 -0.05802602 -0.09287228
-0.054710813 -0.0007251678 -0.0067339726 0.0023060644 -0.0020032884 -0.0024863544 -0.0017780277 0.0020990367
0.0006769442 -0.0016933907 -0.0016197921 0.022573762 -0.0059580165 0.00018482201 -0.015005287 -0.014696261
0.0033968478 -0.002873744 0.014870647 0.002386732 -0.006562879 -0.0021649327 0.008221743 0.018795263
-0.0056590848 -0.009653879 0.04953134 0.08600652 0.13717218 0.13448142 0.05176463 -0.05178915
-0.025903432 -0.034777116 0.023480875 -0.010531717 -0.07347564 -0.03809724 -0.007823205 -0.017307654
0.059120018 0.009717476 0.03601186 -0.02425655 0.009942764 0.025230413 0.16599387 0.12877266
0.07189107 -0.004431322 -0.047592275 0.14992478 0.071603335 -0.037511464 -0.1462493 -0.17788866
-0.06962838 -0.059926968 -0.15196039 -0.108969584 -0.19359986 -0.07384337 -0.061595663 -0.03700435
-0.044606656 0.008378007 -0.01214601 0.014314719 0.11375435 0.12623787 0.1542598 0.0650435
0.09566073 0.12344065 0.12776157 0.09174501 -0.009813719 -0.02402287 -0.0040790183 -0.01321398
0.0056902096 -0.0019814936 0.005338022 0.0010258327 -0.0031607547 0.016323732 0.0182889 0.056014046
0.014418025 0.069814675 0.0053873453 0.0073660556 0.026751567 0.07675099 0.06357134 0.0062208613
-0.011299843 0.008089092 -0.05688058 -0.083611816 -0.098914936 0.0267234 -0.027998962 -0.05039091
-0.094835505 -0.17192647 -0.057754695 -0.08018269 -0.07683106 -0.031076599 -0.0067792693 0.05293726
0.056586206 0.11565003 -0.02632388 0.00017923117 0.04008467 0.08660284 0.07693874 0.13508177
0.10101425 -0.0043278076 -0.040677827 -0.012164127 0.005916916 -0.052981492 -0.0027173392 -0.0014873929
-0.0026470427 -0.00245182 0.00025057548 0.015538381 -0.0013600476 -0.010108738 -0.021537622 -0.04249371
0.13205671 0.14489059 0.081726715 0.025971506 -0.07766713 -0.0025016256 -0.050319515 -0.00525051
0.0077817105 -0.050213497 -0.12260009 -0.023087658 -0.028810352 -0.05154259 -0.072672345 -0.0021153258
-0.01914585 -0.0038946536 -0.020818602 0.002871562 -0.006282951 -0.0020159825 -0.0010514858 0.0021923105
0.0036628153 0.040515564 -0.006076427 -0.00081919343 -0.037651736 -0.01618783 7.7635515e-05 0.036642384
0.0080208555 0.009845235 -0.019857995 0.004427524 0.013145316 -0.009263954 0.00096756686 -0.010430465
-0.0090866815 -0.006108449 0.012674947 0.00020262226 -0.007507953 0.0029954996 -0.0021762054 0.008001872
-0.012339805 0.028839104 0.011613766 0.00034973677 0.005154762 -0.021557365 0.035869084 0.0078352485
0.0025706082 0.02228554 -0.017901873 0.103526264 0.007934118 0.014908999 0.05071796 -0.010424532
0.09599488 0.019923616 -0.021091444 -0.026222803 -0.040234517 -0.0161147 -0.027476419 -0.029204607
-0.021797871 -0.0034095456 0.0017016013 0.00030383375 -0.0068403427 -0.0012284631 -0.0048141656 0.014788864
0.037146248 0.02214413 0.029150201 0.02119099 0.016413368 0.024896834 0.006150062 0.020211592
0.032257963 -0.0005815923 -0.00046955518 -0.00031059448 -0.0010904789 -0.00034046854 -0.000172572 1.7700882e-05

momentum_buffer f4 [20]
00000000: b4ac 3d3a 73f4 5cba 77f3 b0b4 8f9d 6d3a
00000010: f0e1 87ba 6e07 16b9 c011 123b 3663 193b
00000020: 9ced b4ba 6c0b 48ba 2ea1 e2ba e9f3 e136
00000030: 1efc 293a 90c2 3038 b415 c9b7 d8ca 10b8
00000040: a602 07bb 9e23 ffb9 db2c f5ba a1c6 0b3b
0.00072355126 -0.000842876 -3.29597e-07 0.00090643106 -0.0010367017 -0.00014307883 0.0022288412 0.0023405082
-0.0013803723 -0.00076310965 -0.0017290467 6.7339174e-06 0.0006484407 4.214287e-05 -2.3971174e-05 -3.452119e-05
-0.0020600944 -0.00048663927 -0.0018705385 0.002132811

momentum_buffer f4 [50, 320]
00000000: b3a6 e1b5 8da0 2936 e42a 33b6 4171 1b2b
00000010: 0baf 0d37 2a87 4736 9230 26b4 5537 01a9
00000020: 6089 cfb6 e49f cbb6 4e44 c0b0 9844 8eb0
00000030: cf8c cf36 fdc3 adb4 3c26 f7ae 54b6 a134
00000040: fa9a 9dba 1c44 9fb9 217c a535 3ab0 e6b6
00000050: 4cab 94b9 9f1a 50af 40ad 2d0e e14b 08b8
00000060: 49f5 f135 8d06 4735 19df ab32 b850 e3b5
00000070: a854 6534 fdc4 2733 8db6 5cb8 3e54 88b8
00000080: 0000 0000 0000 0000 0000 0000 0000 0000
00000090: 0000 0000 0000 0000 0000 0000 0000 0000
000000a0: b159 1b02 0000 0000 1609 0080 0000 0000
000000b0: 358e 842f 0000 0000 0000 0000 0000 0000
000000c0: 4a0c 6eb4 e93a 3db4 2391 dc2f 1c06 07ba
000000d0: c4af 7ab5 2f96 efb5 1dcf 71b9 e4c0 65ba
000000e0: 9179 27b8 e7c5 5fba 4a18 c2ba 738d aaba
000000f0: c9b5 67ba 46d5 daba f9d0 94ba 0867 90b7
00000100: 14de 3cba 5acf b638 f2a5 f037 20d4 3739
00000110: 9942 8cba 6352 8b37 e794 1a39 8ce7 0a3a
00000120: d7d3 a6ba 7217 7dba bab7 83b6 1a26 b0b7
00000130: d1e7 12ba 209b 22ba 5929 1636 fd14 e239
00000140: f6ea 4eaa 0000 0000 0000 0000 0000 0000
00000150: 4797 94af 5f1a 3512 0000 0000 0000 0000
00000160: 051f 95af 5f7b 891b 0000 0000 0000 0000
00000170: d712 81b1 0000 0000 0000 0000 0000 0000
00000180: b1f9 c9ba c818 85bb c7a3 ebba 22d9 edb9
00000190: e529 02bb abad 3dbb eeb7 9cba e75e 92b9
000001a0: e0d6 baba a755 89bb 7e63 2dbb 46a6 0fb5
000001b0: 7a83 3fba 8a87 54ba 2312 52ba 8577 4837
000001c0: af8f f037 fdd8 1cb9 dc77 8fba f2b8 1437
000001d0: fb10 2aba 5c3a 76ba 39c1 1037 efde 0f34
000001e0: ceb8 77bb 407e 12bb 1282 8eb9 b30e 58b7
000001f0: 53a8 f7ba ddb3 4d39 e040 fd38 8eac 1039
00000200: 3204 4fb7 abf7 7097 96ca ea9d 75a4 5021
00000210: 5f7e fbac 604c 25b5 267d 16bc 5c96 04b3
00000220: 652f 16ba 45e7 dab8 5c24 c738 c701 45a1
00000230: a84c 1e36 0659 fd39 1c13 5a39 e1c9 2d0d
00000240: b9ea b0ba 10f2 48ba 61aa b436 62f3 88ba
00000250: 8a68 62ba 964e 433a fb74 8e3a 2132 d3ba
00000260: 98cc 05b8 aa1a 213a 8f5f 0137 ce18 e6ba
00000270: 32a7 1eba 9ece 08bb 086d f4b9 a2e8 3aba
00000280: bba9 55ba 5cf4 1837 a80a 02a6 5d30 0180
00000290: 838d acba bccb 8135 0000 0000 0000 0000
000002a0: 152f 92b9 f199 0bb4 0000 0000 7798 062b
000002b0: 81bf bbba 802c ce34 af86 a595 d2bf 980d
000002c0: c302 0000 4f6c d80c 0000 0000 0000 0000
000002d0: 1f83 7501 a883 d304 0000 0000 0000 0000
000002e0: e686 78b2 2600 0000 0000 0000 0000 0000
000002f0: dd5d c0a2 3369 ad98 0000 0000 0000 0000
00000300: bea1 6a3a a88f caba f56c e3ba d484 9da6
00000310: 72dd 0dbb f483 0bbb e92e a4ad c37b 6217
00000320: 1285 0fbb 8ece 8daf 4008 2034 0000 0000
00000330: 51f1 e238 2eab 5a39 7471 6733 b370 3594
00000340: 7707 6039 d0e9 49b6 82c9 81b2 c33a b835
00000350: be59 67b6 2fd4 4435 93ed c20d 517e 30b3
00000360: ba20 6d37 aeee 5518 1dd3 7019 643f 3235
00000370: 06e2 6536 1868 3db3 0000 0000 8228 9435
00000380: 2317 02a2 0000 0000 0000 0000 0000 0000
00000390: 0000 0000 0000 0000 0000 0000 0000 0000
000003a0: 2434 cb96 0000 0000 0000 0000 0000 0000
000003b0: c574 d3a0 0000 0000 0000 0000 0000 0000
000003c0: 0000 0000 0000 0000 0000 0000 0000 0000
000003d0: e18c 208f ae33 ef0d 0000 0000 0000 0000
000003e0: 94cd 9312 8cca 9b88 775c 0c16 8621 9025
000003f0: 279d 8511 0000 0000 0000 0000 2fe5 d5b3
-1.6812322e-06 2.5276415e-06 -2.6698044e-06 5.5224233e-13 8.44501e-06 2.9731987e-06 -1.5477625e-07 -2.8691747e-14
-6.1850733e-06 -6.068485e-06 -1.3989252e-09 -1.0351355e-09 6.185473e-06 -3.236636e-07 -1.12390514e-10 3.0121248e-07
-0.0012024336 -0.0003037759 1.2329584e-06 -6.8750496e-06 -0.00028356386 -1.8926948e-10 2.1407313e-30 -3.2495594e-05
1.8027287e-06 7.414281e-07 2.0008473e-08 -1.693631e-06 2.1358085e-07 3.9061877e-08 -5.26221e-05 -6.500677e-05
0.0 0.0 0.0 0.0 0.0 0.0 0.0 0.0
1.1413342e-37 0.0 -3.26e-42 0.0 2.4111704e-10 0.0 0.0 0.0
-2.2169948e-07 -1.7623428e-07 4.0120893e-10 -0.00051507517 -9.338803e-07 -1.7850597e-06 -0.00023060707 -0.00087643997
-3.992912e-05 -0.00085362646 -0.0014808264 -0.0013012126 -0.0008839039 -0.001669564 -0.0011353783 -1.7214115e-05
-0.0007204723 8.7170585e-05 2.8687504e-05 0.00017531263 -0.0010701 1.6608456e-05 0.00014742055 0.00052987854
-0.0012727928 -0.00096546777 -3.925493e-06 -2.0998577e-05 -0.00056040013 -0.0006202925 2.237581e-06 0.00043121717
-1.8377994e-13 0.0 0.0 0.0 -2.7028532e-10 5.7146034e-28 0.0 0.0
-2.7124983e-10 2.2744475e-22 0.0 0.0 -3.756536e-09 0.0 0.0 0.0
-0.0015409497 -0.004061792 -0.0017977887 -0.0004536594 -0.0019861397 -0.0028942626 -0.0011956671 -0.00027917998
-0.0014254712 -0.0041911188 -0.0026457007 -5.351361e-07 -0.00073056633 -0.0008107355 -0.0008013567 1.1948757e-05
2.8677137e-05 -0.00014958154 -0.0010945755 8.864548e-06 -0.00064875156 -0.00093928515 8.628057e-06 1.3399016e-07
-0.003779936 -0.0022353083 -0.0002718126 -1.2878026e-05 -0.0018894769 0.00019617328 0.00012076064 0.00013797192
-1.2339138e-05 -7.7860783e-25 -6.2148753e-21 7.06908e-19 -7.147879e-12 -6.157843e-07 -0.009185111 -3.0870396e-08
-0.0005729108 -0.00010438127 9.495832e-05 -6.674855e-19 2.3588454e-06 0.00048322248 0.00020797219 5.3552744e-31
-0.0013497687 -0.00076654647 5.3842527e-06 -0.001044851 -0.00086367934 0.000745037 0.0010868603 -0.0016112962
-3.1900214e-05 0.0006145636 7.711248e-06 -0.0017555 -0.0006052136 -0.0020875107 -0.0004662054 -0.0007130002
-0.0008150597 9.1168e-06 -4.511725e-16 -1.09185e-40 -0.0013164732 9.670543e-07 0.0 0.0
-0.0002788237 -1.3001387e-07 0.0 4.781795e-13 -0.001432404 3.8402868e-07 -6.685546e-26 9.413902e-31
9.91e-43 3.3345255e-31 0.0 0.0 4.5093468e-38 4.972677e-36 0.0 0.0
-1.4466172e-08 5.3e-44 0.0 0.0 -5.2141086e-18 -4.4825676e-24 0.0 0.0
0.0008950493 -0.001545419 -0.0017351197 -1.0930067e-15 -0.0021646884 -0.0021288367 -1.8665474e-11 7.318075e-25
-0.0021899384 -2.5794517e-10 1.4904163e-07 0.0 0.000108214685 0.0002085387 5.3887064e-08 -9.160391e-27
0.00021365086 -3.008743e-06 -1.5109212e-08 1.372617e-06 -3.447392e-06 7.332446e-07 1.2013367e-30 -4.1093077e-08
1.4133921e-05 2.7650107e-24 1.2450343e-23 6.640241e-07 3.4255222e-06 -4.4099664e-08 0.0 1.1038649e-06
-1.7630534e-18 0.0 0.0 0.0 0.0 0.0 0.0 0.0
-3.2829324e-25 0.0 0.0 0.0 -3.5822062e-19 0.0 0.0 0.0
0.0 0.0 0.0 0.0 -7.915741e-30 1.4741954e-30 0.0 0.0
9.327683e-28 -9.376342e-34 1.1338287e-25 2.5002734e-16 2.1080553e-28 0.0 0.0 -9.960274e-08

momentum_buffer f4 [50]
00000000: 6198 0bba e00f dab8 56b0 8eba ca70 06bb
00000010: 44b8 ec3a 5f7e 2339 fabd 3839 8b27 bb3b
00000020: 3983 0fbb 4ae3 bbbb a805 58b9 72b5 1b3b
00000030: 7f5b a33a 6c83 64bb 32f3 8b3b c8a3 7ebb
00000040: 26ad c4ba 8fcb 81ba 76c3 c4ba c017 9138
00000050: adc8 553b f2a8 f8ba 40d6 013b 04b8 37bb
00000060: 0297 1eba f147 6dbb 1018 bab9 ad96 48ba
00000070: 4d2d 38bb 8cfa 9839 0227 08bb e5db 3c3b
00000080: 1f34 113b 0a73 a5ba 0d77 c3ba 143a 85b9
00000090: 93f8 833b 8eac 6bbb 3c0b ebb8 10e7 7ab8
000000a0: c564 4a3b c932 c8ba 130f ee39 54ad ba3a
000000b0: c1f6 093c 40db 733a e65e 9439 d68c 17bb
000000c0: 68db 243b 3986 3e3a
-0.00053251354 -0.00010398007 -0.0010886292 -0.0020514005 0.0018060287 0.00015591968 0.00017618379 0.005711501
-0.0021898283 -0.005733882 -0.00020601472 0.0023759273 0.0012463181 -0.0034868373 0.0042709345 -0.0038854945
-0.0015005216 -0.0009902584 -0.0015011865 6.9185626e-05 0.0032620833 -0.0018971248 0.001981154 -0.0028033266
-0.00060497236 -0.003620621 -0.00035494613 -0.0007651847 -0.0028103173 0.0002917837 -0.0020775204 0.002881759
0.002215631 -0.0012622785 -0.0014912799 -0.00025411008 0.004027435 -0.0035961005 -0.00011207766 -5.981984e-05
0.0030882817 -0.0015273924 0.0004540613 0.001424233 0.008420647 0.0009302385 0.00028299465 -0.0023124716
0.002515519 0.00072679255
