quick-start/notebooks_gpu/logs/log_20240523-14_25/model_epoch_1.bin (torch, 180126 bytes, 16 tensors)

conv1.weight f4 [10, 1, 5, 5]
00000000: 129a 20ba b1e9 323d bd03 d43d 99e5 333d
00000010: 9ec2 ed3c d41d 20be 879d 34bb 7b84 22be
00000020: 7100 243d 2173 9ebb f581 96be d685 81be
00000030: 193b 30be 9d05 2b3d 8e66 833d 0a16 df3d
00000040: c4df 7e3d 0dac 6abe 8bc3 47be c0ee 78be
00000050: c3ed ea3d 2d65 153e c5f2 12bc 9a88 a03d
00000060: db3a 8bbe 2384 a23d 9bad 3ebe bde3 24bd
00000070: d7d3 63be acf0 763c e5ae a73d f744 23be
00000080: 1935 dd3c c982 58bd 07e5 57bc d7a2 e7bb
00000090: 98a6 84be ab2c 93bd 944c e23c d881 6bbe
000000a0: 4e9f a73b 8a48 c03c 1a85 2cbe d754 663d
000000b0: 9759 edbd fbc8 bdbd ba6e 52be 08f3 f5bc
000000c0: 2444 c7bd efcd c9bc 0900 4bbc 5d25 10be
000000d0: c90a cd3c 51c5 90bb 18cf 3bbe 12e6 693d
000000e0: bc59 af3c e3a3 25be 6317 96be 9043 8dbe
000000f0: 8122 25bd 92f3 c73c 8b7c 813d 4c70 b3bd
00000100: 3166 99bd d6f6 e0bc afac 3b3d e180 d83d
00000110: 3786 30be 9f3e 91bc 5822 c6bc c4d3 babc
00000120: 03b0 013e 05ff 083e 78f0 17bc be95 043e
00000130: b55e 86bd d092 2abe 085a babd 76ea e1bd
00000140: f898 ba3d 20a4 91bd 0caa 4bbe e218 9ebd
00000150: c650 0e3e 99fc 283b f2ba 2abe 273a 9fbd
00000160: d488 1d3d efe6 e0bc 5d5a 2dbe 07e4 0bbe
00000170: 0065 3a3d 4955 62bd 76a6 663d 526c 49bd
00000180: bab3 33be 472e 953c 3e29 d7bd 894a 673e
00000190: 1010 4a3e b974 b03d 6bd9 24bc 64f8 01bd
000001a0: 8586 acbd d501 05be be2b e9bd 9287 0dbe
000001b0: 8b26 ba3c 36ee 52be 2a9a b8bd c53d d63c
000001c0: d417 7cbc a393 e7bc 39af 583b 9a74 3fbe
000001d0: 52a9 4d3b c72b 2d3d 9ec0 14be 538b 12be
000001e0: 1c24 82bd 5524 35bc 78e4 05be 0d3c d9bd
000001f0: 13e3 67bd 4d93 063c b276 d33d b6cf 93bd
00000200: bad5 d73d f17f c33d 22f4 e0bd 3a84 b83d
00000210: ad7d 1c3e e5b9 66bd 5dcd 8bbc bea0 1bbe
00000220: 1e55 d2bd 1786 89be 6cf3 68be 3514 6dbe
00000230: 7e9c 22be 48a0 cfbd 0b8b c8bd 2ef9 2abc
00000240: 5274 0abe ee7c debd 347e b73d 8b6e 63bc
00000250: 62cb 0d3e 6133 073e db36 973d 35c8 a93c
00000260: 0840 e9bb 7429 70bd 8434 9c3d baf0 a7be
00000270: d037 55be da75 4d3d c0ca 963d ab81 703e
00000280: 0414 a2bd e099 70bd 696e 07be 1458 33be
00000290: 6879 85bd 8b2d c0bd 90af 9b3d a8c1 88bd
000002a0: f2ea ebbd f5ef 83ba b4a8 86bd 8a2f 63be
000002b0: bbbf 7e3d 117b 643c 49ea 46be 987a 013c
000002c0: 9ec4 43be c639 a4bd 887f 26be 2e6d 353e
000002d0: f709 d6bd ceee 67bc e0ce 0cbe e62a 40be
000002e0: 362b 0cbe 8c00 84bd 6295 1dbe 2193 7b3d
000002f0: b04f c1bd 9cc2 64be 09c7 efbd 326a 2b3e
00000300: 4f42 d53d 51da 093e bbbf 30be c836 81be
00000310: 5909 bbbd 4230 093e 66dd 73bd 0e1b 13bc
00000320: 384c 0a3d 18fc dbbd 0f7c b0bd 2af2 91be
00000330: f27b d8bc 4564 793d 10a6 0ebd 7bfe f8bc
00000340: 1d72 09bc 59ab 00be 8c4b 933d 58fe e13c
00000350: c091 46be 50f2 dfbd b9c2 42bc 119c bc3d
00000360: 473e e0bd c497 afbd 1a2d 5cbc 3878 99bc
00000370: 1906 553d 08f1 bfbd 4c80 45be 591c d33c
00000380: 227b 65bd a58e 22be 38af 883d cd98 40be
00000390: 56d5 c7bd 81c9 c23d 6765 cfbb 4687 b4bd
000003a0: cad1 44bc 8343 47be c090 61be 704f e0bb
000003b0: d1d0 a1bd b840 203e 474b d6bd aefb bb3c
000003c0: d67d 26be 2966 92bb b525 7a3d c9b8 03be
000003d0: dfbf 02be fc02 6fbd 209c 2c3d 745f cdbd
000003e0: e23f 44be 1b78 5c3e
-0.0006126474 0.043679897 0.103522755 0.043920133 0.029023465 -0.15636379 -0.0027559714 -0.1587085
0.040039483 -0.004835502 -0.29396024 -0.2529742 -0.17210044 0.0417534 0.06416045 0.108928755
0.06222512 -0.22917195 -0.19508187 -0.24309826 0.11471131 0.14589377 -0.008969014 0.07838555
-0.2719334 0.07935359 -0.18620913 -0.04025625 -0.22248779 0.015072029 0.08187655 -0.15944277
0.027002858 -0.0528591 -0.013177163 -0.0070689726 -0.2590835 -0.07186254 0.027624406 -0.2299875
0.005115426 0.02347209 -0.16847649 0.056233253 -0.115893535 -0.092668496 -0.20550051 -0.030023113
-0.09729794 -0.02463433 -0.012390145 -0.14076753 0.025029557 -0.004418053 -0.18340719 0.057104178
0.021405093 -0.16175799 -0.29314718 -0.2759061 -0.04031611 0.024408136 0.06322583 -0.08761653
-0.074901946 -0.02746145 0.04581898 0.10571457 -0.17238699 -0.017730055 -0.024186298 -0.022806056
0.126648 0.13378532 -0.009273641 0.12947747 -0.06561033 -0.16657567 -0.09099203 -0.11031048
0.09111208 -0.071113825 -0.19889086 -0.0771959 0.13898 0.0025785326 -0.16672876 -0.077747636
0.038460568 -0.027453868 -0.16929002 -0.13661204 0.045506477 -0.055257116 0.056311093 -0.049175568
-0.17549029 0.018210543 -0.10505913 0.22587027 0.1973269 0.08616013 -0.010061602 -0.031731024
-0.08424095 -0.1298898 -0.11385296 -0.13821247 0.022723457 -0.20598683 -0.090137795 0.0261525
-0.01538654 -0.02826864 0.0033063425 -0.18696824 0.003138144 0.042278077 -0.14526603 -0.1431096
-0.063545436 -0.0110560255 -0.13075435 -0.10607157 -0.05661304 0.00821383 0.10325374 -0.07217352
0.10538812 0.09545887 -0.10984065 0.09009595 0.15282317 -0.056329627 -0.017065698 -0.15198037
-0.10270141 -0.26860115 -0.22749108 -0.2315224 -0.1588001 -0.10137993 -0.09792145 -0.010435386
-0.13520935 -0.10863672 0.08959618 -0.013881336 0.13847116 0.13203193 0.0738351 0.020725349
-0.007118229 -0.058633283 0.07627204 -0.32800847 -0.20822072 0.05016122 0.0736289 0.23486964
-0.07913974 -0.058740497 -0.13225712 -0.17514068 -0.06517297 -0.09383687 0.07601845 -0.06677562
-0.11519422 -0.001006602 -0.06575146 -0.22186103 0.062194567 0.013945357 -0.1942531 0.007902764
-0.19117972 -0.08018832 -0.16259587 0.1771743 -0.104511194 -0.014156057 -0.13750792 -0.18766364
-0.13688359 -0.06445417 -0.15389016 0.06141961 -0.09439027 -0.22339863 -0.11707885 0.16739729
0.10413038 0.13462187 -0.1726064 -0.25237107 -0.09132642 0.13397315 -0.059537314 -0.008978618
0.033764094 -0.107414424 -0.08617412 -0.2850507 -0.02642629 0.06088664 -0.03482634 -0.030394783
-0.008389023 -0.12565364 0.07192144 0.0275871 -0.19391537 -0.10934889 -0.011887246 0.09209455
-0.109493785 -0.08573869 -0.013438487 -0.018734083 0.05200777 -0.09372145 -0.19287223 0.025770353
-0.05602563 -0.15874727 0.06674045 -0.18808289 -0.097574875 0.0951109 -0.006329227 -0.08814864
-0.012012908 -0.19459347 -0.22027874 -0.006845407 -0.07901157 0.15649688 -0.10463577 0.022947159
-0.1625894 -0.004467745 0.061071116 -0.12863459 -0.12768506 -0.058352455 0.04214108 -0.10027972
-0.19164994 0.21530192

conv1.bias f4 [10]
00000000: 27a1 3fbd 245b 3a3e 4c86 9d3c 6f80 1bbe
00000010: ceeb d63d 041b 59bd 1b25 d6bd e34a fd3a
00000020: feb9 913d 2077 98bd
-0.046784546 0.1819883 0.019229077 -0.15185712 0.10494195 -0.05300428 -0.10456296 0.0019324686
0.07115553 -0.07444596

conv2.weight f4 [20, 10, 5, 5]
00000000: e82a 9dbd 360f 61bd 00d0 a4bd f099 46bd
00000010: f939 7d3c 600b 90bd 20f3 1c3d 9a3c 2c3c
00000020: 900c b13c f847 a03d 6986 1f3b ecbb 503d
00000030: 144b 983d d51b e33d cd26 5a3d 1440 183d
00000040: 78e8 483d f975 e93d 47db 24bc 83c8 49b9
00000050: cc02 5c3d df3a b03d fbd0 253d 96e8 febc
00000060: a08e 923c a75f 24bc b688 d7bc e058 41bc
00000070: 9745 1dbd 6e17 2e3c c9e8 6a3d 8bf2 093d
00000080: 2186 503d 41ad 363c 7dbf bbbc 074a e53c
00000090: 65cc 82bd c51c 7f3c 3a3f 5ebd eb8a 48bb
000000a0: 8fa0 cb3c 944c 5abc 6a36 acbc 7794 84bc
000000b0: 5fa5 a03c a67c 173d af3c b43a 92d6 18bd
000000c0: 7e49 aabc f19f 6dbd e9f0 3b3c 5ec3 643d
000000d0: cfe6 6e3d f62f 1e3d e1d9 303c d9c3 b23b
000000e0: 4925 9e3d 7a39 a43c 6723 b6bb 4041 743d
000000f0: d022 853c 7596 3c3d d153 63bd 6219 0bbd
00000100: 5488 72bd e698 c6bd e35b 3abd 1986 63bd
00000110: 1c78 74ba 8b17 0cbe 930b 593d 1f2c 3a3c
00000120: f9ce e03c c99e 183c abcf c2bc b7c3 28bd
00000130: ab7e 903b 389d 87bc b77e 683c 641a cc3d
00000140: b195 443c 414d 503b 0906 06bd b48e 4fbd
00000150: 6a7f 60bb 6562 aebd 8a9e 63bc e432 16bd
00000160: 0036 08be c3dd c2bd 8147 5cbc 5ffa 4bbd
00000170: 8602 abbd 884a 45bd 175f 303c b295 e5bb
00000180: df11 403c 3deb 01bd f44f c63c ed03 343d
00000190: 3555 e43c 73ac c63c d365 acbc cbd7 eabc
000001a0: 902f 1abd 3b9c 673d 91fa 113d b6ab 023d
000001b0: 27af 55bd 37f7 7abd 8279 2f3d 7376 e93c
000001c0: 88c3 3c3c 9afe d13c 7c24 8d3d 736e 273b
000001d0: 389d a23c 4e02 7c3d b62c 9d3d 5378 8fbd
000001e0: f9b9 7bbb 255e bb3d ce7e e4bb 68d5 17bd
000001f0: 49a4 0abd cf83 4cbd cf9e e9bc 8d96 313d
00000200: 22c6 62bc bfee 243d 7b66 6abd 11c1 db3c
00000210: 7450 963c c9e5 9a3d 81c4 983b 6a79 76bc
00000220: 9c32 b53c 2d9a 28bd 46d3 813c 279b bf3a
00000230: 3573 2bbd d3d0 5bbd 2a4c 4e3c 1c39 de3d
00000240: 4ed4 d33c c35a 6c3d 53d2 c83c 10ef 163d
00000250: 6598 423d a698 953b 0ca2 56bd b8fc 74bd
00000260: fd8b a3bd 0cd3 d5bd e574 7bbd f87f 34bd
00000270: 201c 1dbd afb0 87bd cc74 013d 041c 9e3d
00000280: 0a27 813c cffd 1abd e320 873d 1166 903d
00000290: 584f af3d 198f e1bc a203 303d b6bb 663d
000002a0: c2c9 c93c d66c 533c 2678 7f3d a6ee 00bc
000002b0: c8dd 35bd a772 42bd d86d f5bd 2e49 2abc
000002c0: fd48 233d df8d e23b abe9 5e3c 473d f2bc
000002d0: fec4 edbc f0a5 43bd 1a6d f5bc 6bf9 90bd
000002e0: 1861 53bd 0272 6dbd be22 44bd e3f8 77bd
000002f0: 4213 293d 49e4 eb3c 4ce9 21bd 7605 8abb
00000300: 1050 21bd 5748 54bd 93e4 633d 776f b93c
00000310: 90ab 213d f64a 1f3d d954 cdbc d4a0 593d
00000320: 5ca9 083d 7aac 123d 88ed 963b 9285 08bd
00000330: 283d 07bd 2097 afbc 6278 1c3c d9cb a1bd
00000340: 3838 97bd aa1b 82bd fb19 77bc 8235 aabd
00000350: d82a b6bd 1704 9cbd d217 a1bd 3fb4 c6bd
00000360: 913e 213c 663e 7cbb 5f1b 31bd 0a1d ddbd
00000370: 99f2 3ebd 654c a33c bf46 cc3c 179c b4bd
00000380: d5a3 bdbd 0ce9 c6bc 061a e73c 778e 153d
00000390: c8ff 843d 065b 1d3d 8b64 05bc c040 813d
000003a0: a604 833b bc22 cbbb 44cf 9dbd caf9 1cbd
000003b0: 70ea 92bc 9444 45bd ef39 9e3c 3b92 aabd
000003c0: 3bf0 3a3c 259c a3bd 7972 293c 5c19 9abb
000003d0: 9fa5 ddbb b7c5 1dbd 8a89 a4bc bf80 08bd
000003e0: ad68 ebba f730 b13c 9048 c9bc 3001 4b3d
000003f0: 517e f63d a08a 23bd 54f8 f7bc 824f 95bc
-0.07674199 -0.054946147 -0.08047485 -0.04848665 0.015455716 -0.070334196 0.0383178 0.010512495
0.021612436 0.07826227 0.002434159 0.050960466 0.07436195 0.11089293 0.05325966 0.037170485
0.049049824 0.113994546 -0.010062045 -0.0001924355 0.053713605 0.08604979 0.040482502 -0.031116765
0.017890275 -0.010032571 -0.026310306 -0.011800975 -0.038396444 0.010625703 0.057350907 0.033678573
0.050909165 0.011149705 -0.022918457 0.0279894 -0.063866414 0.015570824 -0.054259516 -0.003060038
0.024856834 -0.013323922 -0.02102204 -0.016184075 0.019610105 0.03698411 0.0013750995 -0.037314005
-0.020786997 -0.05801386 0.011471012 0.05585038 0.058325585 0.038619958 0.010794134 0.0054554758
0.07721955 0.020046938 -0.0055584195 0.05963254 0.016251951 0.046041925 -0.055499855 -0.033959754
-0.059212044 -0.09697132 -0.045497786 -0.055547807 -0.0009325759 -0.13680856 0.052989554 0.011363058
0.027442442 0.009315201 -0.023780664 -0.041202273 0.0044096312 -0.01655446 0.014190367 0.09965971
0.01199858 0.0031784328 -0.0327206 -0.0506732 -0.0034255632 -0.08514861 -0.013892779 -0.036669627
-0.1330185 -0.09514954 -0.013444782 -0.04979932 -0.08350091 -0.04816678 0.010764859 -0.0070063705
0.011723011 -0.03171848 0.024208046 0.043949056 0.027872661 0.024252152 -0.021044647 -0.028667351
-0.037643015 0.056545477 0.03563935 0.031902038 -0.05216899 -0.06127092 0.04284049 0.028498864
0.011521228 0.025634099 0.068917245 0.002554801 0.019850358 0.061525635 0.076745436 -0.07005372
-0.003841041 0.09148816 -0.006973124 -0.037068754 -0.03384808 -0.04993039 -0.028518109 0.043356467
-0.013841184 0.04026675 -0.05722664 0.02682546 0.01834891 0.07563359 0.004662097 -0.015043596
0.022118859 -0.04116266 0.015847813 0.0014618383 -0.041857917 -0.053665947 0.012591401 0.108507365
0.02585807 0.057703745 0.024514353 0.03684908 0.047508616 0.0045653163 -0.052400634 -0.059811324
-0.07985685 -0.104406446 -0.061390776 -0.044067353 -0.0383569 -0.066254966 0.031605527 0.07720187
0.015765686 -0.037839707 0.065980695 0.070507176 0.085600555 -0.027534055 0.042972215 0.05633136
0.024632338 0.0129043665 0.06237044 -0.007869398 -0.04440096 -0.047472622 -0.11983842 -0.010393424
0.03986453 0.006913885 0.0136055155 -0.029570235 -0.029024597 -0.047765672 -0.02995925 -0.07078823
-0.051606268 -0.057970054 -0.047884695 -0.06054009 0.04127813 0.028795378 -0.03952913 -0.004212077
-0.039382994 -0.0518268 0.055637907 0.022636158 0.039470255 0.038889848 -0.025064873 0.053131893
0.03336464 0.035809018 0.0046059527 -0.033330508 -0.033017308 -0.021434367 0.009550186 -0.07900209
-0.0738377 -0.06352933 -0.015081878 -0.08310987 -0.088948905 -0.076179676 -0.078658715 -0.09702348
0.009841577 -0.003848934 -0.043238994 -0.107965544 -0.046618078 0.019933889 0.024936078 -0.08818834
-0.09259764 -0.024281047 0.028210651 0.03651282 0.06494099 0.038416885 -0.008141647 0.06311178
0.003998357 -0.006199209 -0.077055484 -0.038324155 -0.017934054 -0.048161104 0.019314734 -0.083286725
0.0114098145 -0.079887666 0.010342234 -0.00470273 -0.0067641283 -0.038518634 -0.020085115 -0.033325907
-0.0017960273 0.021629794 -0.024570733 0.04956168 0.12035812 -0.039927125 -0.03026978 -0.018226389

conv2.bias f4 [20]
00000000: 8057 2ebd fcb0 3abd 3870 4ebd b718 4ebd
00000010: f93c 6cbd 093a 723c d94a 27bd 30ae 4f3c
00000020: cb16 ac3b 98ff aeba da7d 0d3c 0a4f 82bd
00000030: 8e9e 2f3d 21e9 223d bd8d d03b 2710 0cbd
00000040: 1a1a 8c3b 7065 5abd 5b44 3b3d da14 353d
-0.042563915 -0.04557894 -0.05039999 -0.05031654 -0.057675336 0.0147843445 -0.040842865 0.012675807
0.0052517406 -0.0013351319 0.008635962 -0.06362732 0.04287582 0.03977311 0.006364553 -0.03419509
0.0042755725 -0.053319395 0.045719486 0.04420934

fc1.weight f4 [50, 320]
00000000: 37da 2bbd dae6 563c 3432 f7bc 993b 35bd
00000010: b941 703c 7907 093d b989 003c c196 d3bc
00000020: c35f 38bd e7bc 05bb 8579 0cbd 8df4 a8bc
00000030: 6e25 dcbc a0cb a4bc 322f 28bd a3d7 483c
00000040: a163 373c 13fe 993c 186c 423d 7713 113d
00000050: acad 423d ed36 ab3c 5850 4ebd 7caa 51bd
00000060: b1fa 903c 1c2f c1bc d04a 5dbd 0456 4e3d
00000070: e9d8 9d3c a232 28ba 9318 03bc 5524 f9bc
00000080: c4aa eab9 def9 2ebd c70c dd3b 8c51 28bd
00000090: c981 5cbd 95d9 4bbd 1bdd 1b3d 4058 06bd
000000a0: 117a 20bc 3203 99bc bca8 4fbd 7775 00bd
000000b0: e681 8bbd 72cc b53c f894 11bc d14f c33c
000000c0: ba8e 6ebd 229f e1bc e215 06bc 75ad ce3b
000000d0: 708a 913c 1eef 40bd 38f0 47bd 14d9 d6bc
000000e0: 8835 10bd f46c bf3c e1f0 8cbb d940 eebb
000000f0: 08e6 70bd 360d afbc 52db 253d c1bf cd3b
00000100: 8d31 98bd 531b 0a3d 87cb c93c e6b4 3a3d
00000110: fbd0 823c 720e 70bd 29b4 a2bc 8216 9dbc
00000120: 5824 0bbd bd58 d4bc 39c2 263b 55d9 16bc
00000130: 2233 88bd 6ad0 543b 42d4 febc ce19 03bd
00000140: a012 be3b d8e9 623d 331c e2bb ace1 fb3c
00000150: a6bf 38bd f780 05bd 44ff 36bd b596 b93b
00000160: 1527 41bd 8f05 443d 6198 673d d17e cf3c
00000170: 1c56 3e3c 5415 22bd 4786 d13c 797d 6b3d
00000180: ab8c fa3c 41bf f33c 2bfc 0c3d 90f3 19bd
00000190: 6727 d7bb ebb2 91bb 6ad1 323b f4f4 1c3c
000001a0: c5e9 8bbd 5807 023c 2f84 c43d 1e87 2bbd
000001b0: c086 adbd d9ec a23b f3c7 a3bc 09ea 9ebd
000001c0: f683 acbc 9e6e 16bd e087 1ebd a1ea 92bb
000001d0: 65d4 1abc 7c66 46bd 3a3f 64bd ef7f 43bd
000001e0: 0d42 ee3c 7761 0cbc b7ff 25bd 2af5 a3bc
000001f0: 00c1 723d 424f f1bc 430c 593c b339 8abd
00000200: e767 06bd 1a78 603d a482 ccbc 2c97 543b
00000210: c614 38bc d21a 8e3c a614 863d 14a3 303d
00000220: 9222 2dbd 0598 e1bc e7ec 1ebd 573f 603d
00000230: 0ef3 aabc 27a6 8ebc 0bf0 dd3c 9a2d bebb
00000240: 418b 8ebb 3624 71bc c64c a63d b28f 5dbd
00000250: f651 cf3b 3245 03bb 677e 323d 234a 1d3d
00000260: 13ff a73b 1902 843c 0d77 3d3c d616 5e3c
00000270: b317 bebc 2009 16bd 9a37 fd3b 6781 37bd
00000280: 17aa 0fbd 037c 933c d33b 303b a87e 98bc
00000290: 9063 1c3d 2871 12bc 0186 223d 31eb 2b3d
000002a0: c562 403b 677c f73c f954 fd3c d633 36bd
000002b0: 6aa7 2abd 76c8 d53c ed92 533d 8683 453d
000002c0: 45bc 30bd 911a 473d 1929 d7bc 91b4 41bc
000002d0: ed48 573c b5bc 5ebd c525 c63c 5a74 60bd
000002e0: dcfa 4cbd 9da3 4bbc f255 43bd 1ebd 953a
000002f0: 1464 18bd 30bf bdbc 4feb 89bc 4f6c cc3b
00000300: dd0f fbbc c97c 7a3c 56bd 013d 84a6 0ebd
00000310: 75f3 0bbd e7b1 943d 3a8c 57bd 2e13 e13c
00000320: 7abe 84bd fe38 47bd 341c 573d 22b6 a43c
00000330: b136 f0bc a52d 09bc e5ab ccba fbe9 b93b
00000340: a7b2 42bd 1208 b53c c2fd 223d 34e4 8bbd
00000350: c16f 043d 64b8 7cbc 17d2 7938 b918 82bd
00000360: a048 653c 877e e33c 83eb d53b 860e 65bd
00000370: 4eaf 1dbd f4a5 5dbd c7fb 093d a3d7 2c3d
00000380: 7947 da3b 142c 573c 746c 713c 313d 1339
00000390: 4f5a 9ebc b834 53bc f293 18bd 4354 79bd
000003a0: 469f 3ebd ef20 45bd 5e18 00bb e665 c7bc
000003b0: 7875 36bd 4389 91bb 57de abbc 067d 9d3b
000003c0: 8488 843c 465f 0bbd 9cb8 a7bc d917 e53b
000003d0: e07c 5ab7 60a8 f5bb fd36 9c3b ce25 303c
000003e0: 4e7b efbc dcc5 3bbb 0d46 bf3c cfa8 ce3c
000003f0: 7c60 df3b b598 04bd e070 1f3d 2184 c93c
-0.041956153 0.013116563 -0.030175306 -0.04424629 0.014664107 0.033454392 0.007845336 -0.025828721
-0.0450132 -0.0020406784 -0.034295578 -0.020624423 -0.026873317 -0.020116627 -0.041060634 0.012258443
0.011193187 0.01879791 0.047466367 0.035418954 0.047528908 0.020900214 -0.05036959 -0.051187977
0.017697664 -0.023582034 -0.054026425 0.050375 0.01926847 -0.0006416236 -0.008001464 -0.030412832
-0.00044759188 -0.04271876 0.006745908 -0.041093394 -0.05383471 -0.04976805 0.03805266 -0.032799006
-0.009794728 -0.018678281 -0.050698027 -0.031362023 -0.068118855 0.022192214 -0.008885615 0.02384177
-0.058241583 -0.0275417 -0.008183928 0.006307299 0.017766207 -0.04710304 -0.048813075 -0.026226558
-0.0352073 0.023367383 -0.004301176 -0.007270914 -0.058813125 -0.021368604 0.040492363 0.0062789624
-0.07431326 0.033717465 0.024633182 0.045582674 0.01596879 -0.058607526 -0.019861298 -0.019175772
-0.033970207 -0.02592122 0.0025445356 -0.009207089 -0.06650378 0.0032472857 -0.031107072 -0.03200703
0.00580056 0.055398792 -0.0069003343 0.030747257 -0.045104645 -0.032593694 -0.044677034 0.0056637176
-0.047156412 0.047856864 0.056541804 0.025329025 0.01161721 -0.03957112 0.025576724 0.057492707
0.030584654 0.029754283 0.034420174 -0.037585795 -0.0065659764 -0.0044463775 0.0027285465 0.009579886
-0.068316974 0.007936321 0.095955245 -0.041876905 -0.08472967 0.004972082 -0.019992804 -0.077594824
-0.021059018 -0.036726587 -0.0387038 -0.0044835364 -0.009450053 -0.04843758 -0.05572436 -0.04772943
0.02908423 -0.008568159 -0.04052707 -0.020014364 0.05926609 -0.029456738 0.013247552 -0.067492865
-0.032813933 0.054802038 -0.024964638 0.0032438738 -0.0112354215 0.017346773 0.06546907 0.043124273
-0.042269297 -0.027538309 -0.038800146 0.054747906 -0.02086785 -0.017413212 0.027092 -0.005803776
-0.0043500965 -0.014718106 0.08120112 -0.054092117 0.006326909 -0.0020030257 0.043577578 0.03840078
0.0051268428 0.016114281 0.011564028 0.013555249 -0.02320466 -0.036629796 0.0077275755 -0.044801142
-0.03507432 0.01800347 0.0026891127 -0.018615082 0.038180888 -0.008938111 0.039678577 0.041972343
0.0029355746 0.030210687 0.030924307 -0.04448303 -0.041663565 0.026096564 0.05165379 0.048221134
-0.043148298 0.04860932 -0.026264714 -0.011822836 0.013139945 -0.054379184 0.024187932 -0.05479846
-0.050043926 -0.012429145 -0.047689386 0.0011424159 -0.037204817 -0.023162454 -0.016835837 0.0062384973
-0.030647213 0.01528854 0.031674705 -0.03482677 -0.034167726 0.07260495 -0.052623965 0.027474966
-0.06481643 -0.048638336 0.05251713 0.020106379 -0.029322954 -0.008372699 -0.0015615193 0.0056736446
-0.047533657 0.022098575 0.039792784 -0.06830636 0.03233314 -0.0154248215 5.9561888e-05 -0.06352372
0.013994366 0.027770294 0.0065283193 -0.055922054 -0.03849726 -0.054113343 0.03368738 0.042197835
0.0066613522 0.013133068 0.01473533 0.00014041808 -0.019330172 -0.012890987 -0.037250467 -0.060871374
-0.046538614 -0.04812711 -0.0019545774 -0.024340581 -0.04454562 -0.0044414117 -0.020980043 0.0048061637
0.016178377 -0.034026407 -0.02047377 0.0069913683 -1.3022887e-05 -0.0074968785 0.0047672973 0.010751201
-0.029233601 -0.002865187 0.023348833 0.025226979 0.0068169218 -0.032372195 0.038926005 0.024599137

fc1.bias f4 [50]
00000000: 5d0e a73b d948 693d 1330 183d 4e10 27bd
00000010: 483a 5c3c a07f 08bc 6911 38bc f157 43bd
00000020: 8a3d 833c 81ed efbc b138 e13c f651 39bd
00000030: 82f4 38bd 7a32 763d 64a1 23ba f410 0fbd
00000040: c08f 39bd 2aff 15bc 416c 24bc c2a6 1d3d
00000050: c8da 203c c7b3 48bd 0a50 343d 3dbf f5bb
00000060: cdb4 19bc 6d1a 8b3d e583 33bd fe55 323d
00000070: f91e b63c 0856 44bd 9039 ee3b 8a95 50bd
00000080: c211 8bbb 4f37 403d 9b54 cf3a 5f2a 68bc
00000090: 4496 903d 851c 313d 74f1 4bbb 0b40 4fbc
000000a0: cd9b b8bc 844e 623a ff08 fcbc bdc9 9ebb
000000b0: 4095 16bd cf08 383d 331e 083d 057e 32b9
000000c0: f04a febc aa5a afbc
0.005098148 0.05695424 0.037155222 -0.040787034 0.01344163 -0.008331209 -0.01123462 -0.04769129
0.016020555 -0.029288055 0.027492853 -0.04524418 -0.045155056 0.060106732 -0.00062420056 -0.034928277
-0.045303106 -0.009155074 -0.010035575 0.03848911 0.0098177865 -0.048999574 0.044021644 -0.007499604
-0.009381485 0.0679215 -0.043826956 0.04353904 0.022231566 -0.04793361 0.0072700456 -0.05092386
-0.0042440603 0.046927746 0.0015818061 -0.014170258 0.07059911 0.04324009 -0.003111926 -0.012649546
-0.02253523 0.00086329156 -0.030766008 -0.0048458264 -0.03676343 0.044930276 0.033231925 -0.00017022349
-0.031041592 -0.021405537

fc2.weight f4 [10, 50]
00000000: 39d0 bdbd 8240 2cbd ecdd 88bd f87a 5bbd
00000010: f810 403d 1208 89bd 8d2e f4bd 5832 fa3d
00000020: 47e6 c5bd b027 b5bd b835 5c3d 4f72 d0bc
00000030: 1021 00bd b0d7 aabd 7652 58bd 9790 aa3a
00000040: 6c8c 193d 6062 7fbd af8f f2bd 8731 df3d
00000050: 8660 13bd 6a8c f33b 923b 8dbd 5a62 e53d
00000060: 2e3a 693d 61df 7bbd 296c e9bd 23ec 923c
00000070: e06e ffbd 3893 09be bf54 01bd 0565 e3bd
00000080: 1e44 ab3d e0cf 9d3d 9b89 e33d 7899 56bd
00000090: 7761 b03d 672d 973d 142c 973d edd7 e13c
000000a0: a05b 2a3c 0662 22bd d742 c43d 36d2 223e
000000b0: 7788 243e 3abd 513b 611d b8bd 09a4 36bd
000000c0: 0ca4 153e 1034 7dbd 95ce 983c 50a5 f93c
000000d0: 85be cbbd 4dc8 e9bd 83f5 02be 6e96 5f3d
000000e0: 900b 193e 9b7e b63d cc20 d7bc be23 05bd
000000f0: 2856 023d 0493 a93b 29d7 c73c 45af 9d3d
00000100: 7e66 babc 632e 233c 04c0 253d 5304 873d
00000110: cba1 2e3e 3691 643d 93db 38bd 279f fabd
00000120: dfbe a33b bfd6 663c 1491 4e3d 0d35 37be
00000130: 3c1c 2b3d 9f3b a33d 3145 283e fa38 043e
00000140: f9bc 74bd c9c6 11be 499f 51bd 119a 24be
00000150: adc7 2fbe 5b59 2a3e 89f6 01be d75b 2abd
00000160: b88b 50bd 4e7e 91bd 5ffb 1fbd 19b7 973d
00000170: fe2d c23d fdfc f03b 6bfc 793c a5df 16be
00000180: e948 423d 46a5 503c a74e 843c 1474 d03d
00000190: 99ce b7bd 6ed3 95bd d5f0 f93c 3033 9f3c
000001a0: c060 a8bd 15db 08be 808b 9ebd 591b 03bc
000001b0: 22e2 82bd b9db 2b3e a5d2 cc3c 3e3f 833c
000001c0: b1fd fb3c d4a6 8d3d 434c 06be 2274 863d
000001d0: 5ad6 ea3d b541 a7bd ce7b ea3c 062e 183d
000001e0: f879 313d 7192 32bc 9031 a73d 8260 493b
000001f0: abc7 833c 9c6d afbb eff0 abbd 08d1 ea3d
00000200: 7370 343d cef8 b2bd ee86 0f3e dd6a 2dbd
00000210: f056 98bc b6bc 973c b696 7cbb 373a 153e
00000220: cb97 8ebd c6c1 823d 0dc1 cbbd 8e19 933d
00000230: e61a 093d 52fd 15bd a0ea 873d 1ebf 983d
00000240: daa5 f7bc 5fd9 bbbd e39b bc3c 87e0 c53d
00000250: b7f1 9f3d bf15 aabd f4d3 193e 183d a63d
00000260: d4bb acbd 259a 323d e806 c1bd c2be 7bbc
00000270: 0e22 813c 550b 77bc 0386 083e ef32 8cbb
00000280: d0a4 27ba 5310 8abd a36b 123d ae79 333e
00000290: e2cf 48bd 1a07 053e 2ef6 6e3d c145 9bbd
000002a0: 7179 2dbd 5858 363e e935 ad3c 8ec8 4ebd
000002b0: cfd2 49bd 36a7 643d 60c4 b6bd 7332 a5bd
000002c0: 8965 be3d d83b 433d e945 10be 515b 0abb
000002d0: dbd6 da3c a50e dcbb 7605 b73d 6d38 e13d
000002e0: c22a a43d c612 30bd 1dec a3bc 09d8 173e
000002f0: 6e87 dd3b 366e 68bc 3322 1b3d 9c6b 74bd
00000300: 7937 333d 891f 79bd 7d06 bfbd 3651 f8bd
00000310: c2ad eebd 4149 d73d 37cf fa3c 3260 60bb
00000320: 800a a43d b105 dd3c 2280 08bd 126a f83d
00000330: d222 32bd 1435 a03d 67a2 bd3d 0737 19bd
00000340: c926 bbbd 0c8e b0bd 4b48 4eba 5d1a 34bd
00000350: 2a62 553a b565 42bd d534 f5bc a906 1b3d
00000360: 6ad7 cc3d e357 d13d eec2 d1bd 848b 393d
00000370: 2045 5aba 1e87 2bbd 9216 0c3d b663 513b
00000380: 8341 50bd 669b 393e 9c9a 47bd bbea c83d
00000390: e239 2d3e 0aaf 433d 4433 e83d f348 4bbd
000003a0: 74c8 b2bd 36aa 5dbc 8cc6 f53d 0d95 36bd
000003b0: bdf9 5d3d cbac adbd e7c4 bcbd 7ec7 b03d
000003c0: 915e eebd a069 ae3d d226 a7bc 372c 34bd
000003d0: 1f4d 1cbe 4e14 403d 0c80 13be 64cc 6fbd
000003e0: 1424 0e3d 94d1 d0bd 227e 333d 07d0 cf3d
000003f0: 647f f93d f2e9 9abd e60d f33d 3aa2 943d
-0.09268231 -0.042053707 -0.06682953 -0.05358407 0.046891183 -0.066909924 -0.11922941 0.122166336
-0.096630625 -0.088454604 0.053762168 -0.025445132 -0.03128153 -0.083419204 -0.052813016 0.0013013062
0.037487432 -0.062349677 -0.11843812 0.108981185 -0.035980724 0.00743251 -0.06896128 0.112004
0.05694025 -0.061492328 -0.11397583 0.017934864 -0.124723196 -0.13435066 -0.03157496 -0.11103252
0.08362602 0.07705665 0.111102305 -0.052392453 0.0861234 0.07381707 0.07381454 0.027568782
0.010397822 -0.039644264 0.09583061 0.15900502 0.16067682 0.0032003657 -0.089899786 -0.04459003
0.1461336 -0.06181723 0.018653193 0.030474335 -0.09948448 -0.114151575 -0.12788968 0.05458682
0.14945817 0.08910867 -0.026260756 -0.03250479 0.031820446 0.0051749963 0.024394589 0.07699446
-0.02275395 0.00995979 0.040466323 0.06592622 0.17053907 0.055802546 -0.045131277 -0.12237387
0.004997119 0.014089285 0.050431326 -0.17891331 0.041774973 0.07970356 0.16432644 0.1291236
-0.05975053 -0.14235987 -0.051177297 -0.16074397 -0.17166014 0.16635649 -0.12691702 -0.04159149
-0.050914496 -0.07104169 -0.039058086 0.0740797 0.094814286 0.0073543773 0.015257935 -0.14733751
0.047432814 0.012734717 0.016150786 0.1017839 -0.08974952 -0.07315718 0.030510345 0.019433588
-0.082215786 -0.13364823 -0.07741451 -0.008002126 -0.06390788 0.16783036 0.025002787 0.016021367
0.030760618 0.069165856 -0.13115029 0.06565119 0.114666656 -0.081668295 0.028623488 0.037153266
0.04332921 -0.010899172 0.0816375 0.003072769 0.01608642 -0.0053536426 -0.08395564 0.11465651
0.044052552 -0.08738862 0.14016315 -0.04233824 -0.018596143 0.018522602 -0.003854198 0.14572988
-0.06962546 0.063846156 -0.09948931 0.071826085 0.033472918 -0.03661854 0.06636548 0.07458328
-0.030230451 -0.091723196 0.023023551 0.09661966 0.07809775 -0.08304929 0.1502226 0.081171215
-0.08434263 0.043604035 -0.094251454 -0.015365304 0.015763309 -0.015078385 0.13332371 -0.0042785327
-0.00063951034 -0.06741395 0.03574718 0.17526886 -0.049026377 0.1299099 0.058340244 -0.07581664
-0.042352144 0.17807138 0.02114387 -0.050484233 -0.04927331 0.055823527 -0.08924174 -0.08066263
0.0929671 0.047664493 -0.14089169 -0.0021111558 0.02671378 -0.006715613 0.089365885 0.109970905
0.08015968 -0.042986654 -0.020010049 0.14828505 0.0067605292 -0.014186433 0.03787441 -0.059672937
0.043754075 -0.06082109 -0.093274094 -0.12124865 -0.116542354 0.10512019 0.030616386 -0.0034237024
0.08009815 0.026980253 -0.033325322 0.12129606 -0.04349024 0.07822624 0.092594914 -0.037405994
-0.09138257 -0.08620843 -0.0007869049 -0.043970454 0.0008139933 -0.047460277 -0.029932419 0.03784815
0.100020245 0.10221841 -0.10242258 0.045299068 -0.00083263405 -0.041876905 0.034201212 0.0031950301
-0.050843727 0.18125686 -0.04873143 0.09810396 0.16916612 0.047774352 0.11337903 -0.049630117
-0.0872964 -0.013529351 0.120007604 -0.04457574 0.054193247 -0.08480223 -0.09217244 0.086318
-0.11639131 0.0851624 -0.020404253 -0.04398748 -0.15263794 0.046894364 -0.14404315 -0.05854453
0.034702376 -0.10196224 0.04382146 0.101471 0.12182501 -0.07564153 0.11867885 0.07257505

fc2.bias f4 [10]
00000000: 62a6 093e 330d ac3d 1d8e 143e 020a 993d
00000010: 81b9 a13c d8fc 7b3d a9b3 13be 6c15 023e
00000020: c222 0f3e fffc 883c
0.13442376 0.08400955 0.14507337 0.07472612 0.019741775 0.061520427 -0.14424004 0.12703484
0.13978103 0.0167222

momentum_buffer f4 [10, 1, 5, 5]
00000000: 7026 303e dcfc 4f3e 3c51 433e 84f0 073e
00000010: e46b 013e 7c2f ce3d b557 033e 9c7a af3d
00000020: beb7 953d 7b04 2d3e c26e be3c e820 63bb
00000030: 4c07 d9ba 8b3a 83bd 9f8c 093d 1938 d53c
00000040: 10de 80bd b820 c0bc 60cd e4bc 682b ab3a
00000050: d074 033d 8441 0bbd 66bf 62bc 06c0 35bd
00000060: 84d5 abbc cfff a3bd ce44 80bb 49d7 343b
00000070: 5c07 c238 81da 4f3c e37e bf3b 5ef9 173c
00000080: eb2b 4739 f0e1 a7b7 1002 c639 89d1 ab3c
00000090: 78ff 6a3b 9e11 213a e8f4 6838 b2e9 4ab8
000000a0: be20 823c be31 b33a 1591 b739 c14d 9a3a
000000b0: c922 ad39 33c2 043c f284 f939 72f9 abb9
000000c0: 5c16 13bb 8810 a7ba e8fa 8b3d 2d75 22bd
000000d0: 4dbb 1cbd 934f d4bb d695 963b d843 6fbd
000000e0: 4fdd 13be e87c a7bd d1a5 d1bb d111 7e3c
000000f0: 0190 13be 9a07 9fbd b852 c4bd 6cb0 59bd
00000100: 062d d03d b128 3bbe e067 b0bd ca78 89bd
00000110: 806a c83c 705e af3d 3083 063d f003 7a3d
00000120: 20f1 c73c 6c70 583d baa6 8bbd 2461 dd3c
00000130: 5c5f ca3d 02f1 ae3d 0a33 a53c 2c91 6cbc
00000140: 3a45 163e 82d9 993d a03c 413c 8bca 81bb
00000150: 94ab e23d 32cf f73d bc00 1a3c 26da a9bb
00000160: 8a21 003d 15f7 1f3e a653 2b3d 02bb 693b
00000170: 6d0e 843d a0d6 e53d df9f 393e f693 073d
00000180: f372 c43d d315 c43d bc78 983d 1f01 243e
00000190: 71b3 debd b2a1 6b3c 58a5 2c3d 84ed 293c
000001a0: 8911 ddbb 575a 8cbc fc5a 5d3d 5e0a f83c
000001b0: 47ef 213c 0c2d 80ba f2cb 953b 4070 2e3d
000001c0: 7621 d43c a806 583b e4fe ae39 6e5d 22bc
000001d0: 5196 cd3c d2f8 e53c b5a3 153b ae66 3f3b
000001e0: d1e9 27bc 50bf af3c 1812 e33b 0447 a4ba
000001f0: dae4 c4bc d398 1c3e ef14 4b3e be3d 853e
00000200: e7e8 5b3e fa6c 5f3e 9ae8 053e c8fa d43d
00000210: 7f17 fa3d 0088 b63d e49d 9a3d 2053 2c3c
00000220: e07e f4ba 0cb3 9d3c e025 7c3b b459 d13d
00000230: c359 3bbc 0fab 5a3d 62ee 863d 4e0c dd3d
00000240: cc95 cb3e 5483 49bc 30fa cb3c a464 273e
00000250: e6cd cd3e 785a 233f af9e c9bd 1103 95bc
00000260: be53 a7bd d6bc 09bd 481b 60bd 104d dd3a
00000270: f698 563c c73a d8bc f5be 77bd 8387 edbd
00000280: 7242 07bc d6ae 3bbc 4c32 43bb 50fc 1dbd
00000290: 4865 a7bd ddd6 b93a 016e f8bb 679f 88bb
000002a0: 0838 6dbc 8444 80bd f833 31bc 04fc df3b
000002b0: 72a3 07bd 8a95 82bd 68f3 47bd f054 6b3c
000002c0: 5cb5 13ba 8649 b53b 6ba1 22bc f061 59bc
000002d0: 8f09 2dbc 26b8 bfbb 8340 123c e4db ee3c
000002e0: 8e32 c23b 0834 a5bc e065 32bc faae 153d
000002f0: 4e12 093d 101a debb e073 a3bc 1d43 14bd
00000300: 80f3 9dbc 087e 8cbc b1f8 50bd f784 a4bb
00000310: a649 08bd c970 b6bc 87cb 02bc a6e6 2abd
00000320: f639 113e 1834 893c aaa9 223c 30ae 09bb
00000330: ff59 123b 16e7 d23d a1af d4bc cee2 8fbc
00000340: 57ec ddb9 b831 c4b7 7a86 a83d a686 02bc
00000350: bd5f 973b a0ae 37b6 3da7 2239 e26d 733d
00000360: 8a04 1c3b 7bd9 403b c47b 67b9 5056 853b
00000370: 5ee1 633d 3c4a 7a3b 99b4 d63a 7a22 663c
00000380: acc2 e13c 1b86 c63c dc47 033d 8b76 c43b
00000390: 8644 82bc a2bd 6e3c 1f08 233b a410 c2ba
000003a0: 3ada 583a 5d04 2b3b b95f 87ba eea7 77bb
000003b0: f049 97bb 6598 16bc 9f69 53b9 d20f aebb
000003c0: e804 10bb c5b9 01bc d840 66bc 0411 40ba
000003d0: 58b9 f7bb 0629 0cbd 8284 07bd be93 1dbd
000003e0: 1ee1 a9bd 1adb 28be
0.17202163 0.20311302 0.19073957 0.13275343 0.12638813 0.10067651 0.12826426 0.08568308
0.07310437 0.1689624 0.023246173 -0.0034657065 -0.0016557961 -0.064076506 0.033581372 0.026027726
-0.06292355 -0.023453102 -0.027929962 0.0013059201 0.032093823 -0.033998027 -0.013839578 -0.04437258
-0.020975836 -0.08007776 -0.003914452 0.002759414 9.252012e-05 0.012686373 0.0058439835 0.009275762
0.0001899448 -2.0013162e-05 0.0003776704 0.020973938 0.0035857838 0.0006144288 5.5541197e-05 -4.83782e-05
0.015884753 0.001367144 0.00035012575 0.001177244 0.00033023048 0.008102941 0.00047592033 -0.00032801513
-0.0022443747 -0.0012746016 0.06834966 -0.03966253 -0.03826456 -0.0064792125 0.0045954986 -0.05841431
-0.14439891 -0.08178121 -0.0063979407 0.015507177 -0.14410402 -0.07765122 -0.0958609 -0.053146765
0.101648375 -0.18277241 -0.086135626 -0.06712492 0.024464846 0.085629344 0.032839954 0.06103891
0.02440697 0.05284159 -0.0681891 0.02702386 0.098814696 0.08542062 0.020165939 -0.014438909
0.14674845 0.075121894 0.011794239 -0.0039609126 0.11067882 0.12100066 0.009399589 -0.005183476
0.031281985 0.15621598 0.04182782 0.0035664444 0.06448064 0.11222577 0.18127392 0.03310009
0.09592237 0.09574475 0.07444903 0.16016053 -0.108740695 0.014381813 0.04214987 0.01037157
-0.006746475 -0.017132921 0.054041848 0.030278381 0.009883708 -0.000977905 0.0045714313 0.04258752
0.025894862 0.0032962952 0.00033377775 -0.009909971 0.02509609 0.028072748 0.0022833173 0.002920549
-0.010248617 0.02145353 0.006929647 -0.0012533371 -0.024034906 0.15292673 0.19832204 0.26023668
0.21475564 0.21818915 0.13077012 0.10399395 0.12211513 0.08912659 0.075496465 0.010517865
-0.0018653534 0.019250415 0.0038474724 0.10222188 -0.011434975 0.05338579 0.06588437 0.107933626
0.39762723 -0.0122993775 0.024899572 0.16346985 0.4019615 0.6380992 -0.098447196 -0.018189939
-0.081702694 -0.033627354 -0.054713517 0.0016883928 0.013097992 -0.026395215 -0.060484845 -0.115981124
-0.008255588 -0.011455258 -0.0029784618 -0.038570702 -0.08173615 0.0014178414 -0.007581473 -0.004169393
-0.014478691 -0.06263068 -0.010815613 0.0068354625 -0.033114858 -0.063761786 -0.048816115 0.014363512
-0.00056346296 0.0055324463 -0.00992618 -0.013267979 -0.010561361 -0.0058508096 0.008926514 0.029157586
0.0059264367 -0.020166412 -0.010888547 0.036543824 0.033464722 -0.0067780092 -0.019952714 -0.036196817
-0.019281149 -0.01714994 -0.05101842 -0.0050207335 -0.03327336 -0.022270577 -0.007983095 -0.04172387
0.14182267 0.016748473 0.009928146 -0.0021008365 0.0022331474 0.102979824 -0.025962653 -0.017564204
-0.00042328492 -2.3388173e-05 0.08228774 -0.007966673 0.004619567 -2.737077e-06 0.00015511825 0.059430964
0.0023806416 0.0029426503 -0.00022075983 0.004069127 0.05563485 0.003819122 0.0016380727 0.014046306
0.027558647 0.024233868 0.032050952 0.0059955767 -0.015901815 0.014571579 0.0024876667 -0.0014805985
0.00082722644 0.002609513 -0.001032821 -0.0037789303 -0.0046169683 -0.009191607 -0.00020161875 -0.0053119445
-0.002197558 -0.007917826 -0.014053546 -0.0007326754 -0.0075599365 -0.03421881 -0.033085354 -0.038470976
-0.08294891 -0.1648983

momentum_buffer f4 [10]
00000000: ca15 5b3a 0f08 f63a f939 ae3b ef61 123a
00000010: 73bf 063b f4cd 553b 3809 81ba 7548 153a
00000020: 04c2 3d3b 290d 2bba
0.0008357434 0.0018770712 0.0053169695 0.0005584051 0.002056089 0.0032623978 -0.0009844666 0.0005694696
0.0028954754 -0.00065250933

momentum_buffer f4 [20, 10, 5, 5]
00000000: bf97 5a3b 1588 ad3b 8065 8f3b 69c1 be3b
00000010: d663 86bc 6395 0e3a edcb e83a 04f3 7bbc
00000020: edfa c9bc 6b83 613a 705f 143c bf9a 803b
00000030: 40f8 4f3c 4ddc 07bd 1c1a b1bc 956f 5c3c
00000040: a5f4 f93c 7c28 f33b 22d9 9b3c bc01 853c
00000050: de4d 0bbc d536 5f3c de50 6a3b df6e 7e3b
00000060: 0d58 a639 51bd 46b8 4ee4 da3a 52ef 4c3b
00000070: 75e3 9d3a 28ae 303b 2aef 67ba f429 3c3b
00000080: dd75 913b 4c7d 0d3b d118 0d3a deef ab3a
00000090: 7d89 9f3a 7a61 803b 9e48 2738 0cbc b2ba
000000a0: 92fa 9e3a c2a1 2c3b c79f b03b 88e0 92bb
000000b0: 31f3 3abc c4ff 8b3a f940 cc3b f9b9 e23a
000000c0: b99f b2bb 6919 24bc 5a1c b03c 5174 953b
000000d0: d2c0 5f3c 9e78 283d a83a 56bb e54f 21bc
000000e0: fb80 c4bc 9544 3bbc a32c d9bc f186 b3bc
000000f0: 42b0 d9bc 3dd0 8fbc de20 91bc 3645 b7bc
00000100: c1be c13b 6aa3 4f3c c663 363c 41dc 5d3a
00000110: a5c7 26bc afe2 df3c c924 993c 1b83 a93b
00000120: 2e7f 86bb c310 073c 4201 1b3d 1c0c eb3b
00000130: eb36 adbc 392b 453d c00a a63c bf63 e43c
00000140: 48dd 0cbd 6e5e 08bc a90e 423d 9c02 8d3c
00000150: 126d 8fba cd3a f4bc 8ca2 1e3d 4d78 483d
00000160: 5f29 0cbb 738e a03b b3fc 5a3b c11d fd3c
00000170: dc74 8338 fe70 fabb bbd8 633d 844a d23c
00000180: a8d3 153c cad4 9bbb 5699 4e3d da45 373d
00000190: ccfd 7b3b 6421 e13b 0195 a03b a398 163c
000001a0: f336 ce3b ad6b 363c f641 203c ed06 943b
000001b0: 0fbd 863a fbe5 5d3b 0a2a 873b 7d21 363b
000001c0: fdcd 823b a6b6 dc3b c4bf 85ba 779d aa3b
000001d0: c504 8e3b e081 d63a 478a 64bc f4a1 913c
000001e0: f4a7 f83b 1d8e 47bc 851a 02bd 162f 2cbc
000001f0: 07e1 3bbb 77ff bb3b 72ad 0bbc 81ba 7a3d
00000200: 04b1 4b3d 9ed8 713b 5e7e f5bc 1854 05bd
00000210: ff2e 83bb a14b 07bd b0ce 2dbc 5004 15bd
00000220: 0612 2b3b 843a 783b e726 88bc 8421 07bc
00000230: bc39 cd3c 782b f8bb 23ca 94bb 6e77 9dba
00000240: cc6b 8a3d 8c55 543c e5cf b03c 38f2 243d
00000250: 302b 8a3d aabc 823d c220 a83b 8f53 de3a
00000260: 244b d23a 5b0d b139 bb26 6839 5637 aab9
00000270: c39f 353b c4ac d1ba 92f7 52bc c930 4abb
00000280: 1dc3 893c 8196 0b3c 250a d53c 4ecd afbb
00000290: af4b 3dbc 1ea5 183c 8770 1f3d a078 483c
000002a0: 2a3a 353c 10b2 2eb9 fe9d 5ebc fb9c d43c
000002b0: ded8 d13c 3a82 d1bb 5ee2 443b b86c 2d3b
000002c0: a06e 1ebb 5d11 173a 8f57 afbb aa88 1dbb
000002d0: 5782 36b9 3833 36b9 30d1 14ba 7383 633a
000002e0: 50d9 12bb d92c 9eba 8511 9eba c76f a3bb
000002f0: 33b7 3bbc 55a7 60b9 c0bc 1a3b ec4b ae3b
00000300: 9597 f13b 8b03 1aba a4a2 84b9 204e 103c
00000310: 9bd3 893c cdb1 3fbb 0670 c03a bfc6 3a3c
00000320: 0671 56ba e0e0 153c be34 0e3c 06a6 b33a
00000330: 54d3 843b 3c70 b0b9 8839 163c ae70 013c
00000340: a5e4 6f3a 4ad3 6dbb 0942 3f3a 6347 fa3b
00000350: e458 f33b dda5 67ba 716a 6bbc 1f7c 223a
00000360: bb1e e73b 1b31 943b 1d97 0fbb 0557 99bc
00000370: 3a7c 6339 3eb3 d33b fb5d c93b fd41 64bb
00000380: ffa3 5abc 0f43 1dbb e21c 30bc 2fa9 033d
00000390: 082d 9e3c e562 22bc 488a a9bc f271 8a3c
000003a0: c70a 443c 3337 09ba d0ab fdb6 23d5 1f3b
000003b0: 8e6e c23c 6680 48ba 2676 95ba da5c 923b
000003c0: d48a a33c 2abc 193b 7061 853b fb22 f33b
000003d0: 6687 883a 6a91 193c 1ddc e33b 9a13 a639
000003e0: 52ae 3f3c 84cb b73b f643 4dbc 22d1 9cbd
000003f0: f6c8 e3bd 6cd7 07bd e0ac d039 c365 8bba
0.0033354608 0.0052957633 0.0043761134 0.005821396 -0.016405027 0.00054391305 0.001776097 -0.015377764
-0.024655784 0.00086026517 0.009055957 0.003924697 0.012693465 -0.03316908 -0.021618895 0.013454338
0.030512163 0.0074205976 0.019024435 0.016236179 -0.008502452 0.013623913 0.0035753767 0.0038823409
0.0003172759 -4.7383193e-05 0.001670012 0.0031270576 0.0012045937 0.0026959274 -0.0008847589 0.002871153
0.004439099 0.0021589575 0.0005382421 0.0013117751 0.0012171712 0.00391787 3.9883533e-05 -0.0013636365
0.0012129119 0.0026341532 0.0053901407 -0.0044823326 -0.01141052 0.0010681082 0.0062333313 0.0017297856
-0.0054511693 -0.010015824 0.021497894 0.004560985 0.013656812 0.041130655 -0.003268877 -0.0098457085
-0.023987284 -0.011429925 -0.026510542 -0.021914931 -0.026573304 -0.01755535 -0.017715868 -0.02237187
0.005912632 0.012673238 0.011132186 0.00084633013 -0.010179435 0.02732977 0.018694298 0.0051730997
-0.0041045165 0.008243742 0.037842996 0.0071730744 -0.021144351 0.048136923 0.020268798 0.027879594
-0.034390718 -0.008323295 0.047377262 0.017213158 -0.001094254 -0.029813195 0.038729236 0.048942853
-0.0021386964 0.004899794 0.003341478 0.030897977 6.2683335e-05 -0.0076428642 0.055626612 0.025670297
0.009144701 -0.004755591 0.0504392 0.04474435 0.0038450835 0.0068704356 0.004900575 0.009191665
0.0062931716 0.01113407 0.009781351 0.004517427 0.0010279733 0.0033859003 0.0041248845 0.0027790957
0.003991841 0.0067356406 -0.0010204245 0.0052067596 0.0043340647 0.001636561 -0.0139489835 0.01777742
0.007588381 -0.012179879 -0.031763572 -0.010509273 -0.0028668062 0.005737241 -0.008525239 0.06121302
0.049729362 0.0036902796 -0.029967483 -0.0325509 -0.004003405 -0.03303111 -0.01060836 -0.036381066
0.0026103272 0.0037876675 -0.016620113 -0.008247737 0.025051944 -0.0075735413 -0.004540698 -0.0012013742
0.06758842 0.012959849 0.021583507 0.04027006 0.067465186 0.06383641 0.005130858 0.0016962158
0.0016044122 0.0003377002 0.00022139672 -0.00032466155 0.0027713634 -0.0015996923 -0.012876408 -0.0030851832
0.01681667 0.00851977 0.026005814 -0.0053650504 -0.011553689 0.009316711 0.038925674 0.0122357905
0.011061231 -0.00016660267 -0.013587473 0.02595376 0.025616106 -0.006393698 0.0030042152 0.0026462507
-0.0024174824 0.000576278 -0.005351014 -0.0024037757 -0.00017405428 -0.00017375953 -0.00056769233 0.000867895
-0.002240736 -0.0012067809 -0.0012059665 -0.00498769 -0.011457252 -0.0002142464 0.002361104 0.005319109
0.0073728063 -0.0005875162 -0.0002529818 0.008807689 0.016824534 -0.0029250265 0.0014681823 0.011399924
-0.0008180294 0.009147853 0.008679567 0.0013706095 0.0040535126 -0.00033652957 0.00916899 0.0079004
0.0009151197 -0.0036289268 0.0007295912 0.0076379045 0.007426368 -0.0008836666 -0.014368639 0.0006198305
0.007053224 0.0045224554 -0.002191014 -0.018718252 0.00021694685 0.0064605763 0.0061452365 -0.003482937
-0.013344764 -0.002399627 -0.010749074 0.032143768 0.019308582 -0.009911274 -0.02069582 0.016900036
0.01196546 -0.00052343606 -7.559989e-06 0.0024388514 0.023734357 -0.00076485274 -0.0011403009 0.004466635
0.01996366 0.0023458102 0.0040704533 0.0074199415 0.0010416328 0.009373048 0.00695373 0.00031676592
0.011699276 0.0056089777 -0.01252841 -0.076570764 -0.11122315 -0.033164427 0.00039801653 -0.0010635186

momentum_buffer f4 [20]
00000000: a2e1 543a f0ed 0ebb 90ac dab6 3f39 3b3b
00000010: bbfb 423a 7e5a b9b7 a2ad 413b 192e 90b9
00000020: 0c44 cfb9 fbd6 173a d758 adba ec5d efb5
00000030: f703 41ba 0435 51ba 5aed 3cba a2b9 54ba
00000040: 7ac7 12bb c0ec 0abb f061 8438 2c04 fc39
0.000812078 -0.0021809302 -6.516995e-06 0.0028568057 0.00074380235 -2.2095857e-05 0.0029552956 -0.00027500166
-0.00039532816 0.00057922275 -0.0013225329 -1.7834222e-06 -0.00073629565 -0.0007980617 -0.0007206999 -0.00081148196
-0.002239673 -0.0021198243 6.312493e-05 0.00048068294

momentum_buffer f4 [50, 320]
00000000: 3019 7039 d0ab 0f3d 035a d43c 2d3e 3f3c
00000010: 50a8 1d3d 80c3 2d3d a8d4 ee3c 5672 e436
00000020: 777e fd3c 6092 ecb8 ae22 96b4 ec86 06b7
00000030: 0714 eb38 b642 f9b8 db1b ef36 de5a 593b
00000040: da37 0d3c 1b82 dd38 8f9b 8db8 80a3 2c3c
00000050: 60d9 103a ed56 1fb8 15cc 3bba e535 823c
00000060: e559 4cbc 7e40 82b2 43c1 0b3a af0f 1e3c
00000070: 6d53 41b9 7f8a 8eb5 ef8e 8bb8 2031 53bb
00000080: 0000 0000 0000 0000 0000 0000 0000 0000
00000090: a014 7485 0000 0000 0000 0000 0000 0000
000000a0: e62f 3f97 0000 0000 0000 0000 0000 0000
000000b0: 3057 14aa 0000 0000 0000 0000 0000 0000
000000c0: 357f 85b7 5227 08ba 0ba6 8bb9 6070 d3b8
000000d0: c0fc dfb8 70ad 4cb9 56fb 76b7 7dad 5ab6
000000e0: 421b 3fba ca4d 71ba a6ae 15b9 9ea9 9439
000000f0: 7ec8 2137 7a64 2bb9 c142 4e39 6a99 5f38
00000100: 141f 82b7 9504 52b7 3860 7936 5eb9 8436
00000110: 962f acb6 de2c a235 f8b8 b1b6 b218 9ab7
00000120: 0a8d 02b8 967c 7bb7 af0c 0ab7 f64f 78b7
00000130: cf7b 5cb7 672b 58b6 98b1 36b0 b53d 7cb5
00000140: a800 e0a9 0000 0000 0000 0000 0000 0000
00000150: 583d 66b4 0000 0000 0000 0000 0000 0000
00000160: 158e 8598 0000 0000 0000 0000 0000 0000
00000170: 0000 0000 0000 0000 0000 0000 0000 0000
00000180: 142c b9bc 9aaa 5dbc b96b 65bd 161c 62bd
00000190: 2dd5 96bb 2f28 aa3a 56ac 14bc da80 b8bb
000001a0: 245f 24bb 6214 05bb a5a8 423a ad17 e6b8
000001b0: 60a1 9bbb 56a7 8abb 6467 39bb a2fd 86b8
000001c0: 0e18 0fb5 dee5 21b9 3284 b6b8 4271 93b9
000001d0: 2a34 34b8 bed9 89b9 ac58 452e b5d7 0b37
000001e0: e583 59ba 9b60 44ba eca0 22b7 6f87 f4b7
000001f0: 46e3 44ba 18a2 cbb9 4c9e b6b9 88b2 63b8
00000200: ec04 a334 a130 feb6 f9f5 1bb1 fd9c f631
00000210: b0fb 25b2 7df4 48b7 9790 4bb5 7253 b4b1
00000220: c93d 8cb5 b215 0bb7 e3bf ee32 3ec5 c930
00000230: 3043 6132 3b4b dab6 4950 4233 a6ef f631
00000240: ae96 e539 6562 9e3a 9499 863a 0555 20b8
00000250: e223 853b 27e0 ae3a 5510 aeb9 2a17 89b5
00000260: cce9 cbb8 ee2e b3b5 ea7e e9b5 0fdb 8e38
00000270: 0414 2d3b 1998 cd3a 6c68 e0b4 c21c 9d3a
00000280: 182c 12b8 8691 a1b9 eaca 9885 0000 0000
00000290: 3130 3bb9 38dc 25b5 a987 0faa 0000 0000
000002a0: 9b7c a3bb 6a66 37ba 099b a29a 503f 0680
000002b0: dcba 63b8 9017 b8b2 b58e 1cb6 9309 56ac
000002c0: 0000 0000 0000 0000 0000 0000 0000 0000
000002d0: 8f70 bd8b de20 5f18 f054 0380 b008 21a8
000002e0: 352d 7429 07f1 17b3 84ce 979b 0000 0000
000002f0: 3b84 1f1d 95bf c1b3 0000 0000 210f bb87
00000300: d721 01b8 78d2 a839 b19f dd39 fccd b7b3
00000310: 8e7d 3439 5b05 083a f7a7 0fb6 8666 0637
00000320: ad57 083a 0ce7 2839 4ad3 c7b5 4c54 2c38
00000330: afa1 d539 5dcd 36b7 1c77 8538 9ae4 8bb7
00000340: c4f6 1a3b a6af cd39 5e1e 6fb9 a61e b4b7
00000350: ccbe 023a 781c cb37 cb1d 46a8 47dc a939
00000360: 7961 5abc 3384 fe34 a4f2 3720 70e8 903a
00000370: 1d89 06b7 d4dd fcb2 24c6 1c1e f95a e836
00000380: 0000 0000 0000 0000 0000 0000 0000 0000
00000390: 0000 0000 0000 0000 0000 0000 0000 0000
000003a0: 0e8d d1ad eb64 11a6 0000 0000 0000 0000
000003b0: cbf8 b2aa 1dbe 8cb2 9fd7 2d94 df0c cda8
000003c0: 0000 0000 1168 8c8a ba69 23a6 e67f a014
000003d0: 3c62 96aa 8189 0297 0000 0000 7c5f 0fb4
000003e0: 8a43 83a7 b51f 25a7 8638 2eb1 a3d9 0db7
000003f0: 5f3a 22a7 7911 b693 4e79 a4a8 7378 32bc
0.00022897567 0.035075963 0.025921827 0.011672539 0.038490593 0.04242277 0.029154137 6.80824e-06
0.030944092 -0.000112806214 -2.796491e-07 -8.018436e-06 0.000112094036 -0.00011885671 7.125998e-06 0.0033165733
0.008619273 0.00010562335 -6.752379e-05 0.010537028 0.00055255555 -3.798951e-05 -0.00071638945 0.01589484
-0.012472604 -1.516332e-08 0.00053312274 0.009647294 -0.00018436993 -1.0620132e-06 -6.65466e-05 -0.0032225326
0.0 0.0 0.0 0.0 -1.1476613e-35 0.0 0.0 0.0
-6.1775885e-25 0.0 0.0 0.0 -1.317529e-13 0.0 0.0 0.0
-1.591407e-05 -0.00051938475 -0.00026635858 -0.000100821955 -0.00010680547 -0.00019519567 -1.4721261e-05 -3.2585515e-06
-0.00072901335 -0.0009205012 -0.00014274809 0.00028355134 9.6430285e-06 -0.00016345261 0.00019670559 5.331022e-05
-1.551168e-05 -1.2518042e-05 3.7159898e-06 3.955486e-06 -5.131539e-06 1.2082999e-06 -5.2965443e-06 -1.836973e-05
-3.1125768e-05 -1.4989773e-05 -8.228394e-06 -1.4800569e-05 -1.3141848e-05 -3.2211772e-06 -6.646359e-10 -9.396711e-07
-9.947712e-14 0.0 0.0 0.0 -2.1442736e-07 0.0 0.0 0.0
-3.452316e-24 0.0 0.0 0.0 0.0 0.0 0.0 0.0
-0.022604026 -0.013529444 -0.056010935 -0.055202566 -0.0046030493 0.0012981946 -0.009074291 -0.0056305947
-0.0025081122 -0.0020306339 0.00074256427 -0.000109716646 -0.004749462 -0.004231374 -0.0028290385 -6.436861e-05
-5.3306655e-07 -0.00015439789 -8.7030596e-05 -0.0002812241 -4.2963926e-05 -0.00026292907 4.487137e-11 8.335269e-06
-0.0008297547 -0.0007491202 -9.69342e-06 -2.9150133e-05 -0.0007510673 -0.00038839947 -0.00034831685 -5.4287288e-05
3.0364697e-07 -7.575451e-06 -2.2695288e-09 7.17739e-09 -9.661491e-09 -1.1977853e-05 -7.58338e-07 -5.248176e-09
-1.0448795e-06 -8.290097e-06 2.7794107e-08 1.4680734e-09 1.3112e-08 -6.5056643e-06 4.5242164e-08 7.186787e-09
0.0004379055 0.0012083767 0.0010269159 -3.8226153e-05 0.0040631155 0.0013341949 -0.00033200035 -1.0214037e-06
-9.7233424e-05 -1.3350198e-06 -1.739679e-06 6.8118905e-05 0.0026409635 0.0015685587 -4.1799228e-07 0.001198672
-3.4850178e-05 -0.00030816736 -1.436855e-35 0.0 -0.00017851662 -6.178775e-07 -1.2748018e-13 0.0
-0.0049892194 -0.0006996157 -6.72521e-23 -5.73725e-40 -5.4295044e-05 -2.1431134e-08 -2.3328878e-06 -3.0416544e-12
0.0 0.0 0.0 0.0 -7.296951e-32 2.8838668e-24 -3.05976e-40 -8.939179e-15
5.4218094e-14 -3.537664e-08 -2.5114312e-22 0.0 2.1111836e-21 -9.0221114e-08 0.0 -2.8145525e-34
-3.0787513e-05 0.00032200268 0.00042271384 -8.55907e-08 0.0001721291 0.00051887863 -2.140643e-06 8.010893e-06
0.0005201053 0.000161078 -1.4888149e-06 4.1086503e-05 0.0004074699 -1.089586e-05 6.36412e-05 -1.6676542e-05
0.002364562 0.00039231515 -0.00022804129 -2.1471944e-05 0.00049875374 2.4212743e-05 -1.0997668e-14 0.0003239831
-0.013328903 4.7407374e-07 1.5580986e-19 0.00110556 -8.018947e-06 -2.9437537e-08 8.299546e-21 6.9247294e-06
0.0 0.0 0.0 0.0 0.0 0.0 0.0 0.0
-2.382319e-11 -5.044375e-16 0.0 0.0 -3.1791787e-13 -1.6384599e-08 -8.776792e-27 -2.2765154e-14
0.0 -1.3520655e-32 -5.669527e-16 1.6206318e-26 -2.6713516e-13 -4.217882e-25 0.0 -1.335265e-07
-3.643303e-15 -2.2915538e-15 -2.5352462e-09 -8.454927e-06 -2.251366e-15 -4.596049e-27 -1.8260265e-14 -0.010892975

momentum_buffer f4 [50]
00000000: 7879 04b9 e5e6 d5b9 7390 493b f2cd de3a
00000010: 6adf 833b ece7 7eb7 171d 23bb f3d0 923b
00000020: b998 e2b9 91d1 563b 6d1d 003a 7a8a 0a3b
00000030: 4fff 313b 97c2 37bb 7c9d 3c3a b147 3fbb
00000040: 5a42 57bb 3045 88b9 0cf7 9fbb 0c6d d139
00000050: f205 793b 3adc 6bba 131e 033c e638 8eba
00000060: 8456 c239 a903 7b3a 75a7 f3ba 4c0a 053a
00000070: a8dd 98ba 9c3b 7939 7659 a4b9 4c5a 513b
00000080: 187b 64b9 d968 dcba 396b 30ba 12a8 acba
00000090: da16 9939 5dcf 0dbb 7017 5c3a e950 3e39
000000a0: 39fd 2f3b 3447 e7ba 8d05 e8b9 56cd 123a
000000b0: 9a09 8939 54d5 443a a062 5e38 db98 8eba
000000c0: 0aa5 493a 5944 323a
-0.00012633752 -0.00040798556 0.0030756264 0.0016998632 0.0040244358 -1.5193578e-05 -0.0024889165 0.004480475
-0.00043219866 0.003277872 0.0004887197 0.0021139667 0.0027160232 -0.0028039569 0.0007195098 -0.0029187019
-0.0032845945 -0.0002599149 -0.004881745 0.00039944833 0.0037997928 -0.0008997355 0.008002776 -0.0010850697
0.00037067023 0.00095754355 -0.0018589335 0.0005075082 -0.0011662738 0.00023768697 -0.0003134717 0.003194469
-0.0002178963 -0.0016815915 -0.00067298446 -0.0013172647 0.0002919946 -0.002163849 0.00083958264 0.00018149953
0.0026853813 -0.0017645122 -0.00044254624 0.00056000554 0.0002613783 0.0007508595 5.3020776e-05 -0.0010879295
0.0007692134 0.0006800346
